MI_4_set/Eval/best_model2.pth (torch, 96721 bytes, 36 tensors)

conv1.weight f8 [8, 1, 1, 64]
00000000: 860b 78dc d024 883f a61f 2afe b052 b93f
00000010: 90f3 35df 3d58 b8bf 1565 e567 b312 a8bf
00000020: d459 acb1 0a0c 8e3f 7dc6 c9ee fbd7 933f
00000030: 66c5 1b61 19a3 afbf 30ee 72ba d1a9 ac3f
00000040: d6d7 583b f320 b4bf d556 7292 d895 c5bf
00000050: 97ea 3c64 5abb c1bf e581 7dce 8f7d 913f
00000060: eee5 23f5 bc84 81bf df08 13a1 5255 b1bf
00000070: d56d e531 4c93 b7bf 75b5 8135 287f babf
00000080: 3248 1dcf cadc c5bf 4811 58ca 189a 85bf
00000090: d298 0975 9416 c6bf b4dc 7e78 6ae3 9f3f
000000a0: d55b 3fa2 ade0 b8bf 50b7 777a cc3b ab3f
000000b0: 4c42 96c0 842b 76bf c2d9 d681 34d2 bfbf
000000c0: 6a74 f421 0c67 c2bf ef61 3153 b3f2 b9bf
000000d0: 1f5e 9344 0197 973f 2dac e3c6 e606 973f
000000e0: c1cd 573f 29af b7bf b5d3 471c b6c6 a13f
000000f0: a6c5 8a1d 2cd1 a23f 0eb0 1948 1f5d b1bf
00000100: 560e 91bd 2303 9e3f c1ec 5bc0 db7a a3bf
00000110: eb31 546b 9fc3 c03f a396 38dd 5931 743f
00000120: 265f 74b0 faa2 c23f 0d8f 481d 3c23 b83f
00000130: 6ac5 7586 b333 a23f 5efc 7acb db9f bb3f
00000140: 570b 3459 7103 c03f c5bd e39b 0bd5 ab3f
00000150: c6c7 a2fe 4299 c83f 62d6 0910 6938 b43f
00000160: bf99 d4a5 fa96 d03f 9cd2 2af5 899d c23f
00000170: 797c 0f45 f0e5 c83f 3825 9348 7eb9 cb3f
00000180: f40d fb56 b6c2 ca3f 1d17 5427 3f2a bc3f
00000190: e8d2 38d6 ce00 b23f 2011 9770 e1bb cb3f
000001a0: b3cf 37bb e720 d13f b2d5 b8f0 988f a73f
000001b0: 98d6 4794 e806 d23f 84f8 b76e 1a8e b13f
000001c0: c0d1 22b2 d0ab c23f 50bc 4a74 d805 cb3f
000001d0: fbbe dac7 c3ce c63f fd9d b7a2 5a8e cf3f
000001e0: 85a6 5dbc b70f c23f d021 d9fb f487 ce3f
000001f0: 8e6d 1e51 810a cd3f 3432 ee10 7e1f c93f
00000200: 0b25 3fa5 16b1 bfbf 5c63 4f04 ac77 d2bf
00000210: 4c1d cc3c 23f1 cabf 2bd9 405c c0d2 b7bf
00000220: 1d42 418b a31b b1bf 274c 5429 8003 bbbf
00000230: ac75 e331 1688 c6bf 48b9 d065 06b9 723f
00000240: 59f1 7d97 bd92 b8bf 9c45 799d 9f22 c2bf
00000250: 411c 6099 10a7 93bf 1785 cac7 6955 c2bf
00000260: 7f8d bb3c 170f b0bf c4d0 7d25 a5ea bebf
00000270: 864d c4ad 4079 61bf 1745 e135 6535 9abf
00000280: 06c6 dc21 71ef 8d3f 4210 1d1f c5d9 a9bf
00000290: 602d e5c4 3709 c6bf 28a6 3617 ba1e a63f
000002a0: 6d2b 0438 e443 cabf 1c67 b387 7558 a1bf
000002b0: 1611 a9ee 07f0 7a3f 9bf0 6035 cc88 babf
000002c0: f04c d83b 2480 bdbf 7bab 7d31 7512 9b3f
000002d0: 36ab 072e 52dc bfbf d0d2 0ca0 d1d3 9c3f
000002e0: fedb 9baa b917 c1bf bd0f cac4 1a6a 843f
000002f0: 8751 3a33 dadd b4bf 6771 a24b ff82 b63f
00000300: 28e6 1df5 11dd c43f 432d 4aea 7f10 71bf
00000310: c4ba 857d 525c 753f 5cd6 5bb2 2a51 703f
00000320: d309 1e7d 4c7f c03f 72b8 6042 a421 b03f
00000330: 79d7 3864 46c9 b23f 9700 7fd0 6f6c aabf
00000340: d54f 081e 6a93 b5bf 50a2 c9b3 f259 a93f
00000350: 5a18 ea56 de70 85bf 5f65 d758 0229 a13f
00000360: 015f 53fb a48b b2bf c586 28cc 5ca3 8abf
00000370: 6644 64f4 4fec c4bf 05d1 fd18 2000 94bf
00000380: b998 d67e 2f77 c4bf 601d 040c 1990 babf
00000390: 18ba 1f27 ea4b c4bf d2a8 82e2 ee8e c0bf
000003a0: c0b6 e719 f857 c2bf 36a1 6e24 94b3 c9bf
000003b0: 16b0 bd3e 973e b4bf fdeb b590 b32a 863f
000003c0: 8287 78c3 66b4 a53f 8140 acee 59a2 c1bf
000003d0: 4ec9 d219 49d7 a33f 7d7e cabf 488a b23f
000003e0: 4eaf 2b3b fe85 ab3f 6bda 2933 365c b1bf
000003f0: cc36 7834 72fa a7bf f0ed 266d 67a1 abbf
00000400: 29ad ef32 a3ea cebf fc28 4758 e239 d1bf
00000410: 8c3b fef9 515b d2bf edc3 3716 69a7 cabf
00000420: 55b8 846f fc2b b9bf f432 2ea5 95a8 c0bf
00000430: 6192 ed98 198a ccbf c5ba bb63 e7e4 c5bf
00000440: e9ba d9be 31b9 b5bf b87a e2c8 eaa4 cdbf
00000450: 1763 e09c a41d cebf 1e0b 10fc 5081 d2bf
00000460: 6ee7 c817 f38e c4bf 9798 3966 e8e4 b5bf
00000470: df3d 84cf 004a c9bf 4d0a 98d5 97da c7bf
00000480: 63e9 0fec 2030 cdbf 192f d5d5 fa68 abbf
00000490: c392 c9cb 19c6 bfbf 7e7e 0f0a 3075 c4bf
000004a0: 60a1 2eb0 9e36 c5bf a265 46ce 80bc c7bf
000004b0: a093 5538 54a1 adbf ca85 8c7a fdca c9bf
000004c0: a589 5a39 ae5c a4bf 42dc 22eb 4fc7 aabf
000004d0: 9718 3f9f 432c c3bf 2a01 2de5 e35c c5bf
000004e0: 9221 77f6 4681 a13f ed3e db6d 5f5c 8ebf
000004f0: 4794 1ea6 7447 a43f cc16 64f5 ba05 843f
00000500: 642a 99f5 4bd0 b2bf a8e5 729c 067a bdbf
00000510: 8aed a09c 2887 a03f fc11 3717 aad6 b7bf
00000520: dd62 44df f2e4 c03f a439 7622 bee0 b6bf
00000530: 22eb f762 20f6 a93f 661a a679 62ef e93e
00000540: 132a bc55 c8b6 9dbf b9ce 1624 e6fa a03f
00000550: 37cd 347b 9bbb 8bbf 2062 46bd b4b0 88bf
00000560: 9269 f3c9 8cb4 c13f d8cf 7b63 c119 96bf
00000570: 65f6 aea5 6606 b43f 7aac 7a0b 9b6b 9bbf
00000580: 32d3 3214 5a91 9f3f 1b72 f3f7 81be a03f
00000590: 04d7 d76d 710a 7dbf 5e4c ad65 1bb7 a0bf
000005a0: 0a5f a6a4 0747 8cbf 65c1 1535 8756 b63f
000005b0: 636d 1b6f bcf8 a6bf 1e34 20a4 ddc2 203f
000005c0: 003e 3fdc 4286 bb3f 8631 0be3 a7a4 be3f
000005d0: ba69 ef3b 5d2b 99bf 91d3 5b5c 8f14 b93f
000005e0: 1405 35ee 97c0 833f 5f41 d266 ce29 b93f
000005f0: 5c2e 2d46 875c 74bf d0be 74da 6ce7 a53f
00000600: 5ac1 8716 708a d1bf 1a93 9967 6083 b8bf
00000610: 8cf9 d6fb fa5e c7bf c8aa 1630 76ec cebf
00000620: 0a39 706a 1b36 cbbf 2485 f2b7 ae4d c1bf
00000630: 1ed7 9b2c b969 c5bf c7b8 765f dfb4 a2bf
00000640: 03da 4557 b672 bfbf c177 b15a 4ddf babf
00000650: b571 c189 bb3e bfbf e500 0b65 5223 b5bf
00000660: 0844 3b09 2ae3 a4bf eb19 7f5e 5180 cbbf
00000670: b846 c249 b61b c7bf fe26 8fca afc9 9abf
00000680: 8f61 267d 7245 c2bf c31b 22af babf b4bf
00000690: 81d1 2f9e 96c6 b7bf 6659 563a ceaa cebf
000006a0: a681 6e48 3e63 c4bf 7282 caac 9e39 cebf
000006b0: 939c 047a ae30 bdbf 0ab1 7cba 6b0c c2bf
000006c0: 4dd7 a5a6 401a cdbf 89d7 5dd9 d009 b0bf
000006d0: 8d15 adc3 0b89 b4bf 7b83 3298 88da b7bf
000006e0: 2b1f 52cd 2d1c b5bf 19fa 4576 0713 b33f
000006f0: b64e 1b7e c80d 91bf dd8e ef64 6b59 b33f
00000700: c546 e4fd c43c c0bf 61d0 0b47 053f ac3f
00000710: 1300 709e b249 b3bf 59ab 4c85 e00c aa3f
00000720: 0e49 2062 118a b23f a4a5 6580 8569 a7bf
00000730: 4548 4189 d9f6 c0bf 49f4 c5cf 799c ac3f
00000740: 76b3 b1ac 1a30 c5bf a9cd 3b95 203e 903f
00000750: 317c 0a15 ef10 6d3f 7268 9ae0 1c1e aabf
00000760: 26d8 6eb1 b941 a7bf bd4f 5f0b 1184 b4bf
00000770: 8ee8 3df0 af44 91bf 1666 0fa9 e6cd babf
00000780: 33ea bfc1 91d3 91bf ba63 6141 6919 b0bf
00000790: 9db7 9e01 7cf4 a4bf 633b bbca 89a9 b1bf
000007a0: 15d1 9c8b 4937 b13f 2c83 15c9 6603 bbbf
000007b0: a6b1 3bf2 4ade b53f a9fe 4cb1 aec4 bcbf
000007c0: f02f caa0 6fad ba3f fab8 d907 6465 b5bf
000007d0: 097f 4600 dd00 903f 2692 a75f 4523 7c3f
000007e0: 6afe 355a a41f aabf 104a 9555 2ded a6bf
000007f0: a60a 2b43 3d72 ba3f 0285 1b38 a025 a73f
0.011788970688035649 0.09891802029790017 -0.09509646129113336 -0.04701767581236475 0.014671405360371738 0.01937860150287073 -0.06179122267156849 0.05598311806667444
-0.07862777899649073 -0.1686354365416977 -0.13853006262236953 0.017080542543569072 -0.008553959113203082 -0.06770817215422963 -0.09209133356255646 -0.10350276285472211
-0.1708005439091394 -0.01054782264237332 -0.1725640841934309 0.03114096031614784 -0.09717831812973483 0.053190603208220666 -0.005412596286433823 -0.12430122537521185
-0.14376975686983268 -0.10135956555439639 0.023036975679899038 0.022487264527551943 -0.09251649662456086 0.0347191724321542 0.03675210819836687 -0.06782718191396972
0.029308851666668488 -0.038046710234959764 0.13096993199032111 0.004929877311530414 0.1455987321467031 0.09428764071395453 0.03555069939001039 0.10790799825461891
0.12510506492261683 0.054359782008642145 0.1921771758402981 0.07898575440943881 0.2592150325239366 0.14543270560320287 0.19451716777891528 0.21659830611887698
0.20906714675048443 0.11001963339012062 0.07032482843426247 0.21667116162837718 0.26763337405213433 0.04601743639470203 0.28167166214493866 0.0685745735463304
0.1458683843426467 0.21111589124982055 0.17818495996970526 0.24653180070093575 0.141104666686534 0.23852407738946946 0.22688309155351444 0.1962735731762152
-0.12379590544073353 -0.2885541956034581 -0.21048393696421852 -0.09305956127432029 -0.0668279852845974 -0.10552216538444324 -0.1760280364605199 0.004570984831884957
-0.09598908375295902 -0.141681625262703 -0.019191989289563564 -0.14323160415100553 -0.06273026688318416 -0.12076790013617528 -0.002133013082252058 -0.025594312108585173
0.01461685547437509 -0.050489578292883155 -0.1721563064005336 0.04320317777030552 -0.20519688353700918 -0.03387801438812074 0.006576567635935745 -0.10364986708822459
-0.11523653470094408 0.02643759836739033 -0.12445558189180592 0.02815177478187786 -0.13353653746136723 0.009968003397496145 -0.0815101981227767 0.08793635937258203
0.1629965254649488 -0.004166125935295031 0.005214998462504897 0.003983656677282701 0.12888485059018126 0.06301333065559492 0.07338371226145836 -0.051608556939300936
-0.08428061707701258 0.04951437420533422 -0.01046918585531047 0.0335160001229251 -0.0724433053577478 -0.013006901722352091 -0.16346167977511356 -0.01953172829185325
-0.15988725369715498 -0.10376125853882945 -0.15856673155163103 -0.12936197338178218 -0.14330960526370085 -0.20079280642426917 -0.07908005983125607 0.010823634008138678
0.042391978608306694 -0.1377670684237309 0.03875187339999063 0.07242254907986907 0.05375666115091225 -0.06781328915699596 -0.04683262720582845 -0.05396578986571032
-0.24153556811448 -0.26915796872039244 -0.28682374394787113 -0.2082339628682627 -0.09832742426508052 -0.13014479222729103 -0.222964477226145 -0.17104809160033177
-0.08485709104000318 -0.23159537133047592 -0.23527963314042985 -0.2891428433942326 -0.16061247502676274 -0.08552410598494685 -0.1975708974136827 -0.18635843209638595
-0.22803126837227258 -0.05353530750525532 -0.12411652779844488 -0.15982628337131993 -0.16572936632770574 -0.1854401595308391 -0.0578714674727856 -0.20150726779779254
-0.03976959657781557 -0.052301881268640674 -0.14978833461481564 -0.16689728441452562 0.034189431749442126 -0.01482462457661834 0.03960766341996496 0.00977655469297236
-0.07349085565616914 -0.11514321631957236 0.03228117858858599 -0.09311926905417772 0.1319869604274321 -0.08936680165627436 0.05070592125044572 1.2366817647058505e-05
-0.029017572625017318 0.03316420736828491 -0.013541426370102456 -0.012055789972508058 0.1383224474037204 -0.021582624146461032 0.07822267098432574 -0.02677767045558397
0.030827910883732552 0.0327034583258163 -0.007090037424395627 -0.03264699569867767 -0.013807353698936282 0.08725781484623026 -0.0448664556149321 0.00012787776546510724
0.10751741292119021 0.11969994824466398 -0.02457948377910111 0.09796997074938775 0.009644686657909442 0.09829416284833802 -0.004971054472501981 0.04278125921916642
-0.27407457542633085 -0.09575464753431753 -0.18258607193815768 -0.24159123752664002 -0.21258871743379643 -0.13518318158916387 -0.1672889201942604 -0.03653619804696145
-0.12284412031826979 -0.10496982063474915 -0.12205097306418262 -0.08257021872396171 -0.04079562533082287 -0.21485344995581043 -0.18053320504673365 -0.02615999864409612
-0.1427443610271095 -0.08105055595124981 -0.09287396776182356 -0.23958757256032043 -0.15927866493894988 -0.23613341748297817 -0.11402407149272369 -0.141004053171294
-0.227363664027218 -0.0626497774772742 -0.08021615531204969 -0.09317830768351414 -0.08246122610773614 0.07450911176236054 -0.016654141137066168 0.07558318342449462
-0.12685453793579007 0.055168309137940914 -0.07534328811743789 0.05087949397269282 0.07241924901635263 -0.04572694008204373 -0.1325332565489267 0.055881315815874695
-0.165530523608506 0.01586199675416614 0.003548113782315031 -0.05101099244821307 -0.0454233197300911 -0.08014017608303355 -0.016863583601186387 -0.10470430018849472
-0.017408635569134922 -0.06288774343683104 -0.04092776794219264 -0.06899319838997324 0.06724986704358955 -0.10552065285947937 0.08542316831489546 -0.11237613514549118
0.10420892406017379 -0.08357834998762206 0.015628293172652827 0.006869574538062062 -0.051022659313272836 -0.04477826757160497 0.10330565347525553 0.04520893750101075

BatchNorm2d1.weight f8 [8]
00000000: f3be b3a9 d6fa f43f 3988 4737 cfca ee3f
00000010: 12f2 67df 5176 f03f d68c aa50 262d f03f
00000020: b068 bf3a 231b f33f 448d aab2 6806 f33f
00000030: bf72 53f6 1cdd f13f c410 98f2 01a8 f03f
1.3112398747434184 0.9622570113826959 1.0288866736219728 1.0110228682540785 1.1941253943282781 1.189064691462435 1.1164826986416043 1.0410174824074128

BatchNorm2d1.bias f8 [8]
00000000: 8704 1319 facf 713f bafe 1dd9 2aeb d1bf
00000010: 9fec 0e61 2e18 8f3f 786b 9fca 20bb c1bf
00000020: 39d2 0a26 18f8 c5bf 8055 7c89 7ff4 d1bf
00000030: b148 0579 065d cbbf 22fe 0fa9 fc1b c0bf
0.00434873289594962 -0.2799784775051922 0.01518284066866321 -0.1385231961602036 -0.17163373811276175 -0.280547985328063 -0.21377640637598952 -0.12585409407618992

BatchNorm2d1.running_mean f8 [8]
00000000: 34e1 570d 5320 8abd 9bdf 6581 5a18 693d
00000010: df6c eba3 0599 65bd ad21 a1a0 3b13 503d
00000020: e311 7980 4993 86bd 6cc5 fa1e eea6 713d
00000030: f151 93bf 0e92 7d3d 39a0 8a01 2d4c 6d3d
-2.9702127079433076e-12 7.132465215060524e-13 -6.138447564102486e-13 2.284413169606724e-13 -2.566519049103689e-12 1.0034040621078153e-12 1.6808904514297556e-12 8.326867867193871e-13

BatchNorm2d1.running_var f8 [8]
00000000: d47d e93b 080e 543f 5821 1d24 5958 433f
00000010: d014 bdee 9ec5 573f c551 60d7 c811 583f
00000020: f620 495d f3bf 603f 565e 1922 3c0e 5d3f
00000030: 671a 07f9 c17f 4c3f f43b 13a3 9987 4a3f
0.0012240486536468824 0.0005903659114006405 0.00145092507132576 0.0014690839138938744 0.0020446541987305623 0.0017734133947636863 0.0008697220928802319 0.0008096218281482535

BatchNorm2d1.num_batches_tracked f8 []
00000000: 0000 0000 0094 c140
9000.0

ECANet.conv.weight f8 [1, 1, 3]
00000000: 92ab 06f6 2f52 e1bf 3dc2 8b79 d13e c4bf
00000010: f798 8f3c 2f81 eabf
-0.5412826352306743 -0.15816706118450155 -0.828269594462454

conv2.conv.weight f8 [16, 1, 6, 1]
00000000: 36f6 5a8a 830d 6a3f d18c aabe af71 d9bf
00000010: dc7a bfbe c888 d13f 2025 7da4 e1e0 923f
00000020: 32e7 e517 1dc0 b13f 3809 ed0e fb23 d83f
00000030: 5169 c8fd 92f0 de3f d461 e7c2 7300 b9bf
00000040: 1054 cfed 8ab8 a9bf 098e 1037 0966 dabf
00000050: 854d 23a5 a95d b4bf d787 dc2e 3817 c8bf
00000060: c363 decd 9010 d4bf 7dea f593 12bf bbbf
00000070: 7ef3 9f92 fae1 bfbf 029a 8386 d7af cbbf
00000080: 7db6 42b7 efc9 a3bf c81d b424 70ae d0bf
00000090: 5377 92fa 1512 a23f 3553 5598 1a82 c53f
000000a0: 7674 4f3a 8b48 d0bf 266d a758 2624 c7bf
000000b0: 42c1 266a 8b70 c6bf 73aa 75b0 cd66 d0bf
000000c0: e06b 8dca 7a8a d9bf d32a cccf c5e5 c53f
000000d0: 518d ead5 4f8e d8bf 09f2 eb4f b939 b63f
000000e0: b108 4a91 0354 cc3f 4617 887e 4371 c23f
000000f0: 8b6c 52d7 d7fb ce3f 5a9a 243b ae65 d13f
00000100: a569 9a3f 23a7 d93f 277f 7f7b e159 90bf
00000110: 1624 a6fc 1953 ba3f 39a6 ef55 8583 d43f
00000120: 4be3 5586 eb99 aebf b79c 7dfc cb7e ae3f
00000130: d25c 3956 af95 b13f d3e8 c7f8 a177 babf
00000140: 1d69 fb3c 9044 dc3f 4935 5224 c233 453f
00000150: bfb8 cb40 21e5 fdbe d521 c2be a863 af3f
00000160: 6e9a 43b2 d8cb b4bf e2e7 a1f7 2176 e4bf
00000170: c315 0697 82e6 c5bf 6c96 c23b 42fa b73f
00000180: 1304 a91f 34bf bfbf 890b 9106 b79c d1bf
00000190: df2c f313 4149 cd3f 149f 9b52 ada5 d5bf
000001a0: 36d3 a84f b8b2 d33f 314b 7b0e b9d9 d1bf
000001b0: ae76 ac57 af20 a4bf 0b35 8ce3 c3b1 e13f
000001c0: 4db7 0208 5ccb d53f 9dc6 8167 4613 d8bf
000001d0: 3aa8 cfd0 6d3d cb3f cb08 6ce5 e755 a4bf
000001e0: 1d3b 168f 97d8 c33f b0c7 b77c 6b5a c33f
000001f0: ca1d 53ce 63d2 d53f 283a b43d b05d cb3f
00000200: 45de d723 3c70 cd3f 0906 dbde 1d19 d6bf
00000210: 39fd d71b df9a 8cbf f8b0 5603 7e86 b7bf
00000220: 1c6b e8e5 6b3a d63f f954 8957 4c3c cabf
00000230: 8ca3 7783 2f4e d33f 5bc5 6b0d 963b d1bf
00000240: fea4 a1a4 746f debf 2b68 35fb 9649 c3bf
00000250: a618 decd 2711 de3f c0f3 94b7 bdbe c0bf
00000260: 5b1d 8950 a1c6 b6bf 3710 73f9 ac65 d6bf
00000270: b453 a64d 8f45 babf 2f6c f5e5 7732 a5bf
00000280: 0920 e8b0 cf90 cb3f 3016 2fa0 b306 d23f
00000290: 010e 0e89 065d d23f 5d45 b5e4 1333 dd3f
000002a0: d592 c47f fda8 d63f 6481 13fb 9463 b23f
000002b0: d380 0928 3c48 e03f 7d17 6af6 b0d1 aebf
000002c0: 33f9 4878 59b8 94bf fd19 0227 908c dabf
000002d0: 6d36 42e0 bbf8 c1bf 9cdb 31b0 c8a8 853f
000002e0: 96b4 2e84 830a c5bf 3be3 937c ad69 d13f
000002f0: c588 c3fc 5a9d d43f 7715 5b7f e884 d63f
0.0031802720212386294 -0.39756387347933947 0.2739736426137094 0.01843597952327969 0.06933767159889895 0.3771960874329525 0.4834334829662526 -0.09766314991373487
-0.0502360739989528 -0.4124777829876796 -0.07955417901694346 -0.18820860183865193 -0.3135110865055674 -0.10838428604430735 -0.12454191283900504 -0.21630376880712282
-0.03865002739017329 -0.26064685425123146 0.035294234120768174 0.1680329555334993 -0.2544277257382598 -0.180790704048243 -0.1753095882718388 -0.2562746260870547
-0.39907712727079847 0.1710746063839311 -0.3836860264802527 0.08681829644405793 0.22131390184592228 0.14408153227139503 0.24206064237373356 0.2718310906952063
0.4008262749790908 -0.015967868006440924 0.10283052843273341 0.32052739517402845 -0.05976806654775276 0.0595611329761651 0.06869026045875451 -0.10338795017006257
0.44168477969437153 0.0006470392187495701 -2.8510130550545668e-05 0.061307214055947114 -0.08123545028829834 -0.6394204937525922 -0.17109711050231455 0.09366239508616453
-0.12401128552393485 -0.2751901210905819 0.2287980410968435 -0.33823712413003304 0.30778320101972 -0.27891374983043976 -0.03931186623797821 0.5529498523989401
0.34053707868848876 -0.376176453667634 0.21281216331345992 -0.03971790957986484 0.15504736410772404 0.15119689550152549 0.340966178406657 0.21379664433375578
0.22998763799818014 -0.34528300059545863 -0.013967268979284785 -0.0918959386969539 0.34731576396886665 -0.20496515535584317 0.30164707029921867 -0.269261849504877
-0.4755527122238873 -0.15068328157468733 0.4697970877099443 -0.13082095588643305 -0.0889683553333404 -0.34995579109477454 -0.10262389798874844 -0.04140066797364061
0.21535678995155674 0.2816590370460714 0.28692782768504804 0.4562425359227598 0.3540643451436101 0.0718320000628459 0.5088177473044432 -0.0601935673521856
-0.0202344875017328 -0.4148292904796163 -0.14040325594071437 0.010575836064374226 -0.16438335375042773 0.27207505384244585 0.3221042126080074 0.35186207234467964

conv2.conv.bias f8 [16]
00000000: 20ee e75e f581 c4bf 2eff 117f e70b b3bf
00000010: 57e1 96ff 4b9d c5bf 06e5 c842 8ec7 d4bf
00000020: 0896 ca7e f4b3 babf d8de 153f f754 d8bf
00000030: 7bdb 0c60 ffb2 c8bf 9d42 b87f 7715 d03f
00000040: 2da0 17f4 87fe a83f 2bc0 36e0 f3d6 d7bf
00000050: 0f5b 9403 84bc 883f 3409 8bbf 62de c6bf
00000060: 5d0c dd7e 9424 d23f d19c 6afd 4f55 a9bf
00000070: 4ec0 88fe 431e bd3f 922a 8abe 507e c2bf
-0.16021601804810448 -0.07440039493849035 -0.16886281948041912 -0.3246799137301227 -0.10430839629642474 -0.38018590126692464 -0.1929625720019564 0.2513102290404648
0.04881691794054208 -0.3724946679676601 0.012078315123785125 -0.17866167404833677 0.28348266972552044 -0.04947900742018308 0.11374306644643292 -0.14447984031388167

BatchNorm2d2.weight f8 [16]
00000000: e967 f150 33b6 f43f cb85 a84f a682 f43f
00000010: 7952 1e97 bfa5 f03f 1890 66ee b7d8 f03f
00000020: 296b ad13 7238 f53f 0b39 e48c f290 f23f
00000030: 47e2 ac18 601d f03f 8fc4 275b a9e9 f23f
00000040: aa47 cd37 3811 f73f fb00 59a6 7adb f03f
00000050: 22bf 276d d7fb f23f 8c73 fe0c 2d9d f53f
00000060: d938 a31d 671c f73f effc c3ff b22c f13f
00000070: a2cf ffb8 1894 f33f eae9 64f0 853a f03f
1.2944825326762788 1.281896887936784 1.0404659178795141 1.0529097855114795 1.3262806671761587 1.1603875640462913 1.007171722782134 1.1820462761645876
1.4417040042649014 1.0535837648349673 1.1864847434880592 1.3508730418754764 1.444434276363202 1.0734128943293475 1.2236563898595496 1.0142878904722417

BatchNorm2d2.bias f8 [16]
00000000: d9ab 4528 9971 a73f dcfa fb14 bf83 c1bf
00000010: 455d 3692 9ab4 cdbf b442 f012 705f b93f
00000020: b33d 1a72 8850 d7bf 06fc 0bf3 0abd abbf
00000030: 50c1 7d81 c60d c3bf f5a8 62da 7f53 77bf
00000040: c19e 5319 c724 d9bf 4b8a 4e2f 92cd c7bf
00000050: 2ba9 ec62 ae5d bbbf ec16 1e30 55b9 e2bf
00000060: db03 bfba fba9 b1bf 339f bf2a 4025 bd3f
00000070: 9dd7 209c 9a64 d4bf 61e3 219c 4c8a bb3f
0.04578856102565227 -0.13683308148025375 -0.23207409037852691 0.09911251509061964 -0.36429034369299557 -0.054176656884003235 -0.14885789225400936 -0.005694865633055314
-0.39286973450951385 -0.18596103010084372 -0.10689821162364825 -0.5851236285968446 -0.06899998959762803 0.11384964984574424 -0.31864037749198265 0.10757902919602948

BatchNorm2d2.running_mean f8 [16]
00000000: b397 3502 9206 c4bf 6859 0e74 f46e b3bf
00000010: 1e52 faef e862 93bf cb5e d918 5f59 cdbf
00000020: 505d dc83 9d7f bbbf 37fe f65f 3444 d7bf
00000030: 7241 824e 45d5 ccbf 30b4 18a6 68c1 d33f
00000040: c2cd 41c4 1077 b93f 5718 463c 294e dcbf
00000050: d2b9 df2c fb21 bbbf 9e5d 5431 c350 c8bf
00000060: 03cc 031b e3ce d73f 2b7b 7908 f668 c7bf
00000070: 8d8d d9e3 735c b53f 3380 7fe7 45c7 c7bf
-0.15645051105383131 -0.07591178735160542 -0.018931998869975535 -0.22928990090689746 -0.1074160048414019 -0.36353787776531327 -0.22525850614011805 0.30867973537789606
0.09947304526740822 -0.44227057348360205 -0.10598726125292693 -0.18996467503232578 0.3720023883644787 -0.18289065755649267 0.08344196617831852 -0.18576883128753394

BatchNorm2d2.running_var f8 [16]
00000000: c920 74eb f7fb a93f 002d d3ca 6e47 a63f
00000010: 51a7 988b 879b 733f 4a53 210e 38c3 743f
00000020: 0f5f 5516 19ec 9c3f 601d 6bb6 0b72 a13f
00000030: c344 6be4 4c41 8f3f 7ff3 1cf4 ccad a93f
00000040: e2d0 12d2 d667 a83f 0eaa b1d4 e8f7 c33f
00000050: cdd0 827e b637 a13f a3b7 c27b 2fd3 9f3f
00000060: b8c5 3f27 bfa3 b53f ae9c 72ed 4d83 863f
00000070: 8f61 39b8 6149 8c3f 95ff 152f beb2 843f
0.05075049161138307 0.04351373887910803 0.004786996339626829 0.0050689878135770725 0.028244392383697078 0.034073225038407484 0.01526126930312655 0.05015411834617733
0.0476672297894838 0.15600309739541313 0.03362818044971192 0.031079046181438873 0.0845298262427353 0.010992630776242098 0.013811839518141493 0.010106550037334997

BatchNorm2d2.num_batches_tracked f8 []
00000000: 0000 0000 0094 c140
9000.0

conv3.depthwise.weight f8 [16, 1, 1, 64]
00000000: 990d 0805 ed42 81bf d56c 66a9 154d b03f
00000010: f68b 48d3 b252 a3bf 5ad9 9f1d ed2f a1bf
00000020: 1a73 834f 43dd a13f 8a5f a559 5366 c33f
00000030: bf66 eb53 0bd8 a13f c5bd f443 2777 c43f
00000040: 0b8c 393a fb08 b73f ad4e ce98 43b2 c53f
00000050: 265f 5b51 2478 b83f 7a22 a799 f507 793f
00000060: e22e d49e d65f a83f aaed 1f62 96bc c43f
00000070: 5943 76a6 ee71 b93f 80fb b430 b12c af3f
00000080: 8358 8f5c e843 bb3f 5f3e 2cc7 734b 89bf
00000090: 48e6 28ed 25fa b43f 66ab 430f 8589 bebf
000000a0: dd12 f8e0 c350 b5bf 8bf6 38ce 89ba a1bf
000000b0: 2f0f 7f9a 2124 703f 64d6 df23 18d5 c4bf
000000c0: 44d7 1b50 e24c c2bf 6f61 3f32 a3b9 953f
000000d0: 032c 8ada ac48 b8bf b0e7 9d93 6a3d a9bf
000000e0: 41cc 9892 0d13 b6bf aee8 64ba ae3b b5bf
000000f0: a360 6c81 5689 a43f b355 2030 dcf9 88bf
00000100: fea4 c61e ea88 9cbf 6c2d 2846 65c0 b53f
00000110: 03e1 6a59 b4f7 61bf 64e4 ca5e b069 a1bf
00000120: 772c 7da7 7275 a2bf 87c5 d2af f6e8 a33f
00000130: 9ddf c6f5 caf2 823f ae60 d826 a714 903f
00000140: fd27 ad09 85e9 aebf 0650 ac69 9f9e b5bf
00000150: 9790 de7b 0d3d b8bf 5b72 2710 fd8d b03f
00000160: 2419 728d d4c1 923f eead 5abe 7e7f a6bf
00000170: cb6c 2b8c f808 98bf 11a5 863a 6fd0 87bf
00000180: 5b51 a3eb 9061 ad3f c52f 67e8 22ea b0bf
00000190: 7120 2d58 9a9a c03f ece5 f9ba 75c7 be3f
000001a0: 2785 d94d 837a b33f 34ab d830 1eef bb3f
000001b0: 53aa 7d90 56ac ca3f 02bb 034d d2c4 c03f
000001c0: 6d61 20ee 2c56 cf3f 177f c223 288e d13f
000001d0: 3cfe 63e3 15d2 d03f 7a15 c0e9 b4a1 d03f
000001e0: 19a5 48c9 4415 cb3f 5324 42fe 5c80 d13f
000001f0: fb8a e7e7 936c d03f 80d8 d98d 239d cf3f
00000200: 5d5b 7187 4995 d3bf 6f4c ad26 5cde d2bf
00000210: e91c 92bd 4409 c4bf af2a 4eb4 fe34 c2bf
00000220: da22 a7ac 021f b7bf c9d1 5fd6 29b8 c7bf
00000230: 5013 e5d5 83ae c7bf a1cc d907 dd91 b3bf
00000240: ba77 f992 4d9c c7bf 6ba9 f3fa fdb1 b6bf
00000250: 0645 7e72 6914 853f 05f7 3b82 1c91 a4bf
00000260: 30b9 1481 3f9e a93f 87d9 2274 0280 733f
00000270: 086f 1ce2 8dcc b33f de7a 8b19 1315 aabf
00000280: bb22 1111 a436 aebf a839 eab4 5449 b43f
00000290: d5a0 6825 272e a33f 7b76 5fd1 b9fb c03f
000002a0: a884 8c76 cc34 a3bf 45e5 b848 1bcf c13f
000002b0: c0d1 4cdc ee85 9cbf 69fe f721 accd c03f
000002c0: bd85 b9f5 4ccc a1bf 7e83 f068 f7a8 bc3f
000002d0: 3fdf a9c8 746a bc3f 6af3 65dd 4418 be3f
000002e0: 1192 7526 84b6 a73f f835 db9a d456 8cbf
000002f0: 7156 bbbd e8db 9d3f e873 3bc8 bbbd c03f
00000300: 8d52 1f70 eba0 b63f 636e 949f 2b2e 9bbf
00000310: c82c 9f54 ee3a b83f 59b6 7f56 a17a 79bf
00000320: 1f8c 1afd 6480 a13f 31ff 815a 1660 a83f
00000330: ab74 ddd6 b072 95bf 186a 6e3f 71d9 b1bf
00000340: 126b 00b1 a03e 51bf dfce e758 c3bf a63f
00000350: f5eb dd43 0274 b1bf ef07 c807 8ec6 95bf
00000360: a3fa 6c72 3c8c adbf f4f2 fbbd a63a bbbf
00000370: 8b05 c068 7af1 c4bf 0213 62d7 006c c0bf
00000380: bc48 34f1 b35b b0bf 0233 534d 5133 c4bf
00000390: 95c5 8122 ac35 c9bf 05eb 5094 41f6 c7bf
000003a0: 8c5b 1224 1f33 c2bf 7ace f280 c654 c8bf
000003b0: f6ed c1f4 7f8f c9bf 633e f965 2da1 cabf
000003c0: c232 1adc bc37 b6bf 4d0c 3295 fb2f b6bf
000003d0: 8986 2d89 e914 c2bf 077a 66dc 754f c2bf
000003e0: 5128 1224 8b97 b8bf cb6d beaf 82fd a8bf
000003f0: c189 29dc 2676 adbf 027d a393 c10b 873f
00000400: d33c 1129 7ffa b0bf b682 d396 db49 48bf
00000410: f8e6 4a1e ae3e b3bf 966f 6037 3b00 a9bf
00000420: 7e11 672b ea59 b6bf 4cb9 93ca 9522 843f
00000430: ebad e67b e49b a13f 7dcd ec75 63e2 ab3f
00000440: 959d d3ed 53ec a63f 90c9 434d 664b b9bf
00000450: c341 103b 261b ab3f 92ce 7c63 82be b2bf
00000460: b837 8bce 0e93 ae3f 4d63 bedd fd29 b3bf
00000470: cf28 22dd e7bd abbf c565 1f6d 9461 92bf
00000480: 66b9 5687 e52d a0bf c8a4 500c a5e5 b0bf
00000490: 77ef 6fa8 cbe6 9fbf f8eb 514d 1653 8dbf
000004a0: be0b 9eb8 c19d a13f 6554 1320 71db b03f
000004b0: b84a 5b07 9915 ae3f b1aa 52af 004b 723f
000004c0: b110 c5e5 dd57 a23f 61ab 91cd 098f c03f
000004d0: 222e 99f3 1b47 99bf 6b88 591a b25a babf
000004e0: e5e4 13a8 956e b03f 01ad f12c 2537 85bf
000004f0: 3a47 0047 eb50 a43f e2c6 cedd 03e5 b8bf
00000500: b838 886f b51f b9bf a3a5 bbe0 75a2 babf
00000510: 44ff d6d2 b646 b2bf 1f81 966c eb8f af3f
00000520: c402 de81 74ef ac3f f0f9 e2bd be62 91bf
00000530: 34c0 2f55 2230 b53f 0beb 98ef ee04 a93f
00000540: 6086 051a a176 a5bf bf09 c7d8 428e 873f
00000550: 3865 b1b7 793d 9b3f aa4e c4e1 a672 c53f
00000560: ce4d 966c 8001 ca3f 0a17 dbde a6b9 c23f
00000570: d405 ee6d 22b7 c33f c825 ef9d 630d c33f
00000580: a7b6 ea80 df2a c13f 34bf 13cc 7e90 cd3f
00000590: 5a74 46f6 649a c43f f696 2ca6 63c4 b63f
000005a0: c8ac bc45 7966 c63f bdbb 7523 b5be c13f
000005b0: 6f5b a9d0 f6d7 be3f c290 e838 49f2 b23f
000005c0: 4d75 e7ba 6cf2 b23f 4dfe 8ade 813c b53f
000005d0: 6d5a b061 53b3 ad3f cfb0 626f 9522 b63f
000005e0: cff8 c790 4ce7 b73f 1415 ad3d 431d c33f
000005f0: c22c 5940 672a 743f ab78 2466 6b47 bb3f
00000600: d28f 124e f9b0 80bf 044f 6cb8 48c3 9b3f
00000610: e088 558d 1517 ba3f 5314 f018 2a2d a6bf
00000620: e75f f98d 09ed bb3f 7452 0db7 e4eb b4bf
00000630: 967c 188f 6083 923f c58d e723 55f9 b93f
00000640: 4f6e 45be 662e a93f f4e3 3f95 b538 b3bf
00000650: 35d2 de59 ce19 983f df03 6798 c0a4 b9bf
00000660: 4dcd 3ace cdc7 b1bf c307 b1f9 f32c b73f
00000670: 00db 40e4 e1a5 b6bf 538e 9347 9dc0 bcbf
00000680: d2eb 8482 bd9d a63f 467c f7ab bba4 b23f
00000690: c56d 0b86 ae44 9b3f 8c0f a06f 9300 b1bf
000006a0: 8288 4c7e 2e7a b5bf 1bbc f874 2644 a4bf
000006b0: 848d 3747 ebb8 a53f f203 72df 00ae afbf
000006c0: df1e 120c 62bc b7bf 3bca 6465 72eb 9e3f
000006d0: da93 7b62 ff44 a53f 2d05 a813 2a34 96bf
000006e0: 566b b7ee 8fe0 b0bf bacd 9358 bc66 973f
000006f0: c904 1c15 992a b1bf c2aa 3822 dee4 98bf
00000700: 2d86 a280 7c47 b0bf 4a15 117f b5cc cbbf
00000710: e78c 12a2 06b7 aabf dd88 e07d 3ef8 c1bf
00000720: 91b9 334f 316d c3bf 43a0 dc52 66a6 d3bf
00000730: 8d3d fa40 2d8e b5bf 65cb 35f0 fbcf cebf
00000740: bcd8 ad34 60a6 c2bf a0a1 6512 fbaa cdbf
00000750: 2959 0f81 b23a b6bf d5a4 6f11 9307 c3bf
00000760: f62f 1283 cf1c c9bf 7315 6b70 b26a c6bf
00000770: 1faf 7563 cd4d c8bf c310 83f0 2320 cebf
00000780: 8375 9c4d 2d4d b0bf b01a a059 3823 c1bf
00000790: c509 6b30 1961 91bf 029d b01d 8782 cdbf
000007a0: b80d 7c6c 6eac c4bf 3013 d0ca 2056 5cbf
000007b0: e3cc b25d 4d72 bdbf 7de4 4a88 e328 b6bf
000007c0: ccd8 73a9 b666 c5bf 8fe0 b929 79da b3bf
000007d0: 4aa2 ba58 1c5b 88bf 6769 28a3 21ac b93f
000007e0: 0f0d c24c 4b4d b5bf e595 2206 410c a33f
000007f0: 92c5 e186 fd72 893f e7ec e299 61d0 a83f
-0.008428432193801782 0.06367621789688667 -0.037740314761570845 -0.03356877314210989 0.034891227203593014 0.15156022908444938 0.03485141181381612 0.15988627260365554
0.08998079463485469 0.16950268708443642 0.0955832193970961 0.006111106277281503 0.047606188667570284 0.16200523177381615 0.09939471782696553 0.06088784904067435
0.1065049386955668 -0.012350945010921764 0.08194195785554215 -0.11928588507332236 -0.08326362841041708 -0.03462629930843971 0.003940707458187905 -0.16275312186887725
-0.14297131454048373 0.021215963308209348 -0.09485893569414831 -0.04929669429743855 -0.0862282259848124 -0.08294193316115425 0.04011030511736748 -0.012195320337961535
-0.027866037491240718 0.08496697390380853 -0.0021933100173009436 -0.034009467669826404 -0.0360523061231896 0.038886746371086515 0.009252153039468964 0.01570378470032157
-0.060375363761139035 -0.08445164041432926 -0.09468158983378526 0.06466657299410754 0.018317528851661838 -0.04394146035823697 -0.023471721225047298 -0.011628025983400766
0.05738499523582404 -0.06607263730910436 0.12971810632211914 0.12023101630065697 0.07608814859988354 0.10911740009821075 0.20838434272021064 0.13100651512601053
0.24481736781377653 0.2743015622345281 0.26282260137665836 0.2598697931974453 0.21158656910237353 0.2734596713058341 0.2566270603839908 0.2469829981452598
-0.30598676897846194 -0.2948217752174917 -0.15653285271057563 -0.14224227718326207 -0.09031693186910719 -0.18530772178168167 -0.18501327461322115 -0.0764444488684597
-0.18445748974312243 -0.0886534440684607 0.010292838865810793 -0.04016961183331883 0.05003546190924835 0.00476075132808374 0.07733999986924911 -0.0509420365030928
-0.05901062687241195 0.07924394051426609 0.03746149379395695 0.1326820633247968 -0.03751219699030034 0.13913289118662867 -0.027854664035844356 0.1312766233313483
-0.03476181506699614 0.11195322334289234 0.11099939250004541 0.11755781560164072 0.04631436318848981 -0.013837491012419698 0.029159199314412413 0.1307902076431724
0.08839293944704192 -0.026543313612917518 0.09464921537362436 -0.006220464922063928 0.03418269719738753 0.04760808806258721 -0.020945323099444007 -0.06972415732017401
-0.0010525292636944278 0.044431786158296786 -0.06817640454202929 -0.021265238976418684 -0.057710541694622884 -0.10636369837079568 -0.16361932863950943 -0.1282959987330728
-0.06389927519583954 -0.1578160884440863 -0.19695045170696504 -0.1872026418876304 -0.1421851087695497 -0.19008714004813837 -0.19969176722575782 -0.20804374198131645
-0.08678799031822407 -0.08666965858906046 -0.14126319120537215 -0.14304993879063962 -0.09606237059247859 -0.048809131577595 -0.057542051673198376 0.01125289184386569
-0.06632227661724537 -0.0007412264073104111 -0.0751751731831084 -0.04882988978371754 -0.08730948981889772 0.009831590885792572 0.03439249050583356 0.05446158232225693
0.044771788388796065 -0.09880675684306639 0.052941508016491244 -0.07321944168944075 0.05971571227347233 -0.0748594919554197 -0.05418324064619783 -0.017950362358396327
-0.031600163241239085 -0.06600410032901316 -0.0311538526111543 -0.01431863234960494 0.03440671328191723 0.06584841759770795 0.058758527896903556 0.004466059375014695
0.03582662038619001 0.12936518228101604 -0.024685322516502357 -0.10294640677742144 0.06418738702258826 -0.01035908740433067 0.03967986337387548 -0.09724449315288156
-0.09814008686973608 -0.10404144989629187 -0.07139151236969804 0.061644894605026083 0.05651439748090106 -0.016978245105514433 0.08276571826695617 0.048865763423654306
-0.04192069475790272 0.01150181030323416 0.02660169776604457 0.16756139777918594 0.20317082693200778 0.1462906444705186 0.15402632110276093 0.14884610377911955
0.13412088198440594 0.2309721466513054 0.16096174264103774 0.0889341622065237 0.17500224976661216 0.13863243323745947 0.12048285097385557 0.0740094913422267
0.07401160777177047 0.08295451815774264 0.05800877158633431 0.08646520585415661 0.09337309393592651 0.14933052550819836 0.004923251462581381 0.10655852550232463
-0.008150050826152642 0.027112137085238977 0.10191473675289187 -0.043313327354589724 0.10908565250554113 -0.08172444790882044 0.018079289182534618 0.10146076323103788
0.04918213913580571 -0.07508406537807827 0.023535942301992036 -0.10017017098199642 -0.06945501599220912 0.09052967878326883 -0.08846866438475942 -0.1123140620944068
0.04417221277477491 0.07282612751394976 0.026629187518535397 -0.06641503787255781 -0.08389559348555234 -0.03958244493366455 0.042426445430261445 -0.061874415660902474
-0.09271824640938629 0.03019503349168871 0.04154203488523196 -0.021683366250731573 -0.06592654779471493 0.022852843195279006 -0.067056243566202 -0.024310561026292594
-0.06359079494952687 -0.21718472198896627 -0.05217762688087096 -0.14038830896703916 -0.15176979415214167 -0.30703123180365227 -0.08420069538464343 -0.24072217206011284
-0.14570238659115897 -0.23178041837969676 -0.08683314944150723 -0.14866865493175987 -0.19619172954514824 -0.1751311348836385 -0.18987433773451642 -0.23535584682224994
-0.06367762703708561 -0.13388733268967234 -0.016971963482100855 -0.23054589223577443 -0.16151218697642178 -0.001729518912953764 -0.11502536332664053 -0.08656141354994591
-0.16719706796693 -0.07755238789275352 -0.011892529924197554 0.10028276666017676 -0.08321066497778794 0.03720286559954981 0.012426357916612205 0.04846482280250957

conv3.depthwise.bias f8 [16]
00000000: fa14 14c0 5b1d bd3f e46a e9ff 239a 9f3f
00000010: 05a8 6f7f 7965 a6bf 6169 83ff adb1 ac3f
00000020: a8ae 88ff 9f1a 8fbf 9575 daff 3a64 a8bf
00000030: 9d35 83ff c868 afbf b62d fe7f f5b4 b83f
00000040: 17b0 5100 62a9 963f 7496 bbfc ff8c 683f
00000050: f9ed cefe ccd1 903f caf6 0d80 dca9 b8bf
00000060: c01d bfff f8ab a9bf de42 0b40 9c1c b53f
00000070: 4b1c e8ff f0bd a63f 62e5 eeff 868e 993f
0.11372922362723506 0.030861437315574572 -0.04374293976418645 0.05604308837947048 -0.015187501893783775 -0.04763969777307434 -0.061346322241301744 0.09651121496988577
0.02213051917026129 0.0029969215155343735 0.01642532639719538 -0.09634187818843568 -0.050140172213612555 0.08246780932973816 0.04441788791523801 0.024957761164590926

conv3.pointwise.weight f8 [16, 16, 1, 1]
00000000: 21da 27a9 cc2e d6bf 5175 2703 3d91 cfbf
00000010: 84a6 7ad5 d330 d0bf 9908 7479 4f14 c53f
00000020: 04c7 5b25 6606 8f3f 81c6 b052 7628 c23f
00000030: bde6 b831 cdd4 c53f 19c6 1625 b4c6 babf
00000040: 109e 561b 9d41 b6bf 0d0b 91ff b085 bb3f
00000050: 5ace 0c68 1a76 b0bf d12a 27e0 ae96 c53f
00000060: c300 49cc e91b c33f 8e77 edb2 627e b2bf
00000070: cf4b 7be9 17ee c03f 263c 8703 2688 c2bf
00000080: 529f 20e5 a203 c6bf f818 56db 79d5 a5bf
00000090: 1eae 7562 7533 aabf 902b a262 0da6 9bbf
000000a0: 4b10 2438 4f72 babf 4c99 dcce 4890 d33f
000000b0: 0a6a d16e 65a9 b73f c9e3 97f8 5c15 b53f
000000c0: 2f13 bfc9 b200 b9bf 2891 f5a7 c773 ab3f
000000d0: 8eca 9624 4bb5 c8bf c5a8 8c24 95a2 9bbf
000000e0: b1bf e9a3 8ba5 c9bf 0e70 66a5 88a7 d8bf
000000f0: edcd 7723 728f c7bf 70ee 731d 3790 c6bf
00000100: 6a9d d34c 69d6 d6bf 20d7 f075 a70d b83f
00000110: 5423 9332 a4e4 b63f 1dd3 ffb6 0ee5 d33f
00000120: 2065 1026 897f ca3f 8ee5 5fb1 e38b 86bf
00000130: f06c aa09 4e36 77bf 3278 e0d4 6b78 ca3f
00000140: 83f2 cd79 077e b43f cf9c ecee b42c cabf
00000150: 8380 3f7e 7daa 8bbf 3a5c 7bbc 674d b2bf
00000160: 03ea 6cd2 5c5c ca3f 2e72 47b0 7da8 b2bf
00000170: 254e 5843 700e 90bf 90cf 05f5 8061 823f
00000180: 0b65 9c5e f008 cabf e38b 3bab fa0a b23f
00000190: 638d 8ca8 2040 c1bf a0dd 55a9 fbb9 ca3f
000001a0: ff10 0c59 08f8 c8bf 7107 89f5 3f75 a23f
000001b0: 91b9 6f98 61a2 973f 1454 cb4a d427 cabf
000001c0: 43e3 2db8 759e c13f 1a98 3658 f7b3 c53f
000001d0: 75e6 473f 643c d63f 0dfe 0396 bfb1 7e3f
000001e0: dc2f 3a25 15fa ccbf 7adf 865e 21b6 b93f
000001f0: 82b2 a038 ee4e b33f 6563 c4d1 6d3e d0bf
00000200: 4ac2 48e8 a9d1 d13f 7d74 bf80 8528 c2bf
00000210: 783e c2de 95f8 a7bf 90d0 7a5c d0e5 a9bf
00000220: 7d71 55e0 74e0 cebf 0773 a473 43a9 afbf
00000230: f889 7ab6 780e b3bf a49e f3de ec18 c5bf
00000240: 905c 3281 3d48 cc3f 9423 a391 ca97 cd3f
00000250: d45b 37e9 0514 bcbf 69d5 c7b6 8959 993f
00000260: 23a6 965a 7e29 d13f 335c b2ad 1fb0 b1bf
00000270: a0c4 d727 03da d0bf a8d5 1709 5e49 c73f
00000280: 732f 2b66 25ce c5bf 96b2 118f a1f9 90bf
00000290: 8a82 0b01 e0b0 d13f 96c2 3511 a40a d1bf
000002a0: 3171 4b71 2607 a63f 4a9a e499 59cf bfbf
000002b0: 565c ebc6 7779 c2bf dec6 004f b516 d63f
000002c0: 3d0a 307a be50 c73f e527 4bd4 0b1c b8bf
000002d0: 3e16 7d96 baf8 bfbf 3b7d 00e2 daa5 abbf
000002e0: f00c 478e 1e3e a93f a6aa 671c 4fee cb3f
000002f0: 6b95 79aa 6be0 923f 30e4 9434 ad50 ab3f
00000300: 65b2 df7e 54e1 be3f 76c8 fb25 317a cc3f
00000310: 5338 b85d 7818 cd3f 7ee1 ea7c 8fbd be3f
00000320: 7895 545f e2e2 c0bf d92a dcfa 90e0 b43f
00000330: 5efb 0a2d 90fa d33f 0ed0 5314 17c7 95bf
00000340: e1cc 2e81 98c5 cbbf 2070 82b9 3a92 b03f
00000350: d183 f587 b2c7 88bf 138a 243f 1182 c1bf
00000360: d1f1 1e8a 9ea5 b83f f888 6720 4a34 bb3f
00000370: 5944 b0ed ec63 c1bf 1cd0 bf5c b22d c0bf
00000380: 378e abee 7a1d c33f fa94 00c1 ddc3 c2bf
00000390: 88e1 78a7 ad3d c0bf dcef 2210 1356 d73f
000003a0: eb6a fc21 3074 77bf b03a c908 24b2 c03f
000003b0: 83e0 3a28 6018 cd3f 3785 1159 65e4 ce3f
000003c0: ae7d 2759 e56f c53f c2a4 6ba9 d999 c6bf
000003d0: c021 2fa0 a9ec c2bf 5a48 97ea 38b1 d43f
000003e0: 1061 ea8e 1bcc b73f 8be7 0d0a f0e9 8f3f
000003f0: 1a5c e8b4 79e7 a3bf 7a04 6d11 3329 cfbf
00000400: c814 01f4 659d c9bf 4d0c 5b18 e65e b13f
00000410: 20e9 5095 b63d c43f 5cc4 deb3 6c65 a13f
00000420: 35cc 56de 97fe cfbf 0015 31f2 20f9 b43f
00000430: 8628 3ed1 f3ec 9bbf a699 ab3e 6a6b d0bf
00000440: 33ee 680b 4f85 d3bf eddf c683 63f4 7f3f
00000450: fe14 2ac3 55b8 d1bf 7506 3998 e899 ccbf
00000460: e013 8419 5952 b7bf ad01 118e 30b8 c43f
00000470: 5c2f 489e 71fe b73f 4029 79fd 8722 9e3f
00000480: 47be 40a7 a87c ce3f f96f d0cc 5a04 af3f
00000490: c4e3 64aa d87f 95bf 2fc3 6176 fe4e c73f
000004a0: cf65 bdc3 a37b c13f d571 a969 34da bd3f
000004b0: 372c d0d6 d2f5 bcbf ca6e 3ea4 86f2 c2bf
000004c0: b26e f2e8 65ba c3bf 9c4a 990f f347 98bf
000004d0: 9957 310c 4ab4 ba3f 51ee 3174 369c af3f
000004e0: a896 2eea eef0 99bf 2b78 9435 efe3 cebf
000004f0: 0122 0bce 4f21 d03f 5b11 9c3c b082 d1bf
00000500: a30c 548b 27d8 d6bf e1bc 197e a757 a23f
00000510: c1a6 43d2 3da1 d13f 620c 8c15 372b c4bf
00000520: 2dac 0529 acd6 b1bf 5297 6217 886e cc3f
00000530: ba32 7497 ed55 c9bf 73b5 33d8 302d b6bf
00000540: cb33 d8a2 36a6 c23f 9612 91e8 b922 943f
00000550: 1ef0 2ea2 96f7 cfbf 35c0 c4e2 90e6 ca3f
00000560: 9659 8648 265f a8bf 0435 e46b 2b44 a93f
00000570: 058d 67c5 2960 c6bf cb8e 3646 ff92 c33f
00000580: d0b5 7802 2959 c6bf c9f2 4841 2b88 da3f
00000590: 1c40 e904 5f4b c1bf 8005 1adc d507 babf
000005a0: 4b85 e093 c76c c1bf 3edd cc4a 3aae b9bf
000005b0: 83e4 ef64 20b2 c93f 31fd 620c 5f89 b1bf
000005c0: 855b badb 0b18 c2bf c2f5 9f90 2dd2 d2bf
000005d0: dc0d e4e4 4c58 c8bf a665 84c0 2b75 c3bf
000005e0: 19ca 55a5 1944 b63f f212 ca7a e282 abbf
000005f0: 7d3d 18d2 b019 cb3f 9900 39c5 2ed2 84bf
00000600: c85f d4ab 1105 cfbf 964f 4481 4dca a43f
00000610: ceac 24bd 5206 a8bf 28c9 7f53 502f b2bf
00000620: d47d 77b5 4f12 92bf 54ee 0932 08ce ca3f
00000630: f2d6 e998 bceb aabf 09be a144 6fae 7c3f
00000640: 9427 71b4 13ee c5bf 17bc f0bd 4dd4 c73f
00000650: fc0f e5e4 ac03 a0bf 4dbf d190 6cea b0bf
00000660: 0ea5 5a4c e15d debf d9aa f48b 69b1 c23f
00000670: c411 48ec e7d1 c33f be62 68bb acaa b5bf
00000680: ad56 47dd cf4d a73f 1a2f e974 65f0 c83f
00000690: 45cf be8f 520b c8bf 257b 7f8f 44fa bcbf
000006a0: 56d1 7699 879c bbbf 8471 3340 41c4 cbbf
000006b0: 046e b20d f1fc b73f c806 8770 1e3c d23f
000006c0: deb2 e6fa 5b54 bdbf 0afd 2c79 345c c9bf
000006d0: 132b 3ce0 dc36 acbf 6799 2cdb 90de b5bf
000006e0: 0689 d399 1de5 9dbf bb31 995d ef24 8cbf
000006f0: cb2c 053c 5928 bf3f 3998 7404 baca c2bf
00000700: 52f8 0bbb 4b29 b33f c508 b841 26a3 d2bf
00000710: 5568 747b e73a c43f a9e1 9d96 c9cb c6bf
00000720: ac63 7697 0f07 d3bf 60e3 8b7d c7af cd3f
00000730: 1cfb 0009 171d 73bf f028 73f5 4907 c23f
00000740: acb7 86f4 ede4 c5bf 8179 b80b bc28 7cbf
00000750: 0229 74c9 36cb bdbf 60c2 1ac1 3166 ca3f
00000760: 346a 5214 2c9e d4bf 2cb5 7cc6 7a1a c7bf
00000770: 44d7 ff30 5c61 90bf bdaf 8c58 c110 b7bf
00000780: 3814 0349 7da1 a5bf 080a 7a23 26ec d13f
00000790: 02c0 a580 8426 bd3f c131 4f05 475a aabf
000007a0: e228 93d4 34ff b83f 6fa5 9930 df53 a7bf
000007b0: db0f 287b f7d2 bc3f 727b 5307 e97d 9ebf
000007c0: 2a3d ebd1 e4f5 d13f 6f50 87f5 7bb1 be3f
000007d0: 2b9a 2347 54bf d6bf ff36 4e76 26b5 cb3f
000007e0: b0fa db85 2bbb cdbf cbe9 cac1 abb0 b0bf
000007f0: fa1d 908c ad34 bbbf f20e 0394 c18a d4bf
-0.3466064121161328 -0.24661982206354563 -0.25298019263809857 0.16468232565245414 0.015148923888293371 0.14185980832694514 0.17055668762059453 -0.10459447770588105
-0.08693868558349771 0.10750871886652309 -0.06430211105617314 0.168660983514505 0.14928934550153458 -0.07224099033689255 0.13226603413076396 -0.14477992222097774
-0.17198597133505672 -0.04264431765027327 -0.051173847455029384 -0.027000626702413266 -0.103306723791378 0.3056814212926795 0.09242853122251674 0.08235722607777442
-0.09766690659951104 0.0536177055862786 -0.1930326393754353 -0.026987390857507138 -0.20036454680984897 -0.38522545006139886 -0.18406512004695177 -0.1762761014759806
-0.35683662893867185 0.0939583456937183 0.08942629084334658 0.3108555590727507 0.20701708181949474 -0.011009005404036622 -0.005667023501384025 0.2067999638974825
0.0800480530142043 -0.2044893423674012 -0.01350877801445472 -0.07149360992058088 0.20594368242912262 -0.07288346818626998 -0.015680078611764032 0.008975036122798291
-0.2033977949111335 0.07048002892001608 -0.13476951818402502 0.20880075233774864 -0.19506935451511961 0.03605079529053413 0.023080372742634806 -0.2043404927450473
0.13764831059577362 0.1695546322563935 0.34743601016780384 0.007493732817465138 -0.22638191526163964 0.10043533857139933 0.07542313463700093 -0.2538103626734965
0.27842185672765096 -0.1418616179134097 -0.046818431322319165 -0.05058146599677216 -0.24122487024113673 -0.06183825289392613 -0.07443956809087371 -0.1648231590872814
0.22095459755357583 0.231194802390999 -0.1096805281043623 0.024755622654955376 0.2681575665143063 -0.069093685060907 -0.26330641642477737 0.18192649311064923
-0.17035357941346838 -0.016577267033812314 0.27642059423491416 -0.26627446823753453 0.04302330143920797 -0.12425765998032393 -0.14433190548763503 0.34513600077762685
0.18215161291307594 -0.09417795117329282 -0.12488905118979063 -0.053999748314021954 0.049302058093894874 0.218210114354709 0.01843422153469502 0.05334988848557776
0.12062576386933584 0.22247900347389632 0.22730927063134007 0.12007996368163806 -0.13192395834736792 0.08155161022674963 0.3121681632873584 -0.021267281165776857
-0.21696764285807205 0.06473128346482371 -0.012099642538204865 -0.13678184111729816 0.09627714988795978 0.10626662531970854 -0.13586198430906185 -0.12639455345890915
0.14933716443839426 -0.14660236286105272 -0.1268822734580335 0.364628568418764 -0.005726039904198936 0.130436424531998 0.227306384700345 0.24134508942646857
0.1674772916148703 -0.17657013676151762 -0.14784736939897236 0.3233167925765251 0.09295818556927693 0.015582919413407633 -0.03887539227815058 -0.24344480849143563
-0.20011591352719038 0.0678542909109165 0.15813333788703066 0.033976933438119444 -0.24995706898116202 0.08192640221485092 -0.027271089216391896 -0.25655609245441224
-0.30501152147528215 0.007801426629548286 -0.2768759160902191 -0.22344691689254473 -0.09110028145740001 0.16187102257573596 0.09372625459962819 0.029428601117879483
0.23817928473134684 0.0605800986306519 -0.020995507621794265 0.18209820537915664 0.1365856843720352 0.11661079005847992 -0.11312597031080505 -0.14802630443306547
-0.15412591814389526 -0.023711965395998832 0.10431349561380755 0.06173868339916722 -0.025333149951299788 -0.24133100620469014 0.2520331871169504 -0.2736015884295477
-0.35694302183419263 0.035824998992092245 0.27546639951343016 -0.15756882240393383 -0.06968189240949192 0.22212315694667467 -0.19793481726846612 -0.08662705686920961
0.145697431100784 0.019663719959015134 -0.2497432987128158 0.21016131470378388 -0.047600933411717936 0.04934821788820368 -0.1748096670045031 0.1529234974706156
-0.17459595318488974 0.4145610940502534 -0.13511264552880753 -0.10168205855918266 -0.13613218994673057 -0.10031475378206253 0.2007484906060065 -0.06850236942681388
-0.1413588354959893 -0.2940782463409414 -0.19019471336660743 -0.1520132722878717 0.08697662626745063 -0.053732945908484 0.21172151812104892 -0.010166516679533099
-0.2423421944629338 0.04060594752277706 -0.046923242176796984 -0.07103445089868343 -0.017647977305271415 0.2094125980691951 -0.05257977835291951 0.007002291337002039
-0.1713280325951102 0.18616649412567263 -0.03127804082990335 -0.06607702766063746 -0.4744799848218272 0.14603919347549413 0.1548433212011685 -0.08463553977379498
0.045515533219867656 0.19483631332911316 -0.18784553545776297 -0.1131937837921951 -0.10785720345194724 -0.21692672381221823 0.09370333275222015 0.2849193667317249
-0.11456847072140472 -0.1981263724974059 -0.05510606992000624 -0.08542733527119638 -0.029194319261372413 -0.013742322963616318 0.12170942035043024 -0.14681172578383597
0.07484887425013767 -0.29120785158023593 0.15804761436521866 -0.17809409956295255 -0.2973059634328432 0.23192685728261164 -0.00466641424287564 0.14084743962150226
-0.17104887428052729 -0.006874784997789597 -0.11638204973511182 0.20624372414524128 -0.32215406403125546 -0.18049559299235207 -0.015996399393734664 -0.0900994149384919
-0.04224769130954836 0.28003838982127194 0.11386898175055651 -0.05147001209079206 0.09764414014640324 -0.04556176632179187 0.11259409672498981 -0.029777184555196574
0.28063316821949746 0.11989569420194511 -0.35542780825781745 0.21646576668393178 -0.23227447544191682 -0.06519578439011935 -0.10627255136215999 -0.32096900419513397

conv3.pointwise.bias f8 [16]
00000000: 70dc f6ff 965f cf3f 3961 7d00 85bc bf3f
00000010: 14cf c9ff cefd af3f 0851 22c0 a7e5 cabf
00000020: 63fb 0840 45cf c93f cc9c b4ff 8c11 c9bf
00000030: 41f5 3d00 4d5a b93f d949 feff ff09 7abf
00000040: 8315 e5ff e146 a33f 55dc b9ff e710 b6bf
00000050: a513 3000 7228 ad3f 0487 1f80 931f bb3f
00000060: 1a0b f3bf 7b77 c7bf 6c37 b9ff 5f29 bf3f
00000070: 6fb4 8aff 5563 a9bf 6d10 0880 3e08 cabf
0.24510467050797358 0.12397032987553737 0.06248328087249724 -0.21013352281136854 0.20163789393151452 -0.19584810720082257 0.0990341306296232 -0.006357192993066773
0.03765016792980715 -0.08619546883879654 0.056949198267864966 0.10595056417471588 -0.18333384392288893 0.12172508233308371 -0.04958599800497942 -0.20337659122026555

conv3.bn.weight f8 [16]
00000000: f6c7 686f a7f3 f63f c11f 90fa e29f fa3f
00000010: cbbc 8487 8f8c f73f d09f 5254 0743 f43f
00000020: f2f0 c10c 3584 f53f 06c6 30a8 4330 f63f
00000030: cd6f 74d0 aff5 f53f 1a63 34c0 c4ff f73f
00000040: 35c1 ea17 6458 f73f b5a3 d8a2 bd65 f83f
00000050: 0949 19b7 c4ee f23f 674b b857 2a62 f73f
00000060: 30fc 0710 ce84 f63f 35c6 0e62 0ff7 f73f
00000070: 558c 468d 2132 f73f db6d bdb6 73db f53f
1.4344858505178286 1.6640348231903632 1.4718165677730208 1.2663644117219413 1.344777154764469 1.3867832727377176 1.3724821226851305 1.4999434955590858
1.4590798315294482 1.5248390542203485 1.1832930710120897 1.4614661623533836 1.407423079130023 1.497817404783189 1.4497390287949845 1.3660771501807776

conv3.bn.bias f8 [16]
00000000: a330 15a4 d449 e33d 15e0 52f6 462d ec3d
00000010: d860 b19c af83 d7bd 6c8f b593 53f1 c13d
00000020: b951 4e0b 9e82 c03d 26e4 748f 411a bdbd
00000030: 99ad 8ce6 e034 d73d 5d57 e97e bb12 d13d
00000040: 5388 2987 fe3d d33d 0bb2 44d0 906a d43d
00000050: d889 f84e 8426 acbd 6146 b263 249d d73d
00000060: 82bb f70c a76c da3d 8c00 c317 ad9d b7bd
00000070: e2ee 4ace b25e ca3d c310 cc4d 4813 d23d
1.403415873455864e-10 2.050136685085665e-10 -8.554488295961937e-11 3.263754758090319e-11 3.0031922619960977e-11 -2.646862674006945e-11 8.442496149863464e-11 6.211184321025549e-11
7.000258861342067e-11 7.427396550842068e-11 -1.2801345459222789e-11 8.590663677304818e-11 9.613149446780474e-11 -2.1478556333765587e-11 4.7966597522566515e-11 6.575763843969196e-11

conv3.bn.running_mean f8 [16]
00000000: 6536 fc49 37d9 c6bf 7fb3 b2e7 5f65 e2bf
00000010: 48f1 527c 9f05 e2bf 1c4d 64b5 3aac debf
00000020: 0a51 d1d8 2211 e73f ceaa 3124 8ecd bbbf
00000030: 9400 e1e6 015a b83f 64cb e305 f9b9 dcbf
00000040: d386 344c 9d39 b63f ba40 0004 35ec d7bf
00000050: c197 138c 9609 bdbf a74a 338f f339 9a3f
00000060: 7707 c3c6 a88b dabf b72c ddee cc2e a73f
00000070: f51c 9398 5c03 cebf 4ea9 cd97 2334 eabf
-0.1785039054160961 -0.5748748326637808 -0.563186400242139 -0.47926204408686757 0.7208418116302096 -0.10860527404444584 0.09512340437595618 -0.4488508756177707
0.08681662664869387 -0.3737919367859025 -0.11342755241238846 0.025611692061668603 -0.4147741261514208 0.04527893462962978 -0.23447759103712654 -0.8188646283063379

conv3.bn.running_var f8 [16]
00000000: 00c7 5cd6 8697 0640 95ad 5088 48cd 1140
00000010: e687 2981 4f23 0c40 fe46 2ea4 88e6 0440
00000020: cd26 2103 d4a2 0e40 9ba7 717e 00fa 0440
00000030: cfd3 e2a2 e7a3 f83f 5368 9057 44d9 0b40
00000040: 0e70 b870 4d2b 0940 7846 9379 bc1c 0440
00000050: 577b 973c c4f2 0940 58bb 385a ab43 0840
00000060: f3ca 943f f7d7 1040 7644 f697 65a4 fc3f
00000070: 1a5c 0514 354a 1540 42d3 1b63 b530 1140
2.8239876505912207 4.450472001957128 3.517241486625596 2.6125653101561275 3.8295059437267356 2.6220712545809426 1.540015827439891 3.481087383360355
3.1461437994275974 2.5140313623494954 3.2435383542755676 3.0330416725695777 4.210904115158644 1.7901359497084548 5.322468102290282 4.297566937039678

conv3.bn.num_batches_tracked f8 []
00000000: 0000 0000 0094 c140
9000.0

BatchNorm2d3.weight f8 [16]
00000000: a241 624e ec7d f73f a6db 8e7c 3d88 fb3f
00000010: 2eb8 c570 c1f6 f73f 0ffb 928b f180 f43f
00000020: adae 50ea 4bc4 f53f 8ac1 2da7 6c82 f63f
00000030: 910b a000 e92d f63f d317 0ed3 4389 f83f
00000040: 3c50 79e3 c4e1 f73f 46b5 d713 720f f93f
00000050: 6eeb 13df 2415 f33f 7943 33e9 06ef f73f
00000060: 8201 bfa1 e5d8 f63f a00d 4216 c28c f83f
00000070: 5023 3288 ace0 f73f f527 927e 1185 f63f
1.4682429372661336 1.7207617631481553 1.4977430730027765 1.281480355464456 1.3604239609657427 1.4068419008654893 1.3862085365696866 1.5335119480455333
1.492619408197256 1.566270902166552 1.1926621164299962 1.495856200159521 1.4279533689696966 1.5343647832349703 1.4923520393515055 1.4074873871018074
