MI_4_set/Eval/best_model1.pth (torch, 96721 bytes, 36 tensors)

conv1.weight f8 [8, 1, 1, 64]
000000 02 f6 c4 ca db 72 8b bf b1 66 95 b6 5d 4d a9 bf
       -0.013402669072656973 -0.04941838125041665
000010 fd 38 4d bd aa ab c7 bf 1e eb 7d 26 24 86 c4 bf
       -0.18492635958904904 -0.16034366492734703
000020 0f 46 e4 58 3e 4f a6 3f a1 4f 83 2f 27 38 ba bf
       0.04357333026031195 -0.1024193278311132
000030 8f 52 30 9e 4b c7 ab bf e6 b2 68 1e d3 79 a7 3f
       -0.0542548781014932 0.04585132356837622
000040 9c 01 eb ce 49 12 bc bf db cf 0a 68 0a e6 a9 3f
       -0.10965405751904317 0.050583195877521546
000050 fc 60 96 43 5a 05 c1 bf 09 7e 8c cc ef 99 6e bf
       -0.13297584819952835 -0.0037355121206841297
000060 d2 49 79 d1 d5 55 c2 bf 6b 38 9d a7 40 5a bc bf
       -0.1432444832631306 -0.11075214473859922
000070 08 e9 4f 7e db 19 bc bf 17 0b b6 38 90 fb 9f bf
       -0.10976955255310739 -0.03123307558190466
000080 13 71 8e 05 53 e6 b4 bf 11 2e fa 2f e0 be a7 bf
       -0.08163946996359454 -0.04637814126644114
000090 80 61 8c a4 cc 40 bb bf 14 2d 92 5b ca fc a4 3f
       -0.10645751015943539 0.04099113815126479
0000a0 82 10 4f b5 d1 d1 a5 bf 32 78 80 04 ee af c3 bf
       -0.042616418249537893 -0.15380645007911792
0000b0 ca 85 54 c6 d8 74 ba bf 26 76 97 e7 c1 50 b1 bf
       -0.1033454403118618 -0.06763851074307378
0000c0 5e 2c 72 50 e0 fc 91 3f cd a8 a4 80 fb 87 b2 3f
       0.0175662087536178 0.07238742724135534
0000d0 bf b5 06 12 29 50 b8 bf 80 be b8 33 bf 34 bf bf
       -0.09497315111249004 -0.12189860356078874
0000e0 f3 2e 48 77 6d 88 86 3f e9 ab 07 d9 8d 2f c8 bf
       0.011002402498909691 -0.18895123574415543
0000f0 90 da cf 69 5c 66 b8 bf 94 1a d5 8b 52 3e c0 bf
       -0.09531190474795381 -0.1269019301200457
000100 7e 16 c9 4c 47 a9 a0 3f 4e 9e ae 98 72 7b ac bf
       0.03254149257967941 -0.05562933076663211
000110 7c 88 09 f1 14 c9 7d bf b3 fb 74 f6 97 3c c0 bf
       -0.007271844675957092 -0.12684917005569005
000120 60 31 e1 0a 17 47 c3 bf c9 90 66 c2 26 52 b1 3f
       -0.150606994926771 0.06765978094205417
000130 6a af a7 92 ce e1 b0 bf 9e e2 3c 48 da 8d af bf
       -0.06594554024166902 -0.06162912494477733
000140 fb 07 55 6c ff 63 a2 bf 86 b9 6c 84 45 4e b2 bf
       -0.03591917226232507 -0.071506829099894
000150 6c b5 e5 92 21 9a c3 bf bd c8 a1 f8 95 96 57 3f
       -0.15314120934219078 0.001439711052196687
000160 ae 90 45 7b d6 c3 82 bf 73 44 b5 84 b9 7e 89 3f
       -0.009162593495325968 0.012448739397458141
000170 38 3a ab 4c c2 86 af bf 16 ad 08 5a 93 08 8c bf
       -0.061575004443160386 -0.01368823164474135
000180 e3 c1 58 95 c8 f0 c2 bf 83 33 91 02 64 29 b5 bf
       -0.14797313015289068 -0.08266282141376106
000190 eb ba 21 07 27 4a 99 bf ba af 9f 63 2f 92 bc bf
       -0.024696931658065784 -0.11160560781689713
0001a0 6d 4a ee db 7e 56 b9 bf 87 fd 5c f3 45 7f be bf
       -0.09897606725125181 -0.11912953559384763
0001b0 a9 dd 32 e9 1e 88 b3 3f 3b e4 81 e7 68 ed 7d bf
       0.07629578774764546 -0.007306489737055217
0001c0 be 8e ab 18 a3 33 a2 3f b5 7f c3 13 14 60 c0 bf
       0.035550209771626026 -0.12793208088896582
0001d0 c8 bd ed 2a ec 99 9a bf 1b 78 9d b5 e0 1b bb bf
       -0.025977792854460252 -0.10589413103068106
0001e0 b6 5b a8 16 f2 77 a8 3f 6b 3c a9 b5 fe 39 9b 3f
       0.04779011274893412 0.0265884207131503
0001f0 a9 6f 5c 26 32 bf ad 3f 7b 56 46 0b 64 b9 a1 3f
       0.05809933393740547 0.034617544533074494
000200 50 6a 2a 58 2f 23 bd 3f eb a3 d0 b8 c7 15 c9 3f
       0.11381812956316506 0.19597717785043697
000210 fd 1e 62 08 53 67 c8 3f 51 e0 bd 7d 58 b5 a7 3f
       0.19065320882167916 0.04630543265278731
000220 72 29 70 92 1b 5e bd 3f cd 4f c3 8c e0 28 81 bf
       0.11471721959256856 -0.008378748222106847
000230 91 7a a2 dc 30 64 8a 3f 97 18 7c ea d8 00 97 bf
       0.012886411412464301 -0.0224641697996267
000240 e4 08 d1 7f 7e 0a 93 3f a0 e0 c2 e3 7f df ca 3f
       0.018594719458868605 0.20994566556124017
000250 b6 84 94 2c 25 ad b7 3f b4 4a 2f a0 cf 12 ae 3f
       0.09248573625929421 0.05873726683025407
000260 ed 9c 73 b3 0f 3f c8 3f c8 25 07 29 37 86 a3 3f
       0.1894244791248875 0.03813335777119736
000270 17 ef ac fd 46 fa be 3f 99 09 9f c9 2e 77 99 bf
       0.12100642865419463 -0.024868708663925074
000280 49 91 19 4e df 1e 94 3f 2d 25 c5 30 8c e9 b5 3f
       0.01964901842292591 0.08559490385700448
000290 c4 ad ee 80 f9 d8 73 bf c1 64 62 05 4b e9 bd 3f
       -0.004845595000840534 0.1168410194535623
0002a0 f6 c6 fa 82 0c 5b c0 3f 00 3f 7c c2 58 53 b0 3f
       0.127778591112978 0.06377176998307377
0002b0 a7 45 d0 ee 0d 2f bc 3f 43 52 e6 4d a3 01 b3 3f
       0.11009299354943512 0.07424374248359648
0002c0 f1 88 56 5b 0b 8c b4 bf 6c ed b4 03 62 cb ae 3f
       -0.08026190738613416 0.06014543814895998
0002d0 1f b6 e0 2a 00 bb b5 bf 92 a9 09 1f c1 9f c2 3f
       -0.08488465353794837 0.14550031676783398
0002e0 53 34 6a 64 ab 3e 91 bf 31 59 dd 34 9d b3 c2 3f
       -0.016840627673947072 0.14610638695985181
0002f0 b9 6f d1 c2 56 e9 bd 3f 01 5c 07 e6 e1 a6 b5 3f
       0.11684171921063936 0.08457767358719083
000300 ac 58 77 1f 58 6d b1 bf 51 45 43 9d 8e 0e be 3f
       -0.06807471054284758 0.11740962352202657
000310 60 71 b4 fc 83 eb a5 3f ce be d8 b3 8f 46 b9 3f
       0.042812466237793556 0.09873293057239182
000320 87 c2 1a 1f f2 03 ae 3f f0 40 b0 bc d1 9e b4 bf
       0.05862385396665553 -0.08054838997509584
000330 77 8b 2c 20 d9 94 c1 3f 3e 95 96 6c ec a5 89 3f
       0.1373549849605202 0.012523505271767928
000340 b8 90 f3 a5 f3 a9 98 3f 38 8a 3d 1c 49 1e 83 3f
       0.02408581447970512 0.009335108923271482
000350 82 4e 9d 8a 7d b1 a1 bf 5f 6e 09 9f f6 90 bd 3f
       -0.034557269259178916 0.11549321539626466
000360 2b c7 87 19 1f ce c0 3f 6e f8 00 a3 08 b6 b7 bf
       0.131290328470237 -0.09262136439881072
000370 2d cf 7e 41 f0 20 aa bf 20 75 e6 19 88 29 ab 3f
       -0.05103255080703515 0.05305123630680897
000380 ec 98 af 6d 8f ac a6 bf 3f 4a 3c f5 15 8c c2 3f
       -0.04428528036059895 0.14490007852926287
000390 40 b9 3f 12 a3 cd ba 3f ea 55 57 ac 64 10 b0 bf
       0.10470027156381878 -0.06275014121577951
0003a0 ad eb d5 3e b6 a2 97 3f 75 e7 54 fd 54 4b 73 bf
       0.023081634125883422 -0.004710514059576333
0003b0 52 98 dd 38 44 7c a6 3f 80 b7 b1 11 df 16 af 3f
       0.043916828099825125 0.06072136965745667
0003c0 0f 62 7c a7 e1 f2 bb 3f ec 6d de 18 63 e7 ad bf
       0.10917482699404267 -0.05840596846175203
0003d0 de d3 7b d1 77 49 c1 3f 32 ec 94 dd a5 76 8a 3f
       0.1350545666570317 0.012921615433347442
0003e0 67 04 c6 bc f6 31 c2 3f 44 fc 4b 98 8a 5c b4 3f
       0.1421497747178677 0.07953706949409517
0003f0 b7 03 e5 9d 37 33 b3 3f c5 d0 9f ac f4 15 a0 3f
       0.07500026326034868 0.03141750914792988
000400 f3 55 c6 43 a3 10 9c 3f a8 ee 7b 8c 92 05 c8 3f
       0.027407217990534204 0.1876700578649111
000410 5f 06 6b 25 e4 bd bd 3f b8 a9 23 f5 6e e0 95 bf
       0.11617875970389367 -0.021363958084217066
000420 2c 64 73 ee 8f c7 bb 3f bf 45 0e 23 93 80 c0 3f
       0.10851382800628134 0.12892379008967045
000430 14 ce 01 a4 a6 26 c2 3f 35 9d 0c 8f a5 5b bf 3f
       0.1418045330825498 0.12249216787732993
000440 1c 3a 9f 2f 4c 31 c1 3f c4 9b f0 24 54 91 bc 3f
       0.13431694340984357 0.11159253980495892
000450 0c 23 21 bb de 81 9a 3f 61 0a 0f e1 09 5d b7 3f
       0.02588603989741771 0.0912634062251896
000460 b1 c0 f4 f2 23 1f 65 3f 78 85 84 a1 18 6e a1 bf
       0.0025783254747225527 -0.03404309245730536
000470 19 bf bf 0d 84 40 a6 3f 81 be 15 d1 66 2a 9f 3f
       0.04346096675715056 0.030435186873943202
000480 b4 32 24 a6 ba 0c 99 3f 72 57 fa d4 3b ea b8 3f
       0.024462620153871753 0.09732412290244755
000490 87 23 ca 51 24 8c af bf 60 3e c5 c8 e2 9f b3 bf
       -0.0616160726395441 -0.07665841485617753
0004a0 c3 7d 9d 14 2a 7d b9 3f f2 1e 0e 21 70 fe bf bf
       0.0995661068277434 -0.12497616583834395
0004b0 a3 b6 60 4f b4 a1 a5 3f 43 37 ca af e0 60 92 3f
       0.04224933117835163 0.017947684029926646
0004c0 e7 c3 82 03 7c 25 c1 bf 90 ca 63 cf 7d 96 ba 3f
       -0.13395643397737375 0.10385881722667478
0004d0 fb 7c b6 46 02 9a a1 bf c8 0c c5 e9 51 74 b8 bf
       -0.03437811959451583 -0.09552490193623264
0004e0 6e f3 6e 26 05 2d b2 3f 6b 96 f8 53 64 4a 4d 3f
       0.07099945247951009 0.00089387797192293
0004f0 e4 f1 9f 54 4a 5a 9b bf c6 df ce 4d ff 94 ba bf
       -0.026711617865645368 -0.1038360180817782
000500 12 2f 1c c5 46 c1 ba bf 9b 52 e4 35 e8 60 c2 bf
       -0.10451166450746666 -0.14358236915054054
000510 23 3b 86 7b 18 14 a1 bf 01 b1 e9 21 63 f3 81 bf
       -0.03335644252648808 -0.008765005562246577
000520 b6 28 95 12 43 2b b3 3f 3a e6 5a a5 46 7d a1 bf
       0.07487887576749838 -0.034158904728837716
000530 05 9f be 6d 93 de 96 bf 69 46 61 40 2f 1b c4 bf
       -0.02233343465164152 -0.15707960742524854
000540 97 9e 18 7b 11 22 bf bf 9c d7 c8 59 07 c6 bb bf
       -0.12161359076764665 -0.10849042837148065
000550 46 0c 29 5b 3a 25 b6 3f cd 03 a7 a7 9f ed bf 3f
       0.08650555348963093 0.1247195991809484
000560 cb 69 06 4f 90 4f 9c 3f 68 f3 f2 10 b3 cf 97 bf
       0.027647261451059706 -0.023253248128401266
000570 47 63 70 a2 9a 81 aa 3f a6 bf f6 d6 57 da 87 bf
       0.051770050362569146 -0.011646925208736846
000580 1d 8d d7 42 ac be a6 3f 29 6f 3d 3d 14 97 86 3f
       0.04442346874182077 0.011030347937484546
000590 65 fa 58 34 79 2d bd bf ef 3a 13 bf c0 ea a0 3f
       -0.1139751198579489 0.03304102261028229
0005a0 c4 f2 3a 42 df 30 c0 3f 6e ee 1e 29 a8 b7 bc 3f
       0.12649145826244113 0.11217738155294807
0005b0 e5 26 69 db 7f 8b b6 3f 6b dd 84 0e e3 82 7d bf
       0.08806609255512006 -0.0072049016383098725
0005c0 22 ae 2c 67 da 58 be 3f 35 43 3c f1 fa 4a aa bf
       0.11854329127225374 -0.05135330385940621
0005d0 01 fb 6b cd ee ad be 3f 8e 4a b2 69 c1 4a bb 3f
       0.11984150424175867 0.10660942869643916
0005e0 5b 27 fd ea 31 d5 bc 3f 6b b1 0c 65 ac 12 c5 3f
       0.11262809741051909 0.16463236745893126
0005f0 14 6d 6a 2d 8d 00 c3 3f f0 de ff b6 a2 5c bc 3f
       0.1484543296581725 0.11078850715409394
000600 6e ca 8d 46 39 36 c0 bf c1 e3 f0 e1 21 0d 9a bf
       -0.12665477700246036 -0.025440720954268196
000610 30 81 00 83 93 88 ae bf 4f cf ae b9 18 e5 c4 bf
       -0.059635743848277634 -0.16324147287888954
000620 a8 10 cc 22 f5 42 af bf 8c 6c 73 f5 0c 92 ac bf
       -0.061057720658966474 -0.05580177780367376
000630 56 b6 1c 0c 75 42 c6 bf c1 bb 38 75 31 8b c6 bf
       -0.17390311328329017 -0.17612283920013108
000640 f8 00 fe 33 52 32 c6 bf 34 97 c1 35 e4 84 bc bf
       -0.173410678278749 -0.11140276253135256
000650 1e 1d cd 89 fa f2 be bf ca 94 a4 ac 8c d2 a3 bf
       -0.12089506019866689 -0.038715740274975
000660 89 05 2b a0 45 3e a6 bf d2 c7 b2 bb 3d 37 bb bf
       -0.04344384746719771 -0.10631166298369912
000670 46 14 e5 3f 22 02 c0 bf ed 21 b9 d2 93 64 ae bf
       -0.12506511802544845 -0.0593610949259221
000680 c2 2d 6c 56 db 48 8c bf 38 68 de ec d3 2b 92 bf
       -0.013810838293941145 -0.017745314915011273
000690 6c 06 de 26 15 03 a6 bf 50 56 e5 2a 57 4e b0 bf
       -0.04299226855711144 -0.06369538113843842
0006a0 b1 a2 05 c0 93 7c c5 bf 0b ac de 0a c5 2b be bf
       -0.16786429287028207 -0.11785537257553373
0006b0 6d 66 99 e8 ea 65 bb bf d3 0f c3 54 56 ea bc bf
       -0.10702388933841585 -0.11295070237525744
0006c0 6a 8a 34 9f ca 9d b0 3f e9 84 3d 37 39 d4 c1 bf
       0.06490770708891494 -0.13928904721527793
0006d0 e3 40 1a 11 8d 7e 9d 3f 59 f8 b7 3d 31 c6 b8 bf
       0.028803066414696665 -0.0967741752319581
0006e0 7f b7 9b 17 df 62 36 3f 8f 3f 40 64 7c 2e ab 3f
       0.0003415865572681184 0.05308903430716249
0006f0 df 6f ba 0b 97 80 b7 bf 5f 73 ca ee 37 ae ab bf
       -0.09180587803206162 -0.05406355657507932
000700 80 0d c0 5d 95 72 94 3f 38 28 27 6b 73 c3 99 bf
       0.019968351218279334 -0.02515964833745718
000710 43 b7 98 2e ef a6 af bf 03 ca 62 6c 8f 21 93 bf
       -0.0618204826717901 -0.018682709684705767
000720 54 59 fb fa b8 09 bb bf bd 71 ce 18 56 cd c0 3f
       -0.10561710479246261 0.13126636706591724
000730 a4 ed 76 5b 4e 50 ba bf 36 86 87 57 cd e7 85 3f
       -0.1027878735830457 0.010696033700642631
000740 56 74 a3 fe e0 f7 a6 bf a6 f6 14 a6 ae d8 a6 bf
       -0.04485991581325581 -0.044621904157321965
000750 fd ba 42 b3 90 90 94 bf c9 e5 e4 88 a7 42 a4 bf
       -0.02008272260780596 -0.03957103296347559
000760 b7 ef cc a4 01 70 a4 3f 0d 90 2c c5 ed 99 a7 bf
       0.039917041175129446 -0.0460962584677703
000770 0c b9 44 17 fc 13 c3 3f ad 98 2f e4 c8 b8 a6 3f
       0.14904738556055752 0.04437854562256525
000780 51 c0 da 56 31 4f a3 3f 6e 9a 15 4e 06 d7 6b 3f
       0.03771356759295997 0.003398430170523262
000790 bf 2e 07 24 56 ee a5 3f ed c1 3a 8f ef db c0 3f
       0.0428339880923807 0.13171190732602103
0007a0 7f a5 18 dc 8e 3b 88 bf ab f1 06 13 5c b9 b1 bf
       -0.01183234795742538 -0.06923461403397961
0007b0 32 26 ad ea dd a7 a5 bf 1f d8 0a 6b 86 75 b8 3f
       -0.04229634751989088 0.09554329026545404
0007c0 33 7d 26 a8 fe da bd 3f 7a 18 eb a4 b6 54 b9 3f
       0.11662284474595168 0.0989488747246429
0007d0 5d 1b da 98 94 22 83 3f 73 93 20 cb 81 54 95 3f
       0.009343300738022082 0.02083018114366859
0007e0 6f c1 7b 13 e9 8b c1 3f 27 43 2f 4d 14 2f 95 bf
       0.13708222819651492 -0.02068740578744435
0007f0 b9 08 7d 5a 76 94 a1 3f bb 2a 73 ea cf c7 c7 3f
       0.034335802598904626 0.18578528354404064

BatchNorm2d1.weight f8 [8]
000000 15 47 4d 93 82 cb f1 3f 43 0c ee 3c 6d 50 f1 3f
       1.1121850732783447 1.082135427481959
000010 ba 67 29 81 8b b1 f0 3f 4b ff 9a f1 7e e9 f0 3f
       1.0433459325199537 1.0570058286393358
000020 ef 3f ec 0f 23 0c f1 3f 57 dc 6f bc 62 bc f1 3f
       1.065463125418315 1.1084925995653714
000030 e7 5d d6 5e 4a c7 f1 3f 5d 90 b9 d1 e8 87 f1 3f
       1.1111549095711497 1.095681018102389

BatchNorm2d1.bias f8 [8]
000000 6f 68 28 21 90 75 9e bf e1 e9 72 20 a1 2e be bf
       -0.029745342277330552 -0.11789900819977774
000010 e0 56 e1 c2 32 8d b8 bf a3 0d 77 15 e0 e7 a9 bf
       -0.09590451486414109 -0.05059719335579451
000020 4a 5d 1a f5 6e 72 b1 bf 4a 23 3b 45 4d d8 b2 bf
       -0.06815236553153628 -0.07361300411424768
000030 8c 13 be 02 b4 b3 b4 bf c7 75 90 33 a7 6d c2 bf
       -0.0808670527167818 -0.14397134797847697

BatchNorm2d1.running_mean f8 [8]
000000 71 85 e3 3c 9c 21 a2 3d cf 22 6c 9b a0 1d a3 bd
       8.24515620949858e-12 -8.69282845094281e-12
000010 68 b2 20 ee 5d 49 90 bd 76 10 ac df cc ee 8f 3d
       -3.703141717528776e-12 3.630340600564793e-12
000020 30 d6 ac 63 a5 96 5d bd a1 1c 8e 4d 89 55 a3 3d
       -4.2047732252536915e-13 8.792142728792532e-12
000030 d6 df 5c 02 0c 83 84 3d 4a 04 08 7a 99 e2 84 bd
       2.3319332736152815e-12 -2.3743671554666174e-12

BatchNorm2d1.running_var f8 [8]
000000 6f 60 e4 84 5e ec 3a 3f 3c 73 44 3b 3d 4e 3d 3f
       0.0004108172187371533 0.0004471683016776145
000010 37 f1 f5 b3 ee 47 18 3f 6d 1a 9c 5e 57 42 23 3f
       9.262461116138909e-05 0.00014693562052788285
000020 b6 d6 0c eb 76 af f7 3e 6a c4 67 12 de 21 3f 3f
       2.2588165566625732e-05 0.000475041119357539
000030 04 2b 13 56 f7 a0 15 3f 29 03 4b 28 7f 6c 13 3f
       8.250722523254697e-05 7.409597499031792e-05

BatchNorm2d1.num_batches_tracked f8 []
000000 00 00 00 00 00 90 9a 40
       1700.0

ECANet.conv.weight f8 [1, 1, 3]
000000 2b 79 f0 13 6f 8e 54 3f 02 51 4a 8a 10 f2 d2 bf
       0.0012546620125771328 -0.29602445130264254
000010 bb 83 a8 bf 7d 0b ea bf
       -0.8139027350736038

conv2.conv.weight f8 [16, 1, 6, 1]
000000 44 96 59 2d b7 5f d7 3f 8f 00 1e 0b 28 07 d4 bf
       0.36521701267915696 -0.3129367931906097
000010 87 f3 a1 f8 4a 50 b9 3f a2 d1 44 c9 47 7d bf 3f
       0.09888142175800683 0.12300537742414133
000020 57 fc b5 67 31 ab d1 3f a9 1b 87 88 24 5e d5 bf
       0.2760737908174113 -0.333871014907738
000030 cd 47 6f 23 11 91 d3 bf 23 5f c2 6b e5 44 c5 3f
       -0.30572918377322084 0.1661650444191248
000040 de ff c6 92 03 dd d1 3f 46 c8 2e 1c 75 f1 d9 bf
       0.2791146214840391 -0.40536239387723005
000050 f7 e2 c1 64 46 a9 b0 3f 36 58 39 4b 82 5b b6 bf
       0.06508293113609996 -0.08733381592296116
000060 88 ee 12 13 9d 58 d3 bf a3 3d 13 5d ed 08 d6 3f
       -0.3022835432309212 0.344294873136244
000070 5b 87 6d 1a ea 22 aa 3f 98 0b ab 17 8f a2 c0 bf
       0.05104762623410749 -0.12996090560599494
000080 e7 59 e1 ab bc 18 d1 bf 63 c6 8e 08 da 94 d5 3f
       -0.2671348265188542 0.337210186345237
000090 69 c8 1d 9a 17 c2 b1 3f 0a 83 f4 1f 3f 31 dc 3f
       0.0693678618679613 0.4405057727872622
0000a0 5b 7e 91 05 a8 f8 c1 3f 7b 70 ae 48 b1 b6 8b bf
       0.14040088912860224 -0.013532052069244785
0000b0 10 6e e1 d1 ec 00 d2 bf 1f 63 79 8a e0 3a a6 3f
       -0.2813064622511954 0.04341794672354226
0000c0 1f 71 d8 df 3e fa b4 bf d8 86 77 18 f4 7c c0 3f
       -0.08194344487168735 0.12881327814743915
0000d0 c2 77 14 38 20 57 c9 3f 25 5e e0 db bc b6 cd bf
       0.19797137010840343 -0.23213921295313003
0000e0 84 8e 1c bd ef c2 d1 bf 04 e6 63 86 7a b5 b9 3f
       -0.27752297847676055 0.1004253938771385
0000f0 a7 e8 79 8a cf 6d ad bf 07 d0 30 26 4a cd dd bf
       -0.05747841420539262 -0.4656548855739406
000100 57 2c c6 21 eb 0d d8 bf 25 aa d0 d6 88 23 d1 bf
       -0.37584951685193374 -0.26779385545765627
000110 84 2e ad 22 bb fb c7 3f fc bc 89 b2 02 f0 ce bf
       0.18736972039402044 -0.2416995403068326
000120 d6 58 68 37 9a bd d2 bf 8b 08 04 59 97 cb d7 3f
       -0.2928224125947855 0.3718012208265768
000130 34 ee 48 f6 3a 9a cd 3f 1a 4f 4f 1a f5 d9 d6 3f
       0.2312692358553804 0.35705306596104125
000140 a9 b2 a7 92 70 b3 d2 bf 84 8e 99 9e 80 7a cf bf
       -0.29220213243278664 -0.2459259771741139
000150 1c 50 fa 18 d8 a5 c9 bf 98 48 9b ba 8a 31 d7 bf
       -0.20037366122835543 -0.36239879821108323
000160 25 3f e6 e3 29 c2 a7 3f 33 a0 75 ca 18 18 cd bf
       0.04640322596526251 -0.2272978771754893
000170 9c fe 38 b0 68 93 d6 bf f4 95 7d 34 21 30 ca bf
       -0.3527471276210947 -0.20459380209938127
000180 c2 41 7a bc a1 60 c5 3f 91 ac 57 bc 8f 3b de 3f
       0.16701146796232363 0.472385343483162
000190 6c 06 62 30 ca 01 dc 3f 49 77 12 31 77 cf c0 3f
       0.4376092407693253 0.131331347428324
0001a0 b9 45 57 b5 e2 d9 cf bf 6e 59 18 76 e2 68 bb bf
       -0.24883684019600397 -0.10706916220838078
0001b0 89 68 34 58 33 29 ce 3f 70 cf c8 de 70 3a a8 bf
       0.2356323414504156 -0.04732086867843932
0001c0 0a 15 c2 56 2d b8 d6 bf 29 fe 8c 61 f7 7f d6 3f
       -0.35499127838586786 0.3515604450840067
0001d0 3a 5d c7 07 c8 e3 bb 3f ac ec 95 4e b2 e3 d5 bf
       0.10894441785727774 -0.34202249216441305
0001e0 47 d4 05 3e 4a 45 d5 bf 18 2a 40 b2 c0 16 d2 bf
       -0.3323541265193097 -0.2826387158135346
0001f0 38 7d b6 1e 45 a9 b9 bf 8f 77 87 04 01 22 d5 3f
       -0.10023910522294421 0.33020043794919557
000200 a2 c5 3f 3e ee 42 ab bf ef 24 58 fe fe e8 72 bf
       -0.053245015238540874 -0.004616733616338949
000210 d6 ac c7 95 e6 d2 cc 3f 1c e3 ad a8 39 5b c3 bf
       0.22518617928958545 -0.15122147308627454
000220 aa c2 f3 0c 80 f7 d0 3f f0 d0 bd eb 4c d7 be bf
       0.2651062132345411 -0.12047272448927848
000230 60 79 ca 01 a1 69 c2 3f 0a 02 0b 5d 76 8e 76 bf
       0.14384853923270224 -0.005506956441138753
000240 72 5d 13 75 2f 66 c5 3f d3 87 0f 8a 94 80 c3 3f
       0.16718095032295427 0.1523614572643611
000250 30 1b 22 28 4c 28 69 3f 96 bc b5 1b 30 fc d8 3f
       0.0030709731518671277 0.3903923292736605
000260 1b 7f 28 82 39 19 d1 3f 9c 2c 3c d8 ae e7 af 3f
       0.2671645899845189 0.06231447591388781
000270 ed a2 5e bd 28 6b a8 3f 27 6e d5 c7 d9 19 c0 3f
       0.04769255935327075 0.12578890092378112
000280 99 ec 9c 0e 51 a8 d5 bf 66 be 2b 35 2c 3f d9 bf
       -0.3383982317643102 -0.39448075478046574
000290 96 ee eb 0a 6f 1a d7 bf 4d ea cb 91 ba 51 d0 3f
       -0.36098838869632155 0.2549883292955755
0002a0 e5 42 0d 7c 17 e3 c0 bf 1b 40 82 1d aa 2b d8 bf
       -0.13193028981415647 -0.37766507035940017
0002b0 7b 6c 84 79 27 ca b1 3f 98 52 24 25 63 7f db 3f
       0.06949087826471782 0.4296501028741573
0002c0 eb 2c 74 da 4b 92 c3 3f 28 b5 8d 6f 72 85 d5 bf
       0.15290210882844887 -0.33626995939160276
0002d0 19 6b 68 63 60 75 bd bf db 4c e4 ef 63 e3 c4 bf
       -0.1150722735114126 -0.16318940366236387
0002e0 64 d3 43 25 4c 5c c7 3f c2 64 de 63 48 0f 8e 3f
       0.1825041944463478 0.014677587077857605
0002f0 0e a6 c0 76 be 0f d5 3f 47 93 b5 e1 ac f4 a4 3f
       0.3290859374706948 0.04092922454109398

conv2.conv.bias f8 [16]
000000 47 48 cf 3e a4 61 d0 3f b2 ff df ff 05 6f c3 3f
       0.255959569299311 0.15182566636940248
000010 60 60 02 3e 7c 82 d8 3f 71 98 e2 ff 83 54 d5 3f
       0.38296419196695375 0.33328342427046836
000020 ce a4 99 ff 9e 35 b7 bf 47 63 88 01 cc a9 85 3f
       -0.09066194286573934 0.010577768131996413
000030 27 9a ad ff cc 59 a5 bf 9c 3b 75 ff 5b 07 c6 3f
       -0.04170075055190053 0.1720995900490977
000040 09 d1 55 bf 36 9e d9 3f f9 0f e0 ff 39 ba b6 3f
       0.400281607485582 0.08877909180597489
000050 61 19 2c 7f 30 a6 c9 3f 4b e1 17 40 67 80 d1 bf
       0.2003841992338478 -0.27346211680516735
000060 3b 4a cc 7e da 0a c7 3f 88 42 d5 3e d8 7a c9 bf
       0.18001872245129555 -0.19906142299671026
000070 1d 55 a4 df c5 3b c7 bf 08 6b 5f c0 17 97 d0 3f
       -0.1815116254808026 0.25922197138213265

BatchNorm2d2.weight f8 [16]
000000 d7 c0 b2 fd 8e f6 f1 3f 68 fc 03 80 76 7a f1 3f
       1.1226949606025778 1.0923981667144975
000010 44 cd 0a 60 4b aa f1 3f 07 a9 6b 1f ae 93 f0 3f
       1.1040757896087863 1.036054728256717
000020 5c 38 69 fa 00 13 f0 3f 84 17 f4 b6 19 b4 f0 3f
       1.0046396047287294 1.0439698359127485
000030 68 5d 11 c8 4d 91 f0 3f 0e bc 2d 19 75 5d f0 3f
       1.035474568858115 1.0228167518178028
000040 44 48 8c 33 a2 65 f1 3f af 4d 90 5f 66 08 ef 3f
       1.087312890395439 0.9697753778913717
000050 b6 2c a8 d9 b0 c1 f1 3f 0e 3e fe f5 7d ec f0 3f
       1.1097877981399455 1.0577373131853878
000060 95 12 09 1c a2 b4 f0 3f 57 40 f3 88 63 75 f1 3f
       1.0440999121794097 1.0911593770615775
000070 62 98 b7 c2 16 b9 f0 3f cc 66 e4 44 67 13 f2 3f
       1.0451877218379413 1.1297371569730101

BatchNorm2d2.bias f8 [16]
000000 02 3f 70 53 3f b6 d1 bf 50 95 ab 5f 20 21 ba bf
       -0.2767484965161061 -0.10206796966266052
000010 36 b4 87 9a 0c 85 d4 bf 5f 13 f8 73 c2 1a cd bf
       -0.3206206807215638 -0.2273791376357179
000020 c9 bb 89 da e7 08 b8 bf 37 1a 29 a3 7d 05 ca bf
       -0.09388588986779135 -0.2032925650293735
000030 3c 34 72 86 55 33 c8 bf 25 08 4c 26 b2 8d b1 bf
       -0.18906659188033526 -0.06856835780129751
000040 5e 65 78 0a 4b 75 a7 bf 76 88 5d d7 d0 d9 ad bf
       -0.04581675055323829 -0.05830242756816599
000050 b1 f5 53 c6 17 48 d1 bf 09 e0 68 8d dc 4b c1 bf
       -0.27002519958463284 -0.13512761025208445
000060 9c fb cd 4c 69 8f c4 bf 33 45 0f ad a2 c2 95 bf
       -0.1606265664122163 -0.021250287831042058
000070 99 e5 ea f1 01 c2 b9 bf 60 a1 6f 34 83 c5 c4 bf
       -0.10061657100859235 -0.16227760372499755

BatchNorm2d2.running_mean f8 [16]
000000 41 8e a6 29 fd 2b d0 3f 8d 27 68 10 94 e0 c3 3f
       0.2526848704094143 0.15529108811489004
000010 2b 52 10 47 32 60 d8 3f 33 c8 80 62 fd bc d3 3f
       0.3808713621122332 0.3084100210136313
000020 a9 11 26 0c 1c 68 b5 bf 2b 43 a5 f0 16 b6 b1 3f
       -0.08361983582114497 0.06918471694121979
000030 f7 92 28 fa e7 f6 a5 bf 69 85 c8 8c a9 dd c9 3f
       -0.04289936951344047 0.20207709669288512
000040 81 57 bf 3d 8b e2 d7 3f 43 ec b2 57 ae 1a b7 3f
       0.3732021430017696 0.09025087014281134
000050 87 fa b0 2f d0 ad cb 3f 46 80 dc 81 9f 4d d2 bf
       0.2162418587558543 -0.2859877365281175
000060 c9 30 97 4d ff 50 c2 3f 0c 71 75 23 b0 90 c6 bf
       0.1430968407497686 -0.176290528596731
000070 b6 78 b7 31 a3 b4 c5 bf 0f 34 54 53 7f d2 ce 3f
       -0.16957511832783262 0.2407988697890748

BatchNorm2d2.running_var f8 [16]
000000 f3 75 a7 ed 2e 35 7e 3f 22 4a b4 59 fa c9 b0 3f
       0.0073749383104462106 0.06558193864865605
000010 f8 50 ff 6c cd a2 80 3f f4 3c 21 d0 3e ed 8d 3f
       0.008123021019777785 0.014612665869349041
000020 55 cf 1d ba f2 f6 5a 3f 7e dc 41 20 98 d2 79 3f
       0.0016457910901097235 0.006304353944975747
000030 e6 c6 dc a0 02 d1 93 3f f4 90 93 f9 3c 43 74 3f
       0.019351998394262625 0.004946935828432187
000040 8c 03 0b 57 33 d0 61 3f 81 87 b1 8c 28 42 6a 3f
       0.002174473069630206 0.003205374906927128
000050 29 a7 ea e5 46 3e 86 3f 12 8e 27 50 4c bc 89 3f
       0.010860971347330288 0.012566181369897431
000060 de c7 59 d4 eb 9f 66 3f b4 dc f6 76 6e dc 79 3f
       0.002761803249819102 0.00631373548770069
000070 34 3c 5d 10 e3 76 69 3f 74 7f 8a eb 53 14 75 3f
       0.003108447536682069 0.005146339237995668

BatchNorm2d2.num_batches_tracked f8 []
000000 00 00 00 00 00 90 9a 40
       1700.0

conv3.depthwise.weight f8 [16, 1, 1, 64]
000000 13 d5 c1 3f a6 9b b6 bf 3a 72 1d db 49 3c b6 bf
       -0.08831252152034023 -0.08685742949951072
000010 75 ca 92 ff df b3 83 bf 6c a5 46 a4 32 e2 87 3f
       -0.009620428072911505 0.011661906851105207
000020 97 49 0a 77 b9 a3 af bf 29 58 70 34 ec 11 bc bf
       -0.061795993596336966 -0.10964847831959958
000030 48 4a 5b 9b ca 4c b1 bf c2 3f 46 ff 79 88 be bf
       -0.06757799427877231 -0.1192699669102231
000040 b6 0e 13 0d bb 10 b7 bf 92 02 1c 60 02 80 af bf
       -0.09009903973770403 -0.06152350829325316
000050 ee 12 ff 79 ef 68 b5 bf 35 02 32 a1 b5 bd 82 bf
       -0.0836324379770976 -0.009150904638091631
000060 06 38 8a ec 5d c5 a1 bf f2 63 eb ad 7d 30 b8 bf
       -0.03470891487550891 -0.09448991294938461
000070 a5 44 33 11 93 eb c0 bf b4 0d cc 1f 88 80 af bf
       -0.13218916263443706 -0.061527494317512504
000080 c3 8a 46 60 c1 46 b3 bf b0 6e ef 72 e0 b1 c2 bf
       -0.07529839134671605 -0.14605336772989608
000090 42 64 f7 04 14 48 a1 3f 21 b6 6d ba a6 fb a1 3f
       0.03375303803085973 0.035123071916000954
0000a0 70 e1 82 50 c1 e7 b4 bf bd 1d 87 4e 5e 9d b7 bf
       -0.08166130271536587 -0.09224500100309903
0000b0 5b ed e1 7d 1b cf b7 bf 70 99 5e c7 1d 2f b0 bf
       -0.09300395797065646 -0.0632189380399717
0000c0 e5 3a a2 6c 4d 5c 4e 3f 9b 36 63 59 bd dd b5 bf
       0.000926530651911364 -0.08541472847283631
0000d0 31 8a 59 d6 1d 9a c0 bf c1 ce 33 6a 95 5b b7 bf
       -0.12970326391503442 -0.09124120562392603
0000e0 67 1f af 3f 8b a6 b5 bf 74 8f 32 ad 47 3f b9 bf
       -0.08457250885760247 -0.09862182596640229
0000f0 52 75 c8 50 d4 03 8f 3f 5c 54 70 81 33 15 bc bf
       0.01514402267008089 -0.10969850454451219
000100 e6 7c 6c 73 72 73 ad bf 8c 39 87 c5 c9 c5 85 bf
       -0.057521416272942535 -0.010631157246191923
000110 c7 ec 56 36 24 c7 b2 bf 4f 58 2f d6 4b b8 b0 bf
       -0.07335115744256192 -0.06531213740467588
000120 7c 51 9b 59 d0 41 bf bf 90 7f a5 44 3b a1 b0 bf
       -0.12209798991836424 -0.06496019769610784
000130 03 47 91 5f 8f 7a af bf 84 78 a1 9b a4 b6 94 3f
       -0.06148193399043402 0.020227977751681184
000140 6a 19 41 bf 48 7f b7 bf 2b 81 e0 e2 c5 e3 b9 bf
       -0.09178595227522171 -0.10113179005611943
000150 63 b3 1a a0 e3 b5 82 3f ab b7 55 53 3b 55 95 3f
       0.009135988543982959 0.02083294578681431
000160 ff fc 7d 7e 76 7c ab bf 13 7d d4 2e 4b bd a6 3f
       -0.05368395132154013 0.044412946192318746
000170 ad ae 40 ce e1 3a 7c bf 2b b1 58 61 bb 31 b0 3f
       -0.006892091802040018 0.0632588493978729
000180 fc 94 52 c8 13 f7 bc 3f 29 87 ba f3 2a eb 9a bf
       0.11314510002792483 -0.02628771889306517
000190 98 bc 8e e5 cd 8c a0 3f 2b 9c 87 47 6d f2 91 bf
       0.03232425143448231 -0.017526347628429455
0001a0 a6 4a 49 cd 11 a7 9d 3f c1 67 91 d4 52 51 70 bf
       0.028957632212334737 -0.003983806186704742
0001b0 58 20 b0 8f 76 ad 89 3f be 29 1b d4 25 ed b0 3f
       0.012537885913858002 0.0661185877644703
0001c0 ca 2e ee 8d 55 d0 bc 3f 42 91 dc 03 3a 71 bd 3f
       0.11255392756555263 0.1150089511325563
0001d0 85 fb 7c f6 82 7d c2 3f 6d 92 c2 f9 20 68 be 3f
       0.14445530925328512 0.11877637956292526
0001e0 d2 4e 38 fd a1 e4 ac 3f 30 03 75 7c 20 54 b9 3f
       0.056431829605711706 0.09893992460730483
0001f0 83 a1 eb d3 78 45 c3 3f a4 e8 85 30 4d c3 b0 3f
       0.15055761668851284 0.0654800647224954
000200 23 41 55 a1 68 66 c6 bf 76 3f b1 9a 93 8c bd bf
       -0.17500026586140746 -0.11542627836865713
000210 eb 92 3d 71 37 22 75 3f 93 98 8d 99 dd 21 c7 bf
       0.00515958459059072 -0.1807209968348543
000220 c1 45 7f e0 2b d5 b5 bf 5e 13 50 bb 96 93 b8 bf
       -0.08528398733985566 -0.09600202630106255
000230 48 d9 37 16 ef 30 99 bf 9e d8 64 8d 64 7e a9 bf
       -0.024600730639542406 -0.04979242540359617
000240 c9 8b 7c 2b 97 e3 c3 bf 23 27 7a 5b b3 38 ba bf
       -0.15538301108708044 -0.10242768271760076
000250 60 30 05 15 ed 07 b1 bf 28 fd 78 91 04 1e bd bf
       -0.06652719271841212 -0.11373928596093619
000260 f5 67 26 f4 81 91 b8 bf d7 f7 11 e2 c9 5c c3 bf
       -0.0959702702588457 -0.15126918352683447
000270 cd 2f 40 5e be 32 b4 bf 4d d4 8f a1 c9 85 a0 bf
       -0.07889928628009031 -0.032270718547728984
000280 c5 2e 68 e2 f9 2d b1 bf 2c 9d 63 73 41 31 98 3f
       -0.06710778977884065 0.02362539545802382
000290 21 46 38 67 c3 fe c2 bf e9 70 e8 87 e0 f7 c0 bf
       -0.1483997587206867 -0.13256460796481598
0002a0 6e eb 72 e3 fb 70 b2 bf 37 a9 cc a2 78 bd 8a 3f
       -0.07203649809791354 0.013056700199360989
0002b0 33 a3 ef 83 9f 56 a6 3f 32 27 69 c3 79 6e c1 bf
       0.04362963185832882 -0.13618394891300906
0002c0 4d 17 21 b1 05 e1 a3 bf c3 50 43 b7 33 95 c0 bf
       -0.038826158401703205 -0.1295532841528538
0002d0 9f 66 3b 44 07 78 a2 3f b3 dc 3d 1a 6b 3b 85 3f
       0.036071993903260983 0.010367237795192307
0002e0 7b 96 d6 14 8b 3f 97 bf e0 17 8f 39 5e 04 b8 bf
       -0.022703335902085158 -0.09381665139434814
0002f0 ff d3 f8 4a 74 32 a6 bf 33 ee 66 8f 54 29 b4 bf
       -0.04335368552384721 -0.07875565053012039
000300 c0 3b d5 e9 1b f2 b2 bf b2 51 d9 1a 5d 3d 65 bf
       -0.07400679072200855 -0.002592737050500748
000310 78 2f 47 f3 86 ea 87 3f f0 8d 39 59 70 c6 a1 3f
       0.01167779378820176 0.034717093364431295
000320 fe 9e 24 25 c9 fe b7 3f 72 a6 44 11 f0 91 90 bf
       0.09373147160351533 -0.016181708387341627
000330 9c 4b a5 c3 4a 6d b9 3f 49 3c 24 b6 c2 ef bc 3f
       0.09932391430383664 0.11303345629515706
000340 2b 52 fd 4f 20 7b a5 bf 77 10 36 e0 4a 4c b4 3f
       -0.04195500351366762 0.07928913091569877
000350 e9 8a 81 f6 37 1d b6 3f 27 c4 3a 4f e9 95 a8 3f
       0.08638334053243181 0.04801873294980679
000360 b4 e9 b9 43 f4 f5 9d 3f 3d f8 7c 11 0d ca a7 3f
       0.029258553155594405 0.04646340216139364
000370 29 0c 6e 39 41 33 8b bf da ac c9 4b 43 44 a6 3f
       -0.013281354489441526 0.043489554406585376
000380 56 e0 06 2e 65 ac c1 3f 1d 04 c3 d9 4c a5 a9 3f
       0.13807358500867178 0.05008926542496559
000390 4f 6f 6b 4e 99 ca ac 3f ab 9a 11 75 e6 70 c1 3f
       0.05623320657988861 0.1362579414009891
0003a0 69 17 99 b7 56 9a 89 bf 8d 03 fe 60 98 69 b1 3f
       -0.012501409032789916 0.06801750534033442
0003b0 27 65 b7 ea c7 71 ac bf 3f b3 31 72 92 ec 94 3f
       -0.05555557956877016 0.02043370077119566
0003c0 00 83 92 83 e6 02 a6 3f ba cb 34 65 00 31 a0 bf
       0.042990878640244645 -0.03162385211398751
0003d0 5a 74 d7 e6 19 e3 ae 3f ac 42 bb f3 78 3b b6 3f
       0.060326394490154825 0.08684497786021933
0003e0 d2 7b 35 58 7a 15 b5 bf 13 30 79 4a c2 d6 b7 3f
       -0.08235897687471486 0.09312071150014871
0003f0 af d9 24 04 ea d2 ab bf 9c aa f3 36 de 51 a8 3f
       -0.054343522077420096 0.047499603469835366
000400 95 62 cb 65 78 7b c0 3f 9f 5a d9 bc 83 55 c1 3f
       0.12876801462586643 0.13542219849724277
000410 99 66 c6 86 1f 11 89 bf 68 f1 97 9c cc 91 c0 3f
       -0.012239691067225155 0.12944944044273687
000420 93 39 31 7c ff b4 c3 3f d6 07 1e 55 c7 62 8c 3f
       0.15396112026287465 0.013860280308794087
000430 24 8e 30 c5 bf 89 bb 3f d1 7f b9 3a 73 0f 7a 3f
       0.10757063450051213 0.0063623906276859135
000440 21 ab 91 92 88 51 c3 3f 1a 2a be 3c e6 2b ac 3f
       0.15092570454302126 0.055022425570389014
000450 77 49 ca 92 99 55 b6 3f 7d a7 a4 de 7b 11 8c bf
       0.08724365075821604 -0.013705222827940617
000460 7c bf 3c bd b9 6d ae 3f d1 07 3b 3d 42 ba b0 3f
       0.059430889463668785 0.0653420829285374
000470 47 b6 a3 17 d6 25 c3 3f e3 aa 4a 71 d3 df aa 3f
       0.1495921721865889 0.05248890645937878
000480 5b 87 2a 62 3b 70 74 bf 63 57 ad 63 69 99 7a bf
       -0.00498984524407028 -0.006493961026384418
000490 b8 c8 81 7f 2a eb b1 bf 8e cc 91 0d 1a b4 a0 3f
       -0.06999459851229772 0.03262406745570799
0004a0 d7 0f c9 2c 85 cc b7 3f c5 3c 9c ca 01 f7 b3 3f
       0.09296448081391816 0.07798777767696936
0004b0 a3 bf e5 89 9b ad a3 3f c5 b2 c1 1e fe da 94 bf
       0.03843389566725299 -0.020366640689121213
0004c0 ad 65 f0 33 7c d6 a0 bf 52 6c e9 f6 0c 45 80 bf
       -0.032886391964164964 -0.007944203648710655
0004d0 52 ba af 20 06 65 a7 bf 92 ae 3a 3e 1d 36 b3 3f
       -0.04569262646679263 0.07504446763294428
0004e0 16 6a 7d 5f b3 e9 5b 3f 9e 0e e2 fc ee 5d a2 bf
       0.0017036678018117527 -0.03587290608359449
0004f0 fd df c9 85 ae ff 9a bf 82 4b 45 5f 27 94 a1 3f
       -0.026365973392302056 0.03433344877216539
000500 68 98 42 80 d1 76 ba bf bb 8b 9b f3 3c b3 55 3f
       -0.10337552434302355 0.0013244719725029458
000510 92 ea a1 c0 9f 9d ba bf 84 8f 04 fe cb 2d 95 bf
       -0.10396765187207738 -0.02068251359845831
000520 bd 03 47 58 ac 61 aa bf db aa ab 43 a6 e5 ad bf
       -0.05152643754582396 -0.05839271141106447
000530 73 70 4c cf 02 10 a2 3f eb d7 ad e0 99 53 b2 bf
       0.03527840404987694 -0.07158815131501199
000540 1f bd b7 86 c4 ac ac bf e1 87 bc c0 62 52 b3 3f
       -0.056005612797770825 0.07547585683326431
000550 b5 fc 7a fb 39 16 a4 bf 89 53 67 e1 f8 31 be 3f
       -0.03923207468823745 0.11795001509683635
000560 1d 38 ba d1 53 58 9c bf 26 bd 0f 91 fa 4e c0 3f
       -0.027680692363496563 0.12741024096565318
000570 ea 12 63 2b 71 09 b5 3f 97 f9 01 01 9c 36 9e 3f
       0.08217532452824697 0.029505193292146705
000580 d9 43 0d 67 f8 e3 95 bf 53 86 7b 53 57 fa a8 3f
       -0.021377450265678142 0.04878495115350447
000590 71 6e 76 27 e3 3b c1 3f 0e de 0c 4c df 1d 9b 3f
       0.13464011599431872 0.02648114110635729
0005a0 6d 14 d9 73 b5 a8 8f 3f b2 42 3c 23 93 ea 99 3f
       0.01545850524702016 0.025308894181821535
0005b0 2f 99 01 a4 f6 c0 b2 3f 82 91 21 6c ca e7 b0 3f
       0.07325688842829402 0.06603684558792192
0005c0 68 eb 3c 41 df 2c c5 3f 4e 23 da 5b 80 ca b5 3f
       0.16543188748786553 0.0851211761711401
0005d0 d5 9d 23 6e cf fd c1 3f 9b 7e 44 71 e5 65 bc 3f
       0.1405581748760897 0.11092981353112423
0005e0 bf 56 00 11 27 9d c3 3f 12 f0 dd e9 f5 da b2 3f
       0.15323341684477573 0.07365357360498617
0005f0 b6 13 8f 91 f3 ca b6 3f b8 1b 7c 26 74 cd ad 3f
       0.08903429320987652 0.05820811242852336
000600 f6 ad 19 1a b6 5c be bf 16 31 87 90 74 98 c1 bf
       -0.11860216271605126 -0.1374650674537256
000610 f2 f3 5c 39 85 7f c5 bf 90 f5 0e bd 4d 26 b8 bf
       -0.167954113969159 -0.0943344675606197
000620 3e 29 dd a3 54 82 c4 bf c2 01 d6 a8 11 4b be bf
       -0.1602273750416518 -0.11833296176883493
000630 b6 cb a5 a8 d1 66 a0 bf 28 52 db 82 eb cf 7d 3f
       -0.03203444656073577 0.007278366055932163
000640 a9 24 32 0b ca 22 ae bf 13 94 75 51 47 7d c1 bf
       -0.058859170786555844 -0.13663569905762127
000650 a1 2a 0e 50 c8 84 b4 bf 57 24 9e 63 b5 02 c2 bf
       -0.08015109972454094 -0.14070765842578467
000660 c6 11 37 02 c7 43 9a 3f c0 b5 04 0c f8 66 c1 bf
       0.02564917517681111 -0.1359548624690614
000670 eb 8c 11 12 5e 4e 94 bf 79 19 ef 5b 67 8a 99 3f
       -0.01983019814759938 0.024942030893521292
000680 ef 91 eb 78 6d 5b bf bf 0c c4 2a d6 3d 1c 7d 3f
       -0.12248882486489497 0.007107011365108395
000690 75 85 e7 e7 be 64 aa 3f 57 55 2c b1 d7 b3 ae bf
       0.05154987889160171 -0.059965839746079545
0006a0 00 92 86 d2 0c 59 b1 bf 2c 6b 89 78 45 7b b2 3f
       -0.06776504649912596 0.07219347183983577
0006b0 1e e2 f8 c2 cc 99 bd bf ab 47 0e ee c3 6e ab bf
       -0.11562804946959956 -0.053579447564643466
0006c0 75 be 68 7f 84 ae b7 3f 58 43 44 dd 69 c4 a3 3f
       0.09250667677474118 0.03860789133080428
0006d0 8e 17 65 1a 3d a5 b4 3f ee 5a 89 15 db 21 9c bf
       0.08064634222418318 -0.027472899617658912
0006e0 de 54 34 43 2f ba bc bf e7 17 14 87 f5 db b5 bf
       -0.1122159518311778 -0.08538755939306918
0006f0 3b b7 75 ef 91 26 9c 3f 97 ba 68 ec 8f 4f a2 bf
       0.027490883102863278 -0.035763261421711316
000700 c4 7e bd 4a f2 5b 80 bf a4 7c 21 f2 10 e8 b8 3f
       -0.007987873941316954 0.09729104911228831
000710 32 96 43 76 5f 02 aa bf 55 b7 b3 43 34 82 b5 bf
       -0.05079935377743218 -0.08401800778275732
000720 59 89 a1 b1 2a ed 95 bf f4 f6 56 8a c2 92 b2 3f
       -0.0214125319402084 0.07255187871393415
000730 e1 35 c7 c5 a8 19 a7 3f 6c 28 98 c9 d2 44 8b bf
       0.045117639677851214 -0.013314863946124876
000740 34 d2 ef 6e 41 a9 bd 3f 37 77 c5 d6 66 43 77 bf
       0.11586388548295973 -0.005679513659144145
000750 d5 8c 26 a5 54 65 85 bf 0f f5 1f 09 81 50 9a 3f
       -0.010447179117198871 0.025697723562179194
000760 9c f6 f0 45 55 3d ae bf 0a d3 8c aa 0b e0 ac bf
       -0.05906168440604384 -0.056396832055190485
000770 d5 08 ed 60 50 6b 90 bf 45 49 5f 9c 15 01 a2 3f
       -0.016034370342148236 0.03516452344742275
000780 b8 71 36 69 ec a6 60 bf 6e bb dd b0 69 dc ab bf
       -0.0020327203180398844 -0.054415991630654456
000790 e6 1d 8c f4 a5 f7 b6 bf 97 a9 cf 8c 54 01 be 3f
       -0.08971631260293797 0.11720779836438165
0007a0 99 bb 86 dc e9 f6 a5 bf 9d d0 26 02 63 f9 bd 3f
       -0.04289942566844402 0.11708658983735849
0007b0 6d 10 d3 3e 11 bc b7 3f 55 1b 9c 50 47 25 ac 3f
       0.09271343025017283 0.05497191294676066
0007c0 d4 1e 85 ed c0 e6 65 3f de 2d fe e8 bd 16 a9 bf
       0.0026735084649408356 -0.04900163144256074
0007d0 56 cb b8 93 1a 2b a5 bf a2 b5 f6 68 24 30 c1 3f
       -0.04134448102231285 0.13428168416195968
0007e0 34 a4 26 38 b3 73 ba 3f 67 0c da 2a bf 61 a9 bf
       0.1033279430472625 -0.04957387350170777
0007f0 5b 22 c3 74 64 29 a9 bf 2b ed 26 53 b3 44 a8 3f
       -0.04914392400093411 0.0473991431240058

conv3.depthwise.bias f8 [16]
000000 83 98 1c 00 bf 16 91 bf ed 97 09 40 93 70 b3 3f
       -0.016688331968133695 0.07593651116766838
000010 37 06 f0 7f 6f 64 a0 bf d8 47 f8 bf 35 f7 bd 3f
       -0.03201626240480631 0.11705337464107346
000020 cd f0 32 00 f9 5e ac 3f b6 ec 0c 00 43 b4 a9 bf
       0.05541208388737715 -0.05020341277710243
000030 c6 44 01 00 d6 b3 9e 3f 34 ff 0a 40 69 7a b8 3f
       0.029982894659330815 0.09561784566448922
000040 61 e3 e8 ff 9b 54 aa 3f e8 47 03 40 c5 f6 ba bf
       0.05142676829240745 -0.10532791912854089
000050 b4 ed fc 7f c7 24 a8 3f 84 4d ef ff e4 c4 ba bf
       0.0471556037650446 -0.10456687210471755
000060 d2 1c 01 00 98 78 ac bf 4b e3 00 c0 b1 d2 bc 3f
       -0.05560755729725887 0.11258994042954133
000070 12 64 d6 ff 7d f2 86 3f be d9 17 00 0a f4 a6 3f
       0.01120470463756543 0.044830620299694854
