MI_4_set/run/best_model3.pth (torch, 97299 bytes, 38 tensors)

conv1.weight f8 [8, 1, 1, 64]
0	0x3fbe4df63709b692	0.11837710231494672
1	0xbfb4b2cf3cd65f75	-0.08085341677940312
2	0x3fb9d685445899eb	0.10092957419019626
3	0xbf98698754e47cba	-0.02384005981104729
4	0x3fbd137d746fd7f5	0.11357864468286023
5	0x3fab612c703febc0	0.05347575063930021
6	0xbfad73e4501ac35f	-0.05752480962599437
7	0xbfb08ce44cfe0b14	-0.06464983825393872
8	0x3f95f4cea72b2de6	0.02144167800251564
9	0x3f9d96fbafcfb532	0.02889626751487135
10	0xbfb9cc9b4a8604b3	-0.1007782990400468
11	0xbf74ac5f2d2a4704	-0.005047199042239606
12	0xbfb83888417327e4	-0.0946126136579149
13	0xbfa174ed6a3b0067	-0.034095210282885806
14	0xbfb9f983f045caab	-0.10146355262785771
15	0xbfbf44d56ae70d15	-0.12214406833577514
16	0xbf919c4a358f5a23	-0.017197761076966366
17	0x3f883b7b9d65a8bf	0.01183220457160805
18	0x3f947cc1c98500bc	0.020007160115029107
19	0x3fa89cf6e4a50dd7	0.04807254353593365
20	0xbfbcaa2fb570de02	-0.11197183780392808
21	0x3f99e7377d946fde	0.025296084441933313
22	0xbfaf8e1a058c9b5a	-0.06163102452983678
23	0x3fbdcf03a35d5f71	0.11644003618618883
24	0xbfa600b6ed563aa7	-0.04297420165231829
25	0x3fad5b98ff370b21	0.05733945956628462
26	0x3fa0f27ef78c2f33	0.03310009738751631
27	0x3fb8f0a3a4ad752b	0.0974218632740828
28	0x3fbb64914e096cb8	0.10700328974910434
29	0x3fbbae32891f49d0	0.10812679145536852
30	0x3fa9d5d523612d9a	0.05045953804855259
31	0x3fc9ab5644d1fc8a	0.2005412899052071
32	0x3fc3c2636b416080	0.15436976182059325
33	0x3fc4cf0332401c94	0.1625675196994264
34	0x3fbe603e1f34414e	0.11865604650325176
35	0x3fc54e283bf87dbc	0.16644766739135075
36	0x3fcfa4318823341f	0.24719828746165803
37	0x3fbd7d38c0d0af75	0.11519198138620175
38	0x3fbc2fe82a1fa8bb	0.11010600117120621
39	0x3fc6f557fd606a0a	0.17936229583649804
40	0x3fca4c2de23f7866	0.20544980571043253
41	0x3fb9851581fa5bc9	0.09968695090570558
42	0x3fc7ec8a35f25489	0.18690612444030233
43	0x3fd1032d4dc5b333	0.2658189067358762
44	0x3fc95fb42811c1a3	0.19823314625274432
45	0x3fc616f5f6fc9892	0.17257570800683603
46	0x3facf2ac720737c3	0.056538952750642156
47	0x3fc0376f7cb73258	0.12669175710324754
48	0x3fbca7f04d46cc82	0.11193754088053434
49	0x3fc7babe7f67d477	0.1853864786241137
50	0x3fac81d57afe19bb	0.055678054107420626
51	0x3fc3dc8209f39865	0.15516686902919044
52	0x3fb328433c8f4a2d	0.07483310917385984
53	0x3fc3a4cc50e0daad	0.15346673916947876
54	0x3fc5aae6f1215a00	0.16927801870288306
55	0x3fc25601402435b7	0.14324966079622722
56	0x3fc1ac94bf323604	0.13807925544499267
57	0xbf8c5ab947b5e2d7	-0.013844916821413573
58	0x3fbe61c67dbd07bb	0.11867943353448045
59	0x3fccd2d440a710f0	0.22518399388184873
60	0x3fbc7a16f0274c2d	0.11123793948290546
61	0x3fd2b78ff4688a6c	0.2924537550735866
62	0x3fc12c79b92b881f	0.13416978398805754
63	0x3fc00eec7ea42bfb	0.12545543845803295
64	0x3fb46f735dbd0634	0.07982560194525307
65	0xbfb4fcb60848ed2f	-0.08198106481807053
66	0xbfc1aaf0b259619f	-0.13802918156103502
67	0x3fb1d1ac14dad1f2	0.06960559376859246
68	0x3faab83d7cfd8f62	0.052186891086221335
69	0x3fb3a168fea88c51	0.07668167321439624
70	0xbfc09448464c847e	-0.12952521736682238
71	0xbfb3397cc150bce9	-0.0750959369622596
72	0x3fabdc5139b2dd52	0.05441526250199992
73	0x3fa609eab2123fad	0.04304440902444582
74	0x3f75e373d8087e34	0.005343868746905001
75	0xbfab7c15dd15e2e4	-0.053681071508384
76	0xbfb8cccd30ce1802	-0.09687502328424105
77	0x3fb6464d608bcd06	0.08701022727091265
78	0xbfb8623bfc7f5dc8	-0.09524893679132795
79	0x3f639337e8f83d02	0.0023895351403165907
80	0xbf8e391d71fc4634	-0.014757375756320724
81	0x3f9da0324ad64e24	0.02893141347665397
82	0x3fad935825b718bd	0.057764772991093484
83	0x3fb8e10242cafe39	0.09718336229979564
84	0xbfaa50fd89a0497c	-0.05139915757185329
85	0x3fb5160ac3403899	0.082367584866207
86	0x3fbc5f626ed19e20	0.11083045201814246
87	0x3fa12dd4bab19416	0.033552787580255636
88	0x3fa469ab2a8e657e	0.03986868757710747
89	0x3fb21f2f71c021eb	0.07078835036384816
90	0x3fa828d66ba4ec57	0.04718656600967879
91	0x3fafe57ba400d7ac	0.062297691125805826
92	0x3fb0a9355f071678	0.06508191652309303
93	0x3fb2190dae3830d1	0.07069478515058171
94	0x3fa1adbed6ddf1f2	0.03452869770896773
95	0x3fc25ff0687f26c5	0.1435528288114282
96	0x3fb3de79527d0cbe	0.07761343253973771
97	0x3fbf9beed1dd381a	0.12347309707294621
98	0x3fa440f5a5241555	0.039558102043921885
99	0x3fc0bae5118f9ba7	0.13070357663602047
100	0x3f875a6c4b301f29	0.011402936977915683
101	0x3fc9773959cd9c19	0.19895092854423593
102	0x3fac210c598b7ebe	0.054939638071798566
103	0x3fcbefe31c2ad63e	0.2182582747970389
104	0x3f99076be6ef38cd	0.024442373247261884
105	0x3fb0ad81fc7904c5	0.06514751829037653
106	0x3fbb677d55c5d6fd	0.10704787582457338
107	0x3fc62d83bab7550c	0.17326399437903495
108	0x3fbe4be752df02a0	0.11834569714757004
109	0x3fc0df43718b86e0	0.13181345981779824
110	0x3fc6bfb2602f973a	0.17772512146546565
111	0x3fc17e4a8ae3ff7b	0.1366666010071603
112	0x3fb90b7f24dcc17d	0.09783167505225339
113	0x3fc52922ad702e55	0.16531785458242845
114	0x3fcbcfc5f4828558	0.2172782367606867
115	0x3fcc9c149addd350	0.22351319848862738
116	0x3fc1be0981e89f2d	0.13861197322079857
117	0x3fa409d0b8ab47d6	0.03913738493214651
118	0x3fc87c9c9a0a3651	0.191302848067084
119	0x3fb082c6b846eec0	0.0644954872031418
120	0x3fd020f81ee8bf01	0.25201228159401984
121	0x3fa7d8cdd073f713	0.046575957961961255
122	0x3fcdb206b3cdae32	0.2319954278894883
123	0x3fc699bd5ed4cb83	0.1765667641680829
124	0x3fc0b0c8cc11dc2c	0.1303950306353
125	0x3fca8bbd3b575201	0.2073895015479508
126	0x3fb12e9b766ca433	0.06711742058963992
127	0x3fb77e2bd54c6a7d	0.09176897008402736
128	0x3fd75a860fdd67b9	0.36490012692740553
129	0x3fd2f6910e41e8e4	0.29629923240976397
130	0x3fc7a78b7176188c	0.1848005584726632
131	0x3fcbf0cd9c2f9c56	0.21828622938412207
132	0x3fcb0b8d554b5b84	0.21129004158748554
133	0x3fcec5271460940a	0.2403916215418181
134	0x3fd3a2b87111ae39	0.3068066696348271
135	0x3fbf25f196a4ae7a	0.12167272498907691
136	0x3fb29a5dbe1205a9	0.07266794100180242
137	0x3fbf3a98e987817c	0.12198787404441264
138	0x3fca4127d7f38644	0.2051133923005627
139	0x3fb046d52bba338a	0.06358082120477895
140	0x3fb92449aeb0cc6f	0.09820995821864796
141	0x3fba0cdf5132b745	0.10175891620994289
142	0x3fc1199e88b64e65	0.1335943381824222
143	0x3fc09898120f9ced	0.12965680009731476
144	0x3f751328d1f4a90c	0.00514522500388127
145	0x3fb0c914448e0599	0.06556822465610991
146	0xbfa750801aff8044	-0.04553604440275241
147	0x3fc14e3e1359df42	0.135200271080743
148	0xbf702135f10acd0f	-0.003937922200452761
149	0x3fb494fa116221c4	0.08039820598981523
150	0x3f95f3c9dde49d7e	0.02143779198482098
151	0xbfa2ddc6ec6d57a9	-0.03684827457497814
152	0x3fb0816ddefc80e7	0.06447493261339653
153	0xbfac561e3928ad29	-0.05534452865352996
154	0xbfad24114b0a1c4e	-0.05691579857835248
155	0x3f9ad6c8b6e04eef	0.026209961091878616
156	0xbfae5344991abe03	-0.05922903412772131
157	0x3fb1a8c7c4483650	0.06898163358729303
158	0xbf847351640054e3	-0.009985576500222531
159	0xbfa861215d6f9ac2	-0.047616045623546835
160	0x3fbd9092306a7fd6	0.1154872291758687
161	0x3f8bba82e7ae8d41	0.0135393359140098
162	0x3fbc36fd614c9ce9	0.11021407723875466
163	0xbfa553325ab86bf0	-0.04165036542345735
164	0x3f9c7564a74ca898	0.027791569434307023
165	0xbfb6afaab50fbb3e	-0.08861796303220346
166	0x3fb48551318aa24a	0.08015925845632768
167	0x3fbb4b348d25172a	0.10661629148407017
168	0x3f1a39150d1acc07	0.00010003272043483678
169	0xbf891edacc8e5a96	-0.012265881888919677
170	0xbfa22ffb79360a5b	-0.035522326036716755
171	0x3fa840096a21c6d7	0.047363561826285476
172	0x3fbaa81fe6c08cf9	0.1041278780326599
173	0x3fb2c8a39f62735f	0.07337401047921109
174	0xbfa474a8dbea0d08	-0.03995254215717564
175	0xbf84126b397eccaf	-0.009800756160848271
176	0x3fab0dd260d206e9	0.05283982688798778
177	0x3fb2c0b95177cff4	0.07325323332753425
178	0x3fc2841bff9374c0	0.14465665797516714
179	0x3fc021d90c1bdb68	0.12603295413256466
180	0x3fb6a70782a95c34	0.08848616542796678
181	0x3f87fb97c8f8917f	0.011710344143531113
182	0xbfa45ad543535f65	-0.039755501240221126
183	0x3fbd8d2734cd65b6	0.11543507613295997
184	0xbfa05ae8fb976e41	-0.031943588935714924
185	0xbfa22b70313f3418	-0.03548765755804356
186	0xbf823a8269ee9bce	-0.008900660379209582
187	0xbf9bfd529af35436	-0.0273335368227274
188	0xbfa2627ea79b336b	-0.03590770526861927
189	0xbf97a4db6d66e67e	-0.023089817573895825
190	0x3fc7157233c2b7a0	0.18034198310254812
191	0x3fad1937ae31c76d	0.05683301926991544
192	0xbfc7778e8d1ba89d	-0.1833360852245435
193	0xbfc31f21170edaf4	-0.1493874895656614
194	0xbfc785c28985b18e	-0.1837695285315814
195	0x3f60035537159712	0.001954714237103591
196	0xbfc7717bc38c192c	-0.18315074012952814
197	0xbfba32fe8f065f41	-0.10234061233347537
198	0xbfb02ae69582a246	-0.06315461301950007
199	0xbfb1523c6ae9ea26	-0.06766107187460388
200	0xbfbc9c295bf6ef8f	-0.11175783629636114
201	0xbf9a7e116509036c	-0.0258715360562322
202	0xbfc59755daf6bc21	-0.16868088904945558
203	0xbfb190f21ac2529e	-0.06861794617936787
204	0xbfa44e4e444d7551	-0.039659925306049566
205	0xbfc4b47ec8c0b6c4	-0.16175827791578545
206	0xbfbed639d3fdfe2e	-0.1204563276823982
207	0xbfb94505cf115d2b	-0.09870945268027202
208	0xbfb52f5a10af6d75	-0.08275378138880803
209	0xbfa760ff76df1adf	-0.04566191030567323
210	0xbfbca63fd5db30b2	-0.11191176386927529
211	0xbfb60c0109778f9c	-0.08612066727761064
212	0xbfbe0d8fcfc27835	-0.11739443609482765
213	0xbfb7328ca011f4ee	-0.09061507137262811
214	0x3fa5b5110e90ba74	0.04239705374526617
215	0xbf95c2d7eb336614	-0.021251081209674963
216	0x3fb7550399034c31	0.09114096151033448
217	0xbf96d6f68f7c9176	-0.022304394252516478
218	0x3fb88abe33a785d5	0.09586704979985623
219	0x3fc291b2c5e0dcca	0.14507136022596107
220	0x3fa7d6cc8105796f	0.04656066012352055
221	0xbf8718e3b6c9794a	-0.011277941718785062
222	0xbf95f2e138b51624	-0.021434325300353177
223	0x3fbef6206686adcf	0.12094309332922325
224	0x3fc06a4cdb5469eb	0.12824402532062548
225	0xbf9ac5166e891352	-0.026142454620884444
226	0x3fafc008be134fa4	0.06201197929627192
227	0x3fa4ff22f8a895f3	0.04100903783209366
228	0x3f8873279b14c369	0.011938390178870955
229	0x3fc23b15bc8e1941	0.14242812830725352
230	0xbf8ccfbffee40d14	-0.014068126646185543
231	0x3fa2e853a49ffe4f	0.03692876228887753
232	0x3fc1e9cadca8fb39	0.13994727873247273
233	0x3fc0d349d9030242	0.13144801231648456
234	0x3fa7a0395ff93aa7	0.04614428803016795
235	0x3fbf54a975a01428	0.12238558885299311
236	0x3fb358b8986b2a79	0.07557252617986333
237	0xbf760ef11795948c	-0.0053853433285883205
238	0x3f837896a7afe550	0.009507348053363757
239	0x3f944e8c88c82a24	0.019830890511039936
240	0xbfa3e42af8278da5	-0.038850157539651854
241	0x3f91fac3e9b58eb3	0.01755815614650542
242	0xbfb3ea5981b4fd3e	-0.07779464165377178
243	0xbf989ddc6e65e9e7	-0.02403969215218096
244	0xbfc178f7998d75ed	-0.13650412557301142
245	0xbfbcce155366f4d6	-0.112519581662997
246	0x3fa87c4f6f897b78	0.04782341228996406
247	0xbfa6b9e1a6f77b26	-0.044386912948303256
248	0x3f8d61c45fbf5426	0.014346632167795258
249	0xbfc2fa9088ad6914	-0.14827162431431218
250	0xbfc501481303e4cc	-0.16410160950161978
251	0xbf85301efd67936b	-0.010345689876837224
252	0xbfc4b337f7c97efa	-0.16171931838015735
253	0xbfc26c6191ee4341	-0.14393252969287043
254	0xbfc3ff1f1e19eb77	-0.1562231919268375
255	0xbfc0a19cce1d8fa2	-0.12993202270729137

BatchNorm2d1.weight f8 [8]
0	0x3ff58a25290c5e02	1.346226845116576
1	0x3ff459882f03af9d	1.2718583904743135
2	0x3ff4b3b0525a7d97	1.2938693253453033
3	0x3ff3b1b9c775437b	1.2308900634127145
4	0x3ff192b4ca72af1d	1.0983169468044658
5	0x3ff1fb281c1f2a0a	1.1238175486092836
6	0x3ff4aa90020ec038	1.2916412430167963
7	0x3ff2fd0bc648e4fb	1.1867788072107135

BatchNorm2d1.bias f8 [8]
0	0xbfdab3e9884313a9	-0.4172309714015748
1	0xbfe09b0fbac66974	-0.5189283988905076
2	0xbfde380a05d5df18	-0.4721703583704637
3	0xbfd1a3bb7a0d7e39	-0.27561842841348355
4	0xbfce2c6db666215f	-0.23573085218618936
5	0xbfca8ee67036e0cf	-0.20748596648423365
6	0xbfd2aa562fa5219a	-0.29164652493320775
7	0xbfd33706d1b6779a	-0.3002335594154545

BatchNorm2d1.running_mean f8 [8]
0	0xbda0f1a8ae940090	-7.705230078604535e-12
1	0xbd9fcf30bfa20893	-7.232606002182482e-12
2	0xbda1cb9cc5fd9105	-8.092393237460246e-12
3	0x3d9079b336718971	3.746070164726887e-12
4	0x3d7a0803ae594dbe	1.4797084400224783e-12
5	0x3d9be64dd272d9f5	6.34364027302448e-12
6	0x3da1f51a59e6c68e	8.166095238748604e-12
7	0x3da1dbe383c57554	8.121305813483559e-12

BatchNorm2d1.running_var f8 [8]
0	0x3f6365d62a012586	0.0023678954021632585
1	0x3f612e65b0fbb4dc	0.0020973192366598847
2	0x3f553db9c16fcc20	0.001296454812970145
3	0x3f375799d2951614	0.00035617356714498613
4	0x3f411508b57f0539	0.0005213062786354811
5	0x3f4ca277190d0f65	0.0008738595516679491
6	0x3f61438911d54cf0	0.0021073987142386993
7	0x3f60947cf7266e2e	0.002023929665666355

BatchNorm2d1.num_batches_tracked f8 []
0	0x40b3ec0000000000	5100.0

ECANet.conv.weight f8 [1, 1, 3]
0	0xbfef2a1dfdc9b9eb	-0.9738912541195622
1	0xbff0ab4b4313f313	-1.041819822333484
2	0xbfe72db74290c9ac	-0.7243305492505008

conv2.conv.weight f8 [16, 1, 6, 1]
0	0xbfa25e1e970f7cfd	-0.03587432474136596
1	0xbfc14a13ed7f206f	-0.13507317635071867
2	0x3fc44c0be58ca156	0.15857075413192473
3	0xbfbd41bc3d4e47b6	-0.11428429123614489
4	0xbfcafb91ef665383	-0.21080230893553784
5	0xbfdc977a8ed6d937	-0.44674552868982026
6	0xbfca3b5cff22db37	-0.2049366231710452
7	0x3fbf9199980bfd99	0.12331542932587637
8	0x3fcbab907693c3d6	0.21617322721388516
9	0xbfb7f5e8ded3e956	-0.09359603347903564
10	0xbfca20dbb09307fc	-0.20412775155824636
11	0xbfd963b9fdee726a	-0.39671182439796004
12	0xbfbc57686c51f651	-0.11070873875174782
13	0x3faa9b9f6b01ac9b	0.051968557178804185
14	0xbfd3fb15198af939	-0.31219985479755824
15	0xbfd1f4923ffaaf51	-0.2805524468228571
16	0x3fdb4b6a225612b1	0.4264779410662341
17	0xbfd0835043542e8a	-0.2580147416599422
18	0x3fd03c50caaff9f8	0.25368137162868676
19	0xbfd0c5e948475dff	-0.2620795446250383
20	0x3fd095ba60f26fa3	0.2591386744259074
21	0x3fd57779b331050f	0.335417199126895
22	0x3fd0f12c22d696ad	0.2647199955193667
23	0x3fd4bb55cfdeda47	0.3239340333924798
24	0xbfaeba442d1838f6	-0.060014849190439465
25	0x3fd18a0c2bbece2c	0.2740507533264658
26	0x3fdc9c10d1094e33	0.4470254937525368
27	0x3faa537cf3479b2f	0.05141821355555575
28	0x3fcadfbace4c431b	0.20995268891467664
29	0xbfbfce747d3d1b2a	-0.12424400384507508
30	0xbfd4e0539162e0c6	-0.3261917991435549
31	0x3fbd62757ea45845	0.11478361455769555
32	0x3fd19e073cc59299	0.2752702802156733
33	0xbfcdbfa148252307	-0.23241058371265685
34	0x3fd7a1f64930e1f9	0.3692603792910912
35	0xbfd0591c3f8aa5d8	-0.2554388638041849
36	0x3fc5bcbe319a369d	0.16982247755043015
37	0xbfdee87a937a205a	-0.482939380665362
38	0x3fc5458265c01add	0.16618375747949346
39	0x3f91dc26a17f0df3	0.01744137154288512
40	0x3fd0320de75200e7	0.25305507268787014
41	0x3fd63e583b4a530f	0.3475552157408836
42	0xbfbeb2db920fd165	-0.11991665187799112
43	0x3fa8ef07f516166e	0.048698662441023596
44	0x3fd7b6236eef0b97	0.3704918464028934
45	0x3fc1a0c0a71e510f	0.13771827850417437
46	0xbfc9939dc5d7b23e	-0.19981739197045728
47	0xbf92460755877184	-0.017845263095169553
48	0xbfd46f3a88441d6d	-0.31928885752900876
49	0x3fc4acd529afba00	0.16152443442793185
50	0xbfcd7fa0167fe114	-0.23045731638536238
51	0x3fcd633bf43515a3	0.22959088730037278
52	0x3f83dc5576be959f	0.009697597204488427
53	0xbfde1d66a0f8650d	-0.47054448814158506
54	0xbfa097608da1c2ff	-0.03240491608528905
55	0x3fa6e2b7e891ab1a	0.044698474063656415
56	0xbfd27b0566fa472d	-0.2887586122170543
57	0x3f6e62b6cce8426f	0.0037091799088176318
58	0xbfc5e5605468351f	-0.17106250878752235
59	0x3fce0427d68d2c94	0.23450181938310222
60	0xbfdedeb8814fec7d	-0.48234379413742784
61	0x3f939a5bad415f07	0.01914351696936392
62	0xbfb4c10c724d6f9f	-0.08107068815792083
63	0xbfc942c10bdc85c1	-0.1973496730725355
64	0x3fc88d59ee5a02bf	0.19181369913350996
65	0x3fa59fc660d42a71	0.04223461086265424
66	0x3faed22d454c8621	0.06019727202352621
67	0xbfba44cd1708d22e	-0.10261232197155642
68	0x3f8f75370a7c13b7	0.015360288627116121
69	0x3f94ebff4f850184	0.020431508282173563
70	0x3fcd1a6f2af9b2ff	0.2273692092743644
71	0x3fc1a1bc11c7b61a	0.13774824970407523
72	0xbfb61ee682c560f5	-0.08640900318767193
73	0x3fb1a20753757a79	0.06887861049242784
74	0x3fc4ada66218a8ff	0.16154937543735312
75	0xbfd336e6b92194fa	-0.30022590712754005
76	0xbfae88f39c14274d	-0.059638607790545174
77	0x3fe1052f89d5645b	0.5318830196439522
78	0xbfb6a74ab73fdf93	-0.08849017118325113
79	0x3fcc55ef95ba04a2	0.2213725548827244
80	0x3fd18014c6f4d27e	0.2734424536641099
81	0x3fbe1680dccd488c	0.117530874163352
82	0xbfd480c7bdcdd3b4	-0.32036012206600195
83	0xbfd0505626ee7314	-0.2549033527555349
84	0xbfb2a795d7a44475	-0.07286964907349776
85	0xbfb761c2cdaa80d9	-0.09133546372550273
86	0x3fbdc62486a0b59f	0.11630466734705756
87	0xbfa98fd9255447f9	-0.049925599867620414
88	0x3fcfbe979a3ba2af	0.24800391226678672
89	0xbfde97436592b499	-0.4779823772358412
90	0x3fc3a7ccf077c549	0.15355836621851385
91	0xbfd235ee5c5d3f82	-0.28454169292398757
92	0xbf72b26f94f3f099	-0.00456470095309327
93	0xbfa04a711ab3ca04	-0.031817945966299305
94	0x3fd314c4a6986660	0.2981425883204789
95	0x3fc72ddb0e96bc6d	0.1810869046434819

conv2.conv.bias f8 [16]
0	0xbfce73c14006b7a4	-0.23790755869179947
1	0xbfd6531a3fc77fea	-0.3488221762509044
2	0x3f655bdff6d2fb5d	0.002607285909646802
3	0xbfb6a6a9fe0a05ca	-0.08848059131744104
4	0xbfd00bb76048592a	-0.2507151069888943
5	0x3fc3c6e3ffff298a	0.15450716018524374
6	0x3fc5f8cbff37b328	0.17165517770572447
7	0xbfd7af7a3fb0ccce	-0.3700852987269173
8	0x3fd17b5d3f48c869	0.2731545560847111
9	0xbfd4e2e67fea072b	-0.32634890071504924
10	0x3fd239f5bf9899d8	0.28478759489590066
11	0xbfb74cd5fdbbf0e2	-0.0910161728351713
12	0xbfd3ce07c0251e32	-0.30945009006652235
13	0x3fcb17e600193bae	0.21166682247937046
14	0x3fc417087ff7c53d	0.15695291756086674
15	0xbfd444f8bf9d5630	-0.3167096968876164

BatchNorm2d2.weight f8 [16]
0	0x3ff5751d83c764bb	1.3410926005947619
1	0x3ff4eb6838be6439	1.3074724403907239
2	0x3ff4e9b6469e4574	1.3070585974240574
3	0x3ff5644b967d3107	1.3369861486890515
4	0x3ff56dd292548a24	1.3393121448540422
5	0x3ff398a6dc999ef9	1.2247685067358687
6	0x3ff43fcb5d643467	1.2655748031713985
7	0x3ff281390511b498	1.1565485189451348
8	0x3ff057a631721e48	1.0213987285113877
9	0x3ff1564fe233f351	1.0835722766925822
10	0x3ff2b57ad4a2070c	1.1693065935109557
11	0x3ff1699c6cb5e949	1.088283943796869
12	0x3ff3a5047664b720	1.2277874588721218
13	0x3ff6365fffc50344	1.3882751456259976
14	0x3ff364e1993df59d	1.2121292100922354
15	0x3ff35735cdb1fc3f	1.2087915453883082

BatchNorm2d2.bias f8 [16]
0	0xbfc9eb203b7f61da	-0.2024879732623635
1	0xbfb8446a36b9fd14	-0.09479392849060658
2	0xbfd774c25f4bfefc	-0.36650142008146225
3	0xbfdb3b48c8430026	-0.4254934268647069
4	0xbfd644be23070bfb	-0.3479457227769555
5	0xbfc40790aa156e29	-0.15648086838597067
6	0xbfdbe1514d96c193	-0.43562729432144315
7	0xbfdb346c42d498de	-0.4250746395722568
8	0xbfaac126d9b88bac	-0.05225488097882844
9	0xbfc8f0824245d6c3	-0.1948397468183228
10	0xbfd7d6a1d74389ac	-0.3724751093087899
11	0x3fb16e876c0a3e9b	0.06809278857894656
12	0xbfc962230269da14	-0.19830739610525028
13	0xbfe03e991189623b	-0.5076413481247707
14	0xbfd0ef07d44e7b7f	-0.26458926899970686
15	0xbfe118d9c77fb1df	-0.5342835327588168

BatchNorm2d2.running_mean f8 [16]
0	0xbf965cef2b8c1e37	-0.0218388910607514
1	0xbfc8648e61716d9f	-0.1905687309070858
2	0x3fc8b9e73d1844d8	0.19317331774849467
3	0xbfe16505970a8815	-0.5435817670843358
4	0xbfe0afa9ddd523cc	-0.5214433033626107
5	0x3fc667bbdc3b2d31	0.17504070523714568
6	0x3fb5339bc0a6fe9c	0.08281873181749194
7	0xbfda5f4d83658cea	-0.41206682044703646
8	0x3fd776b958f71888	0.36662133872994973
9	0xbfd2d76a2d955c16	-0.2943978734160181
10	0x3fd69aa04b13a856	0.35318763095586314
11	0xbfc1aa1cec01ba6a	-0.13800393604056477
12	0xbfd7aad71de2ac43	-0.3698022643899927
13	0x3fcc4084012e8548	0.22071886117650252
14	0x3fcc4463c0704082	0.22083708664331786
15	0xbfd7f7ccbf8abddc	-0.3744994993712376

BatchNorm2d2.running_var f8 [16]
0	0x3fc2b9952227f0bd	0.14628853004240297
1	0x3fc48042a2758983	0.16016419346403774
2	0x3fd91772a85186f5	0.39205614507055425
3	0x3faad7d7cc8129db	0.052428001130994516
4	0x3fb38212e20d6bde	0.07620351809366308
5	0x3fb1fab67392f042	0.07023182222013793
6	0x3f9d1c973115c70d	0.028429376955904796
7	0x3fba50513fed37e2	0.10278804598530614
8	0x3fab14447467ab91	0.052889002999868436
9	0x3f942dff64d66021	0.019706717042566994
10	0x3f917010e2798028	0.01702906019488651
11	0x3f906531b45dcc13	0.016011025079432594
12	0x3fd29263d937472e	0.2901849385499301
13	0x3fcb23e75b6fdfe1	0.21203319515893695
14	0x3fb56127eb968882	0.08351373197231918
15	0x3fb47dc5b3a23878	0.08004413257205722

BatchNorm2d2.num_batches_tracked f8 []
0	0x40b3ec0000000000	5100.0

conv3.depthwise.weight f8 [16, 1, 1, 64]
0	0xbfa3cb8fe597e824	-0.0386624305501331
1	0xbfa0ee198a93e221	-0.03306655708906115
2	0xbfae656fe2f8dd71	-0.05936765332847472
3	0xbfa235213f55cd0e	-0.035561598759978094
4	0xbfb310ac09e414cf	-0.07447314492681588
5	0x3fb7e0d10d0dd655	0.09327417916014132
6	0x3fae0d0a1a793ede	0.0586932332340646
7	0xbf9c4672ab841f9e	-0.02761248752452127
8	0x3fba6d27ab7b119d	0.10322807251492923
9	0x3fba7fb881799f2e	0.10351136361134358
10	0x3fb71a9c3456d04d	0.09024978902636001
11	0x3fb03663e9474910	0.06332992978358143
12	0x3fbe2c3ed420e161	0.11786263159672707
13	0x3fa705fa3b1cd8b3	0.04496747943487502
14	0x3fc21f59b160b361	0.14158173714659042
15	0x3fb8f54877e8f9e3	0.09749272277347347
16	0x3fc54ddda23e04c9	0.1664387743185556
17	0x3fc2c44b07273359	0.14661538934015075
18	0x3f8bf1f56c7055f6	0.013645093318738848
19	0x3fc0e43935026977	0.13196482742643997
20	0x3fb4bc909b786afd	0.08100227161086689
21	0x3fbd7620936942b0	0.1150837287798463
22	0x3fb746c21b178c6e	0.09092343484330609
23	0xbf80cf90eba2a4a8	-0.008208400908488692
24	0x3fc8d35d35d732b3	0.1939503205197944
25	0xbf68471e22bdaa59	-0.002963599070360073
26	0x3fac85cb013834a7	0.055708259486075655
27	0xbf9d77d8017744aa	-0.02877748021075336
28	0x3fb77e742ca38ec7	0.09177328195397215
29	0xbfbe18f6fbb86f22	-0.11756843228834815
30	0xbfc409ffab25aeef	-0.15655513626858616
31	0xbfaf0b9f47997736	-0.06063554524437935
32	0xbfb2295a471e4a8d	-0.07094349132811768
33	0xbfbfb6dfa40360f4	-0.1238841796324584
34	0xbfa5b39240a720c1	-0.04238564528674394
35	0xbfc4c3032d84520a	-0.1622013065576911
36	0xbfceadc792cc7c57	-0.23967833202275088
37	0xbfbf13b30ecb5391	-0.12139433966815562
38	0xbfb8ec48d6ac6803	-0.09735541573573418
39	0xbfc1babcc276d684	-0.13851127143214026
40	0xbfc97e8f62c9f94d	-0.19917480777435018
41	0xbfc7f797ba7deff8	-0.18724342924167536
42	0xbfc7a35f88f7f85d	-0.1846732538978725
43	0xbfb8d3992c7ce0c3	-0.09697873436096231
44	0xbfc8aefcd0e0e591	-0.19284019660134935
45	0xbfc70569dafc5055	-0.1798527068391446
46	0xbfc17ed6eda9c383	-0.13668333630223736
47	0xbfbb23ac22a7eb77	-0.1060130676850529
48	0xbfb14bd243846cd6	-0.06756319187518342
49	0xbf9ed98e3ee62199	-0.030126783932730914
50	0x3f4f120940cf235c	0.0009481949979256265
51	0x3f889cb9ed496613	0.012017681650081468
52	0xbfb7fc589e3df084	-0.09369424689606559
53	0xbfb884171928dda7	-0.09576553692101318
54	0xbfb18922bd1f9761	-0.06849877469320866
55	0x3f7df85c07df7464	0.007316932196741541
56	0xbf80f5d687972027	-0.008281398785484907
57	0xbfc0157a658c64ab	-0.12565545996111402
58	0xbfc0c3255094f44a	-0.13095537600193757
59	0xbfc23bed1becee3f	-0.14245380271482763
60	0xbfb82de84bc021bd	-0.09445049142244151
61	0xbfbfce5ef027e2c2	-0.12424271929911426
62	0xbfc15c90e26647df	-0.13563738875069384
63	0xbfc9f6e425e9b987	-0.202847021591378
64	0xbfa20605fad33da7	-0.0352022045786911
65	0x3f813b9d2d0d9c3e	0.00841448587170934
66	0xbfa17ecb2f6cf189	-0.034170484103444095
67	0x3fb019ba0a774dd6	0.06289255862730356
68	0xbf8216dd5d35aac8	-0.008832673460991272
69	0xbfb1ab4c66bc2937	-0.06902005680254751
70	0x3fa0c97a9e2b98fa	0.032787162597559275
71	0x3f89077bdd9da9a8	0.012221305561713816
72	0xbfaa4d1ebfee9bc0	-0.05136962979241089
73	0x3f74e70b7f34734b	0.005103154096357819
74	0xbf9c4eca3a91f472	-0.027644309830510534
75	0x3f923e844dc966d0	0.017816607711529653
76	0xbfa0881e4bf0e822	-0.03228850056662248
77	0xbfa4a130c3bfdfe5	-0.040292285819248076
78	0x3fa4f058b6190da9	0.04089619849085164
79	0x3fab903763117dfd	0.05383465847330269
80	0x3f7939f84458f04d	0.006158799927614989
81	0x3f959ffe5301eb84	0.02111813909185002
82	0x3f74f437139f38cb	0.005115714209706644
83	0x3fa4c3d004f1d26c	0.040556431392279574
84	0x3fb280fe2489ed22	0.07228077308711936
85	0x3fb72490fcb99e2e	0.09040170831723834
86	0x3fbe0bae518476d9	0.11736573686763609
87	0xbf9265f82085e739	-0.017967106804895414
88	0x3fc03ed3c9c68d64	0.1269173369629285
89	0x3fc153a70f9a4886	0.13536537420128897
90	0x3fb1c008505f48d3	0.06933643305027042
91	0x3fac783333c394ed	0.055604553288313464
92	0x3fc8d5e24ba6999c	0.19402722066770373
93	0x3fccf7ed32dcb4a4	0.2263161180830241
94	0x3fc89e5abbd04d5b	0.19233259363736974
95	0x3fc54ba8a3eae86d	0.16637142185010437
96	0x3fc8c6b3a854ed08	0.19356389731715518
97	0x3fc4d76ad29b6e29	0.1628240135531638
98	0x3fc3e59301662b4c	0.15544354980769481
99	0x3fc85602f581acc6	0.19012486446022175
100	0x3fcbd2a2386380c0	0.2173655295691841
101	0x3fca89f6c4dd3cb3	0.20733532536039476
102	0x3fbb7397969e90ae	0.1072325461123593
103	0x3fc65bcab612a886	0.1746762646701578
104	0x3fc28d520bbcf3e6	0.14493775914334533
105	0x3fb7db14218b067e	0.09318662470743708
106	0x3fb2b5563dcea5f6	0.07307948121037797
107	0x3fbb74b742aa19f4	0.10724969270277268
108	0x3fab4f19a9795762	0.053337861955397484
109	0x3fc145880cad286f	0.13493443125691182
110	0x3f8290ad51995299	0.009065012028409302
111	0x3fbef6ce91978323	0.12095347456444165
112	0xbf97ec1044b0e9ea	-0.023361448471613068
113	0x3f94972d13d0c962	0.020107940992781244
114	0x3fab1d05c0cc4b4a	0.05295579889766218
115	0x3fa572e42121476e	0.04189217476290606
116	0x3f66476f4e7b1e72	0.002719609637867931
117	0x3fa0342577f509b3	0.03164784516640697
118	0xbf985186b147f216	-0.02374849755323013
119	0xbf9c0930f85ed158	-0.027378811988186896
120	0xbf98e0a3280f2bde	-0.0242944234085306
121	0xbfb965ead76cf92c	-0.09921138533988899
122	0xbfa8679600fe1bc1	-0.04766529810063203
123	0xbfa712c8ab962d4a	-0.045065184541352624
124	0xbfadfb756f7ce2dc	-0.05855910287795549
125	0xbfb50a49232e8f16	-0.08218819722111123
126	0xbfb96b8c9ae5ab71	-0.09929732114475855
127	0xbfc157f9463de755	-0.13549724511886532
128	0x3f8e2eef1c4c264f	0.014737957049436505
129	0x3fc167c447c22624	0.1359792089827333
130	0x3fb56db7b5773ef2	0.0837054079086064
131	0x3fa7adf48d4850cf	0.04624904846801458
132	0x3fc14155935cddcd	0.13480634398886907
133	0x3fc649c64dacee16	0.17412642281293306
134	0x3fb26786f2f9b7aa	0.07189219886796985
135	0x3fc5e9f48e591f53	0.17120224905579082
136	0x3f979c9df35f7a1b	0.023058383921915487
137	0x3fba3907653ade71	0.1024326917785119
138	0x3fa7e45123421c21	0.04666379504583796
139	0x3fbe1e245bfc7703	0.11764743085629097
140	0x3fc66bb445b9695d	0.17516187099938466
141	0x3f9a9eedd0a86d24	0.025996890888660876
142	0x3f972a44e9bf6547	0.02262218167002075
143	0x3fbc4398646a8659	0.11040642215314146
144	0x3fb4872eca6d0fd8	0.0801877254680784
145	0x3fa2a879144b536c	0.036441596724819586
146	0xbf4c1522c3ce5527	-0.00085701177123335
147	0xbf71465432cdf761	-0.0042174614908371
148	0xbf940b47b8b3c49c	-0.01957428040345076
149	0x3fb2391026e0427e	0.0711832137024064
150	0x3fb017b2695d8277	0.06286158630747161
151	0x3fa684bdff247f59	0.04398149241956046
152	0xbfb5bd9433b9841e	-0.08492399466332798
153	0xbfb2495b7194e49e	-0.07143184206951722
154	0x3fb177ebb44217a1	0.06823609495958617
155	0xbfa855b2348a9976	-0.04752880946516573
156	0xbfb121cf61ffa07b	-0.06692215101759473
157	0xbfb74f927d1bd80f	-0.09105792574322912
158	0xbfbc712b709ab3b0	-0.1111018323815205
159	0xbfb273bdc258f2a4	-0.07207857127009248
160	0xbfa7b78da33ffba0	-0.04632227533146893
161	0xbfbfe544643e71f0	-0.12459208915101505
162	0xbfb2911a34679ad0	-0.07252658633624809
163	0xbfbc129d413db402	-0.10965903132246527
164	0x3f88409bf74643c0	0.011841982349126812
165	0xbfc59a4b1379a030	-0.16877115679676669
166	0xbfb9f2080cc7c55a	-0.1013493567659415
167	0xbfb105ee6892bfcf	-0.06649675419862365
168	0xbfc2409242d25d65	-0.14259556067257076
169	0xbfbffc45384463c5	-0.12494309066495564
170	0xbfbab0529982d5d1	-0.104252970197954
171	0xbfc04eeb710db813	-0.1274084379214747
172	0xbfc39d7c712ccf0c	-0.15324359441876145
173	0xbfab09dedf5ea8b0	-0.052809681670013986
174	0xbfbb02a12b57bc6d	-0.10550887401744698
175	0xbfca5b61b1753c02	-0.20591374554575742
176	0xbfbfaf8a3f6365f1	-0.1237722782856492
177	0xbfa517d6cec8f11d	-0.04119750284414379
178	0xbfbc8847ebd65472	-0.11145448215241219
179	0xbfb15a487938537d	-0.06778386077378502
180	0xbfa76ec8ef870718	-0.04576709674758045
181	0x3f890f8b1597b995	0.012236677738624727
182	0xbfa406b2933513b6	-0.03911359831776144
183	0xbf82dd31437a6ab4	-0.009210953590174632
184	0x3fae62e3cad11b38	0.05934821940223006
185	0xbf68d7e7d8f110b2	-0.0030326393385014744
186	0x3fae70fc0356550e	0.059455752761247024
187	0x3fa6751fe982f9c9	0.04386234021648112
188	0x3fbef277b4b6abd4	0.12088726198150762
189	0x3fbd505541a82921	0.11450703480673897
190	0x3fc2259832ba5d02	0.14177229382469397
191	0x3fc75ac170bcfb64	0.18245714192195372
192	0xbfb199dec935e490	-0.06875412380567725
193	0xbf94d15aa742816d	-0.02032987256882406
194	0x3f71912bf7f46355	0.004288837196576652
195	0xbf939915289da212	-0.019138651470173747
196	0xbfb482f3f4bf38e3	-0.08012318349139806
197	0xbfa7d7dbae0b094f	-0.04656874179410641
198	0xbfb8315591004998	-0.0945027808195732
199	0xbfc037f30f6e1afe	-0.12670744183943577
200	0xbfc14f69eb49ed66	-0.1352360152121534
201	0xbfc29eaeb91a9b10	-0.1454676059558655
202	0xbfa902601a6dbf5d	-0.04884624788871748
203	0xbfac66687ec96259	-0.05546881244362529
204	0xbfb2720ba97a0fc5	-0.07205269706361069
205	0xbfc61fd28c02cf0b	-0.17284614407037
206	0xbfc78495ed52af8a	-0.18373369300877257
207	0xbfc1ac337d31d3e2	-0.138067661409564
208	0xbfc0aa0714e943ba	-0.13018883248380836
209	0xbfc18b6eb4d9bafa	-0.13706764059630655
210	0xbfc1b7f0eae7a9f2	-0.1384259364125025
211	0xbfc0e523d466c6b7	-0.13199279662290106
212	0xbfab72f025729077	-0.053611282893400274
213	0xbfbb2880f498705e	-0.1060867879063507
214	0xbfc750b6e6b21319	-0.18215070976671013
215	0xbfba0b9340ee5e91	-0.10173912368042638
216	0xbf9f04f12c5f0c1e	-0.03029229005165856
217	0xbfc1bceef7e281e6	-0.13857829192876564
218	0xbfc8cf10ffc89273	-0.19381916512897454
219	0xbfc6342c162b5f07	-0.1734671695946803
220	0xbfb385c338fb139b	-0.07625980511791257
221	0xbf92c4e131a2faf6	-0.018329161314563934
222	0xbfb0c0a348acdb23	-0.06543941997811635
223	0xbfc5deb8b1972154	-0.1708594195499794
224	0xbfc2d41543070f3e	-0.14709726116972804
225	0xbfbd6962b0d7cb14	-0.11488930528120661
226	0x3f9dbaa5cb97bf5d	0.02903231673366179
227	0xbfa5d5394fa3e585	-0.0426423940388743
228	0xbfae98156dc77be4	-0.05975405659750502
229	0xbfc31df179ab2855	-0.14935129586075627
230	0x3f61fa57c03ebfa5	0.002194568050946049
231	0xbfbd41dc4148f2c7	-0.11428619951125106
232	0xbfac1f2148365a24	-0.054925003113727194
233	0xbfbbf648414fa867	-0.10922671885023903
234	0x3fac953f065cc6d0	0.055826158072148524
235	0xbfb937ee66a696c6	-0.09850969320413147
236	0x3f97028b5874c369	0.02247064330476026
237	0x3f9fd6c7c3fc1eaa	0.031092759453740605
238	0xbf9bbc7d10810b64	-0.027086214191750627
239	0x3f33af9bf0d7e695	0.00030038411281872154
240	0xbfb29dd5ee3d72a6	-0.07272088114172934
241	0xbfa9acce658fef23	-0.05014653196118803
242	0x3fa88ed409ee76b6	0.04796469327196233
243	0x3fa37ea1e6b780b3	0.03807550374381332
244	0xbf9ca9ce5f887e1f	-0.027991509037859182
245	0x3fa126eacd858612	0.03350003966148675
246	0x3f9f63345fea7f8a	0.03065187297272546
247	0x3fc526393bfdf7ef	0.16522899083423634
248	0x3fa3aacb49ec8728	0.038412430547636156
249	0x3fbc508ec6491cbd	0.11060421315152076
250	0x3fbe56605c9aa7ea	0.11850549946635139
251	0x3fc9c045beb12208	0.20118018923882652
252	0x3fc347ef2261694c	0.15063275507675156
253	0x3fbfd4cb965997dc	0.1243407480302205
254	0x3fd303eb251204d1	0.2971141683593262
255	0x3fc11863380d8e23	0.13355674969635442

conv3.depthwise.bias f8 [16]
0	0xbf832dfdff147ca2	-0.009365066859173436
1	0x3fb2b830bfe9de23	0.07312302289380361
2	0x3f75fd840165dfe8	0.005368724485712996
3	0xbf99c2b0000617a1	-0.025156736375286596
4	0xbf7157c3ff4f9ee7	-0.0042340904373998406
5	0x3fb91531c010dd5d	0.09797964991672843
6	0x3fb32d3dfffc6b76	0.07490909099253237
7	0xbfab3584ffe0ac41	-0.05314269660478788
8	0x3fb0166d0008b984	0.06284219027359056
9	0xbfbe8376bffc8faf	-0.11919347941562707
10	0xbfb0d0278004c010	-0.06567618251278895
11	0xbf911b76ffe07f9f	-0.016706332557191336
12	0xbfb9b3e53fec1166	-0.10040123758887418
13	0xbfb2a13ffffc599d	-0.07277297973300852
14	0xbfbc5da8bfe409ba	-0.11080412564118705
15	0x3faedd978007106f	0.06028436124646041

conv3.pointwise.weight f8 [16, 16, 1, 1]
0	0x3fd8f60b1bafbbe3	0.39001729682689595
1	0x3fbfc4b33c9551a0	0.12409515599330811
2	0xbfc018d2d6e40903	-0.12575755589211476
3	0x3fbf1d08ad07af01	0.12153677200666026
4	0xbfdd482f7176f8b7	-0.45753084259548465
5	0x3f9b7535c8b4a9ff	0.02681430852423183
6	0xbfa07f5142908eed	-0.0322213548427309
7	0x3fb5bc2ec7f5f909	0.08490269071441871
8	0x3fb788da16b8e046	0.091931944415479
9	0xbf960ec5e801e214	-0.02154072979507944
10	0x3f950d7f240d5390	0.020559298110430613
11	0x3fdb20812a28e6ef	0.42385892026105315
12	0x3fb757edc9c76907	0.09118543792957122
13	0xbfaac701bdc5a77f	-0.052299551406419724
14	0x3fae72f7b0b4ec5f	0.059470882721563305
15	0x3fb47daded27a141	0.08004271545326437
16	0x3f79eb7bdf4bf3f3	0.0063280905494566995
17	0x3fa898ad438c8d72	0.04803983163426552
18	0x3fccdab375b69e29	0.22542422530863007
19	0x3fd2139dbadede24	0.2824472737224559
20	0xbfbc6b0de38cc424	-0.11100851827065178
21	0x3fc503b1d72775e6	0.16417525296758056
22	0xbfb165fedaf22556	-0.06796257825239613
23	0xbfbdbc02450c646a	-0.11615003762962464
24	0xbfd0953d9b693432	-0.2591089265523038
25	0x3fb5cd1e60ddfbda	0.08516111245079064
26	0x3faae35b2d4bab8b	0.052515839843031285
27	0xbfb36fd0c2a30e7b	-0.07592491866949473
28	0x3fd70e54834d755f	0.3602496416331941
29	0x3fd23f18a42b9602	0.2851010897851155
30	0xbfa713a994c8785f	-0.04507188740920819
31	0xbfc18adda26b0588	-0.13705034666604043
32	0xbfc4f88abaf3202d	-0.1638348973122005
33	0xbfd2c15dcb601b87	-0.29305214749222624
34	0x3f624ec97eb3da90	0.00223483423689725
35	0x3fb1f7adb1b96e30	0.07018552388165555
36	0xbfc39639b1ee2acd	-0.15302201450352584
37	0x3f5f0c535e452b96	0.0018950285094258882
38	0x3f235b4fa0bea39f	0.0001476797773396739
39	0x3fcd12c8a561261f	0.2271357352749854
40	0x3fd2f0a096e28de7	0.2959367249952422
41	0xbfc185017b957020	-0.136871514648079
42	0xbfd7a1b8c3672bcb	-0.3692457111580409
43	0xbfc1465848c1968d	-0.13495925476597784
44	0x3fb00eb149a57047	0.06272419021610275
45	0xbfa2e33a7af40ca6	-0.03688986540694232
46	0xbfb1647c1cf22b09	-0.06793952662171078
47	0xbfc2343019f06a26	-0.1422176481872423
48	0xbfa340885a2dd912	-0.037601719864072916
49	0x3f84cc94445f56f8	0.010155828796921437
50	0x3fcea462be3972f3	0.23939165390301972
51	0xbfb6a1a445d17eb4	-0.08840395645665461
52	0x3fa1bd2834213857	0.034646278728005235
53	0xbfa32840cc545226	-0.03741648191695317
54	0xbfb0d322a12b7b6f	-0.06572166857539029
55	0xbfcc26df240e3ec3	-0.21993626843003797
56	0x3fc64abefce18b1f	0.17415606830317018
57	0x3fe026dff1dd03e7	0.5047454570668578
58	0xbfc36ffe7c58d6ad	-0.15185528823501696
59	0x3faa90c7f8e8416f	0.05188584245127258
60	0x3fcffdf6705dc484	0.249937825075481
61	0x3fa0a148030e0794	0.032480478642369054
62	0x3fc42be92578d2b3	0.1575900490730838
63	0xbfb79a9d986ad7b0	-0.09220299693228529
64	0x3f9978409656cbc4	0.02487278859707566
65	0xbfcf0563255f80bc	-0.24235190701347686
66	0xbfb3eabf2c7f69b3	-0.07780070148820677
67	0x3fd3abdfb1c03d90	0.30736534460535214
68	0x3fc61f35158a733d	0.17282737304494758
69	0x3fc5965681ed349e	0.1686504492194318
70	0xbfa317fe0ee3d5d9	-0.03729242259752725
71	0x3fc718467f782e98	0.18042832588286184
72	0xbfa8781be918e1de	-0.04779135914253961
73	0xbfc9c065187e022f	-0.2011839265433237
74	0x3fca3bc0c72044bc	0.20494851801826097
75	0xbfa0ac8c995171a6	-0.03256644603308993
76	0x3fbda5a8b3dcb2da	0.11580900565304422
77	0xbfb31eddc23d8218	-0.07468973152345659
78	0xbfbb06f7d8f86b51	-0.1055750755989895
79	0x3fca1d4d66819d05	0.20401923661413704
80	0x3fcc91636daa7957	0.22318690161496121
81	0xbfbff5554c3aee3b	-0.12483723746384438
82	0x3fb73d191e00631b	0.09077603323420329
83	0xbfcc1cf6a78b81f2	-0.21963389569192732
84	0xbfc4f59a3738eea4	-0.16374519058614567
85	0xbf99336d1aff5677	-0.02461023785857327
86	0xbfc252085ebfbc66	-0.14312843920149304
87	0xbfb3d97bf1759cd7	-0.07753729481702308
88	0x3fd535488faa3895	0.33137716321733396
89	0xbfd2cee22a5fb5c8	-0.29387716425011634
90	0x3fc3b17c27491d5a	0.15385391157381428
91	0xbfab39079836c7dc	-0.05316947682457826
92	0x3f7b914d45d37cfb	0.006730367514335751
93	0x3fb420e007f2d9f4	0.07862663454111624
94	0xbfbf18bb094c75d6	-0.12147110917108903
95	0xbfc5c4c5c4a4f08b	-0.17006752111217724
96	0x3fc5da2a80b8e90e	0.1707203987624059
97	0x3fbb108594fbbc99	0.10572085273064359
98	0x3fc176f7f4b001d7	0.13644313285477835
99	0xbfc6f0c5b43bae2a	-0.1792227869076311
100	0x3fd25109c0f4cf74	0.28619617312801116
101	0x3fc0089e8f7c07e0	0.12526304250792375
102	0x3f92b26344120bfb	0.01825862029046375
103	0x3fd392b31049e04a	0.30582882490808017
104	0x3fd3beaed89a5f2d	0.30851336624754105
105	0xbfd1ae41fca52751	-0.2762608496892556
106	0xbfaea208ab0df18d	-0.05982997024600243
107	0xbfcf129c2ee7f88d	-0.24275543489779175
108	0x3fd2c509cc1f5935	0.2932762616523122
109	0x3fb95eb9ffb7da79	0.09910166257018628
110	0x3faf0c0d0060c6b0	0.060638815208574726
111	0x3fd27642648149c6	0.2884679776663258
112	0xbfa1e81733fe79f9	-0.034973836037568824
113	0x3f9d5f1f6404aa5b	0.028683176498058276
114	0xbfac5c0587e24af0	-0.0553895691274614
115	0xbfb262223a752328	-0.07180990149676048
116	0x3fca00a14a1b6159	0.20314422720435735
117	0x3fc40b3581208073	0.1565920715811476
118	0x3f9d172967cbaa85	0.028408667526415705
119	0xbfa98546f4c817c1	-0.04984494913155358
120	0x3fb605ce92e24f2d	0.0860261067012373
121	0xbfcf31866f65ed25	-0.24369888724673064
122	0xbfb6dc5912df0500	-0.08929974280092168
123	0x3fd8876bbce60ad6	0.383265432807247
124	0x3fa5f47a79f0c03b	0.042880847344691074
125	0xbf94956a17085fbd	-0.020101220756344896
126	0x3fb74fb70696249d	0.09106010351946954
127	0x3fb8c8c6ce8eae50	0.09681360762504565
128	0x3f90d88ea8c8d8c6	0.01645110039881883
129	0x3fad5cac9c26db74	0.057347673474786115
130	0x3fc465e656540d47	0.15935973372698184
131	0xbf5a911d10abddaf	-0.0016215118254744134
132	0x3fc0f729d855ccbd	0.1325428301166535
133	0xbfc34eebbbc3e79c	-0.15084597271180378
134	0x3fa80aad9fda34d9	0.04695646835635054
135	0x3fbc389669ccdc1d	0.11023845751775281
136	0x3fc4c2ac02d1a1af	0.16219091546669293
137	0xbfad63393d44c566	-0.05739764092357795
138	0xbfd63a78892ae67e	-0.3473187770392555
139	0x3fc211b4c340d566	0.14116534742212677
140	0x3fc8e7602b7fe1c2	0.194561024894723
141	0x3fd0df7a1dfc533b	0.2636399548367085
142	0x3fd41b3b85f8081f	0.31416214068315357
143	0xbfb7e601ac054f69	-0.09335337114072008
144	0x3fc053fc96acd7a6	0.12756306988893334
145	0xbfc457693b1fc926	-0.1589175738041117
146	0x3fb1b81e29eaf451	0.0692156650865894
147	0x3fce0d387ba0dce3	0.23477846180478598
148	0xbfc9915898f4a7f1	-0.19974811047114785
149	0x3fc1f6eace535c40	0.14034781527036166
150	0x3fd040d14d6b3af4	0.253956151584972
151	0x3fc966fd3876edb1	0.19845547921236809
152	0x3f83076bce8b3f6e	0.009291498413773271
153	0xbfb4bc5e6716464b	-0.0809992791821738
154	0xbfd486e18e57b3e5	-0.32073248768466406
155	0xbfb8bcdcacfe10dd	-0.09663180564354286
156	0x3fc53ea3d0d6609a	0.16597411820544467
157	0x3fc814831169c408	0.1881259760880598
158	0x3fa5b402a66a3514	0.042388994993510704
159	0x3fa36cf91d713a28	0.037940773815183626
160	0x3fa8cc72778a8efe	0.048434807865559634
161	0xbfd2d267c251f159	-0.294092120900833
162	0xbfc2901186aec083	-0.1450216205244069
163	0xbfb0a4d500b95cd2	-0.06501513736417344
164	0xbf930d4d1a811048	-0.0186054274966099
165	0x3fb84353c22255e9	0.09477733125307676
166	0x3fd65403f5e83cbd	0.3488778973996423
167	0x3fc70f32bc02fd60	0.18015131168611287
168	0x3fb99f826283c03c	0.10009016900198814
169	0x3fc8f8a2e15bae44	0.19508777622046314
170	0xbfd1353c3c170641	-0.26887422435911296
171	0xbfc40cc95b4a6fd3	-0.15664021451527663
172	0x3fc2e79b6fed31fd	0.14769309010661394
173	0x3fc7e66c0189bf5f	0.1867194182882441
174	0x3fc5ce76a166a133	0.17036326294806656
175	0x3fcbfcb94f8fa3c9	0.21865002045458784
176	0x3fbb79497005b468	0.1073194406978516
177	0xbfd80514542b9f33	-0.37531002254262374
178	0xbfa4060caedf08b5	-0.039108654352746276
179	0x3fd47377836ce154	0.3195475371790242
180	0xbfb8d922ede46501	-0.09706323917307104
181	0xbf91f2075e6d898a	-0.017524829042835623
182	0x3fbbaf90cb3eacc2	0.10814766847640825
183	0x3fc84dea78fe0e38	0.1898778048308587
184	0xbfa7da382d5c721a	-0.046586757218595135
185	0x3fd14f9cfdd50a97	0.2704842070417412
186	0x3f8695e9e7af768c	0.011028125174500823
187	0xbfbb3d4ec9eae835	-0.10640423230771108
188	0xbf6d353127846e37	-0.003565402989023327
189	0x3fcf8014c024918e	0.24609622365927603
190	0x3fa799b71ee01acb	0.046094629782648854
191	0xbfbbf51569becc92	-0.10920842963860114
192	0x3fc22745eea4b4fe	0.14182352211484067
193	0x3fa184ed31826d14	0.03421727399219257
194	0x3fd45e56999427e3	0.31825795171664434
195	0x3fb02a5d8a701b08	0.06314644460517738
196	0xbfab37fe84b40a0d	-0.05316157693780008
197	0x3f780ffc228a9024	0.005874619390542821
198	0x3f8d3694f70e72e5	0.014264262952388982
199	0x3fb933ded58727cb	0.09844773018917789
200	0x3fc7c93980b1b233	0.18582838806050148
201	0x3fcfa027442b4a45	0.24707499340600428
202	0xbfb609e2e2b751e6	-0.0860883525377357
203	0xbfabd1098bbe82b6	-0.05432920294629666
204	0xbfb29c046a60af62	-0.0726931342803119
205	0x3fd47964aa37ea78	0.3199092542924187
206	0x3fc22e386ba285d2	0.14203553443534972
207	0xbfc7df80ee8eac7d	-0.18650828979784598
208	0x3ed607640f620158	5.2520920147405974e-06
209	0x3f90229a73f5f08d	0.01575700123565631
210	0xbfa7edc4312ccf73	-0.046735888483822395
211	0x3fc2031c0469761c	0.14071989264896068
212	0x3fbea4bfb9db3cd0	0.11970136916646656
213	0xbfa3dcb14a99666a	-0.038793125492429706
214	0x3fcc43ce988fea6a	0.22081930589031923
215	0x3fab6b7d617052a7	0.05355445684850695
216	0xbfb48123b4c7f039	-0.08009551204298838
217	0xbfc7acb441288588	-0.1849580114513112
218	0xbf9035dec5aba890	-0.01583049851880297
219	0xbf935fac18d9469a	-0.018919648186346373
220	0xbfbd498f7e5853a5	-0.11440369448275918
221	0xbfc2d4a20e1d3419	-0.14711404503978612
222	0x3fdb937039326b8c	0.4308739241184234
223	0x3fc0f896328b4abf	0.1325862643048676
224	0x3fb8654843a450fb	0.09529544497883428
225	0x3fb96dc572b01218	0.09933122682566198
226	0xbfc3fdb5b93be4c5	-0.15618011040331772
227	0xbfccc594c66ce14b	-0.22477969826446506
228	0xbfcd7b7d65beb8cb	-0.23033111064927989
229	0xbfc9afc44f5ebb64	-0.20067647815218514
230	0x3fb362b51f207e1f	0.0757249070161312
231	0x3fb700551967d3a1	0.08984882231000181
232	0xbfa8f945d8f8fc8d	-0.04877680085746148
233	0x3fc2118284ed5d59	0.1411593579348203
234	0x3fbede363921a4c1	0.12057818312463821
235	0x3fcbb1a5fc045c82	0.21635889821547855
236	0xbfc7d523fdbaa28e	-0.18619203461755202
237	0xbfb5ba097f8ad1dd	-0.08486995090317558
238	0xbfc9b1b8913e58af	-0.20073611347169648
239	0x3fc8cb0eab2e0116	0.19369681700119007
240	0x3fcd9b7281edf443	0.23130637497152592
241	0xbfcb80d531cc0d30	-0.21486916476724494
242	0x3fcbd6d3ec404b06	0.21749352489185741
243	0xbfb2ca3bbc1241ac	-0.07339833585343197
244	0x3fc02459a88c975e	0.12610932092610033
245	0x3fd6abbf4e8b762e	0.3542326228178777
246	0xbfb3eb2c49668618	-0.07780720512393946
247	0xbfc233a64101fb96	-0.14220121549803072
248	0xbfb1d74d665617fa	-0.06969150303311258
249	0x3fc0e90e68aa9a4e	0.1321123133722772
250	0xbfca81b46c9f722b	-0.2070832758316937
251	0xbfc1b6864be6bcae	-0.13838270860785457
252	0x3fa423aae7aa22e3	0.03933462217270802
253	0x3fc69394b832023c	0.17637881273187073
254	0x3fc120c1b09a87ca	0.13381215213035907
255	0xbfd0c1b9857cb684	-0.2618240169129893

conv3.pointwise.bias f8 [16]
0	0x3fc363d64003926d	0.15148428083115864
1	0xbfbcd688800405b8	-0.11264851689704514
2	0xbfa803910007d248	-0.04690220952389673
3	0x3fcaff0900100935	0.2109080553346502
4	0xbfc5cd4b8008f3d2	-0.17032760383327045
5	0x3fc7d95f80017243	0.18632119894290797
6	0x3fc7d9c6bfff30f3	0.18633350729795203
7	0x3fc519337ff3e48f	0.164831578709514
8	0x3fbda8a78006d4ef	0.11585471034671334
9	0x3fb31e7900165d7b	0.07468372585423382
10	0xbfc0ad1940027617	-0.13028255105466321
11	0xbfc2dc78c010457e	-0.14735326173881086
12	0x3fc9beb8fff7b0bc	0.20113289354720176
13	0xbfc391d800034d14	-0.1528882980406726
14	0xbfcd2785800a0685	-0.22776860000526625
15	0x3fb985bd00198b3d	0.09969693424640709

conv3.bn.weight f8 [16]
0	0x3fefe62742270de6	0.9968448917429071
1	0x3ff05425906fe674	1.0205436365198723
2	0x3ff0d66ad3fb8284	1.0523479729237417
3	0x3ff00af72d50f7ef	1.0026771326224624
4	0x3ff03f81fafabe99	1.015504818333204
5	0x3ff0251cb0b431dc	1.0090605642791308
6	0x3fef6defc9377976	0.9821700029386153
7	0x3ff114e14a2873ae	1.0675976654813257
8	0x3ff16f59490cbb8d	1.089684758520636
9	0x3ff26f2fb0e166b0	1.1521450909989817
10	0x3ff14ef85fe66dac	1.0817798372362217
11	0x3ff1a6de57eecd0f	1.1032393870235102
12	0x3ff238027d9b536b	1.1386742502702087
13	0x3ff094672a5b7cb2	1.0362311987480948
14	0x3fef26c78fe6f317	0.973483830508118
15	0x3ff1cbf55fa82f9f	1.1122945534325266

conv3.bn.bias f8 [16]
0	0xbdc8ab5b0ad2c7ff	-4.4873300694102847e-11
1	0x3dcdf6c549a986f8	5.4504103667669393e-11
2	0xbdc4dc745cae1493	-3.7946211784746653e-11
3	0x3db23b29277f210d	1.658108586937693e-11
4	0x3dc01a8fc7cff141	2.929256227903463e-11
5	0x3dc09a38d66d374b	3.0199643830219994e-11
6	0x3d7a927fa5bff54c	1.5104581192230782e-12
7	0xbdb5d5bddcd814e2	-1.9858751624692627e-11
8	0x3dc6917c9caaf563	4.1051512522194975e-11
9	0xbdc66acd0ef7ce96	-4.077663369374913e-11
10	0xbdb4f03010911129	-1.9043212350266337e-11
11	0x3db445aa3d9f94f6	1.843739384383253e-11
12	0xbdb5e438cb9ca112	-1.9910195649934815e-11
13	0xbdd4b69f1045c21b	-7.535478150158126e-11
14	0xbdbe26cb4b2d65d8	-2.7422665439278763e-11
15	0xbd9b1f6d7f2bd9ea	-6.167002661188146e-12

conv3.bn.running_mean f8 [16]
0	0xbf97dae2bac20719	-0.023295920037077786
1	0xbfc2e4bbe5194272	-0.14760540663202765
2	0x3fa263679417b7de	0.035914646938053116
3	0x3f9d994e2f67e932	0.028905126231600416
4	0xbfd2fb2e045b3789	-0.29658079553052424
5	0xbfacb6447f127281	-0.05607809115574459
6	0x3fd8d73dfd2c1f80	0.3881373379122053
7	0xbf92dcd898c39428	-0.018420585941289286
8	0x3fd0377b65b8ce9f	0.2533863538148839
9	0x3fd1d7e28e25a9ef	0.27880157357745267
10	0x3f5fc5024b7e1738	0.0019390604411184242
11	0xbfc7013f079efc6b	-0.17972553131218957
12	0x3fd1671dad5b7b85	0.27191869668416074
13	0xbf90f08cc75f5e24	-0.016542625111325773
14	0xbfc56d8461b46ae7	-0.16740469713916825
15	0xbfc5d316df1d1cb1	-0.17050443548416674

conv3.bn.running_var f8 [16]
0	0x4004bed3a070d271	2.5931770834379724
1	0x4010140e98467508	4.019586924839366
2	0x40034397471992f6	2.4080033831290804
3	0x400491c91a896633	2.5711843560391343
4	0x40062e35d4aac1e0	2.772563611470318
5	0x400666de22a31136	2.8002283769621057
6	0x40073043594b984f	2.8985659576601743
7	0x3ff48f2c02c00971	1.2849540812900069
8	0x4011303fc2286c20	4.297118219105897
9	0x4002ce35d62e97a5	2.350688622757803
10	0x40075e41252e934f	2.921022692188138
11	0x4003accde6979c95	2.4593770995157436
12	0x4004390bd1afe135	2.527854574375079
13	0x40085cacd0975695	3.0452514930901295
14	0x4005e51d36867742	2.736872125605175
15	0x400cf2da71218ad0	3.618580707393768

conv3.bn.num_batches_tracked f8 []
0	0x40b3ec0000000000	5100.0

BatchNorm2d3.weight f8 [16]
0	0x3fefdcff984e2126	0.9957273459158713
1	0x3ff0432559501055	1.0163930405406252
2	0x3ff0cc331ebe4bcc	1.0498534394180181
3	0x3feffda5e4e89d66	0.9997128935691932
4	0x3ff02ba78a1a8904	1.0106578249620393
5	0x3ff011d7c3b401ec	1.0043561596540895
6	0x3fef4a85c48f678e	0.9778469885888954
7	0x3ff1073cc1bec05a	1.0642669265908098
8	0x3ff1715d80dd6a3f	1.0901770623955966
9	0x3ff26fc7dd810d72	1.1522902157310821
10	0x3ff14283b3dea902	1.0787388826525448
11	0x3ff1a36f0b9b7425	1.1024008229644633
12	0x3ff248fa3a9874f7	1.1428167618644787
13	0x3ff08eae0134d362	1.0348339125750603
14	0x3fef146fbe0d85f7	0.9712446891755339
15	0x3ff1d17f824187c4	1.1136469925045143

BatchNorm2d3.bias f8 [16]
0	0x3fa11cc2d4d8517f	0.033422554475836634
1	0xbfc7d44a54bad818	-0.18616608750534236
2	0xbfc6604a912852be	-0.1748135765816609
3	0xbfd437dca44b1794	-0.31590953869123806
4	0xbf95e9ab023c7816	-0.021399185191619173
5	0xbfac63f12099dabc	-0.05544999621354438
6	0xbfce558804eae3d9	-0.23698520889391153
7	0xbfa29e5f85ae6080	-0.03636454111909959
8	0xbfba0404257ab576	-0.10162378230116595
9	0x3fba7d284d24b1b5	0.10347225077993623
10	0xbf68849dceda099f	-0.002992923945215511
11	0x3fc5c9a3779dba13	0.17021602001791844
12	0xbfb5321e678f34c1	-0.08279600170426972
13	0x3fb438bb3a40eb13	0.07899065181929314
14	0xbfb9a0e266fda246	-0.10011115087912356
15	0xbfb3db22f5ecaa54	-0.07756250862136344

BatchNorm2d3.running_mean f8 [16]
0	0xbdc823434f97fde4	-4.3906303895751015e-11
1	0x3dc91063b1f83f51	4.559118902386926e-11
2	0xbdc38696139c9a05	-3.551709139593965e-11
3	0x3dafb01a6e7da168	1.4409990087313954e-11
4	0x3db8635d769b4ac7	2.2180888560694853e-11
5	0x3dc15d9ccacbf165	3.1587976461589573e-11
6	0x3da016fb67012db4	7.316781918965488e-12
7	0xbdb6a9fc56c7f9c3	-2.0612793957665104e-11
8	0x3dc6fd77f2779ba5	4.181876920132868e-11
9	0xbdc3fb4b37e9e3b6	-3.63463486644683e-11
10	0xbdbe0c2f1222c121	-2.7328126856501908e-11
11	0x3db4ea7071a9c45b	1.9022789510224195e-11
12	0xbdb7e78e2b1d582d	-2.1741027983697572e-11
13	0xbdd8be021381d9f0	-9.001166901834855e-11
14	0xbdb231bcc6b0ecb6	-1.6547607397348562e-11
15	0xbd8f3e776b56b65e	-3.5520326598299023e-12

BatchNorm2d3.running_var f8 [16]
0	0x3ff000526db18c5d	1.0000786099342556
1	0x3ff0707f97279659	1.0274654297330896
2	0x3ff1b4235563f5b2	1.1064790092053554
3	0x3fef68b94fb296f9	0.9815336758226457
4	0x3ff0a4b041ad0620	1.0402071538413864
5	0x3ff04dfb0c6743d6	1.0190382465846048
6	0x3feede7d3774583e	0.9646593173117777
7	0x3ff22d6aa11ce387	1.1360880177946642
8	0x3ff2dfa52ba362e5	1.1796008782022736
9	0x3ff52f6b05ce5316	1.3240766741557244
10	0x3ff280c4fd9a686c	1.1564378649113918
11	0x3ff370742e0fae76	1.2149545478122525
12	0x3ff4d4bfd665ad54	1.3019407629861535
13	0x3ff172ed0708e69e	1.0905580782695448
14	0x3fee5c85bf2893a4	0.948794244152499
15	0x3ff3abf723791e0c	1.2294837365788025

BatchNorm2d3.num_batches_tracked f8 []
0	0x40b3ec0000000000	5100.0

relu3.alpha_t f8 [1]
0	0xbfc6882e6651d09e	-0.1760309218985911
