MI_4_set/run/best_model2.pth (torch, 96721 bytes, 36 tensors)

conv1.weight f8 [8, 1, 1, 64]
0	0x3fa9e1fa24a5e3b0	0.05055219361651753
1	0x3fcf8fea853c2ebd	0.24657947068805255
2	0x3fc291bec2281aeb	0.14507278900438023
3	0x3faaa3877c828c66	0.05202887911698255
4	0x3fbf8c36a45a2f53	0.12323323738581608
5	0x3f969b286c4c5809	0.022076255426405598
6	0x3fc5d4c71adda6bf	0.17055596172149554
7	0x3fb7951871f152fc	0.09211876661113289
8	0x3fc42212fd1ed374	0.15728986129183975
9	0x3fbe00ff6edafe90	0.11720272499496276
10	0x3fb3b7dd11c1db59	0.07702428515936556
11	0xbfa5c034bd5b0069	-0.04248204051464272
12	0x3fc750ae9947b872	0.1821497200430176
13	0x3fac6f133422ddaa	0.055534935106546016
14	0x3fc14cd59300ba24	0.13515729596970616
15	0xbf70505305415557	-0.00398285322088062
16	0x3fb9a8c263ae1de3	0.1002313130721784
17	0x3fc384d21fe15438	0.1524908691086766
18	0x3fc09d9d75a2976e	0.12981003040220734
19	0xbfaff53a6d7d14f2	-0.06241781794100544
20	0xbfa55a4117fe7c31	-0.04170421045204654
21	0x3fc3d617cfd2a4b3	0.15497110030745417
22	0xbf7c07c6c9960dd4	-0.006843353761158483
23	0xbfb0c3945e75bdab	-0.06548430734777948
24	0x3f9d71a05f257204	0.02875376301504852
25	0xbfa97a37ef178c90	-0.04976057809451462
26	0x3fae81b1edbc4b58	0.059583244581651484
27	0xbf9ce18d27b757bd	-0.028204160260280043
28	0xbfbb6129c6ad70d4	-0.10695134258770916
29	0xbf999fd0c1cd1a37	-0.02502371008747614
30	0x3fa20a84bbe45f83	0.035236499725384916
31	0xbfb7908315d73076	-0.09204882891862262
32	0xbfc19176f411ac49	-0.13725172917779307
33	0xbfb7184e66b73dc0	-0.09021463401517504
34	0xbfb7259323d9c52f	-0.0904170954252279
35	0x3f34a3f75bde0bc3	0.0003149489310702547
36	0xbfb71990aaccef97	-0.09023384256300769
37	0xbfc76e3386081603	-0.1830505756808379
38	0xbfb7c988734b24d8	-0.09291889967711897
39	0xbfbcd424ace5198f	-0.11261204930369771
40	0xbfcb2f946a76da66	-0.21238951872301753
41	0xbf9a6d107979e80a	-0.025806672491377504
42	0xbfbb3d8baee0a441	-0.10640786189527864
43	0xbfcb26b8107eb723	-0.21211911015910187
44	0xbfb73b2b64a49dec	-0.09074660498719539
45	0xbfc1f73b7f966252	-0.140357434557489
46	0xbfc9c18c6c4311ed	-0.2012191322920808
47	0xbfca7f922ddd8750	-0.20701815833586545
48	0xbf9e581e041f16d4	-0.02963301563411032
49	0xbfbd0bd531a05976	-0.11346180402356318
50	0xbfc8d4a31e2b2a29	-0.1939891717250515
51	0xbfa109c89fce035a	-0.03327776861897887
52	0xbfad2b571dd42d60	-0.05697128523942285
53	0xbf8503b11ae8be89	-0.010260947831823646
54	0xbfc5e900848615da	-0.17117315741431477
55	0xbfcd70533414ab60	-0.22999038737301714
56	0xbfb131b93a9c384e	-0.06716497116960449
57	0xbfc79d2457ee0be4	-0.1844830922455848
58	0x3f7407043315da26	0.004889503864765865
59	0xbfc632994c3be82c	-0.17341915342677916
60	0xbf7f87f14b78aa2d	-0.007698004300929412
61	0xbfc493c1d5662ad5	-0.16075919074895376
62	0xbfbb2d67a0d9bbe2	-0.1061615722371552
63	0x3f625e2424a21b2b	0.0022421556396382734
64	0x3fd5219f9fe1cba3	0.3301772176120556
65	0x3fd5ba8ba5606779	0.33951083326393633
66	0x3fd17c58d132cc41	0.2732145350411806
67	0x3fc2095f3baa3b43	0.14091101086929755
68	0x3fd2c2f7699388c7	0.29314980802713503
69	0x3fca663aa84f15ee	0.2062447854824962
70	0x3fc75c2fe9530e94	0.18250082867426853
71	0x3fb6df46e9571589	0.0893444366148143
72	0x3fc9645a6f5ba739	0.19837503850367869
73	0x3fc99c47458f04d0	0.2000817384378366
74	0x3fc400afc3a7f9cd	0.15627095273516858
75	0x3fc8eff502e8477e	0.19482290880165104
76	0x3fd0b452e75f56e7	0.261006093930844
77	0x3fd127a4c58d05cf	0.2680446557243074
78	0x3fc52d35eea8139a	0.16544222024108707
79	0x3fc5bad9bd740f5e	0.16976472616817778
80	0x3fd23a0947c9a851	0.28479225168724037
81	0x3fc5d5ff833a1dca	0.17059320361680214
82	0x3fc4b02c5803fa97	0.16162637994417103
83	0x3f94c773664977bf	0.020292094343282715
84	0x3fcc2d8e6a68c50b	0.22014026828541264
85	0x3fc77a7d06ff4b68	0.18342554895078966
86	0x3fa067aa338b7cfd	0.03204090003213798
87	0x3fb618853ebc2a1d	0.08631165296188965
88	0x3fbe4d0e8596d5e8	0.11836329232649911
89	0x3fb66655e99af0d3	0.08749901726963864
90	0x3fb52d8ed6303bfe	0.08272640923699723
91	0x3fa959bec387ffe6	0.04951282631736813
92	0xbfa4269699046bf8	-0.039356905154100674
93	0xbf9d9969be358cf5	-0.028905536875197552
94	0x3fb54b63aa18e7f8	0.08318159964338168
95	0x3fa26e03c1226f53	0.03599559528922094
96	0x3fbe72c004f42f34	0.11893844719832886
97	0xbfb0e385241433f6	-0.0659716809352203
98	0xbfb50bcd0eb5341e	-0.08221131905629916
99	0x3fa8477718fb5bd2	0.0474202363963553
100	0x3fc19d3e7518516b	0.13761120526818202
101	0xbf968d0bd9619ffc	-0.022022423880486017
102	0xbf81c3d5b83f2487	-0.008674306569348878
103	0xbfbd5867d87b82f7	-0.11463021311966402
104	0xbf88b3ce61ffef56	-0.012061703077044388
105	0x3f8a042394f44ca5	0.012703206999992675
106	0x3fa5a35da1c35749	0.0422620067562734
107	0x3f5692cdbbb774d1	0.0013777741540857323
108	0xbfa3d9011911b0cb	-0.038764986334031436
109	0xbfa0a60af6c8e10b	-0.03251680624492977
110	0xbfbd607d5e89d72b	-0.11475356634204263
111	0xbfbc66aa6aa7669f	-0.11094155410628524
112	0xbf8febbf0df47b94	-0.015586369145749214
113	0xbfa5db04d010ebfd	-0.0426866058337154
114	0xbfc7a10f59bf41cd	-0.18460266000921735
115	0xbfb120f03426ef9f	-0.06690884850735167
116	0x3f9246bbffacb6e6	0.01784795520796125
117	0xbf805398e12d1c05	-0.007971948978264374
118	0xbfb0d008eec4e0c0	-0.06567436055491083
119	0xbfc16748050eed61	-0.13596439597118162
120	0xbf9e8de13d68d32c	-0.029838103650223477
121	0xbfb3e74204ebd712	-0.07774746532581059
122	0xbfc380914d00ca42	-0.15236107120434111
123	0x3f9d97b9347c01ed	0.02889909155692465
124	0xbf837d84dfaa4ed2	-0.009516752315256314
125	0xbfc05d7603602e27	-0.12785220303372677
126	0xbfa29473015b617f	-0.036288827815670104
127	0xbfc1502a95ca9f66	-0.1352589827922614
128	0x3fd3b025d4b680d2	0.30762620709175537
129	0x3fd1df287647b2fb	0.27924548674381783
130	0x3fc01577a8106954	0.12565513330703004
131	0x3fcc5295a49cc495	0.22127028024400333
132	0x3fc89b14d81404dd	0.19223270941441842
133	0x3fb1807d6669ca74	0.06836684942553878
134	0x3faedeb5954572ac	0.06029288718375389
135	0x3fb20591c023ff56	0.07039748135502796
136	0x3fc815af588881f9	0.18816177199279574
137	0x3fb2589471bc587a	0.07166412140608883
138	0x3fb52e860903eade	0.0827411434183136
139	0x3fafeccc47f12d4b	0.06235350015830451
140	0x3fce48db552ad9b4	0.23659841211856547
141	0xbf8148a3028bf2c7	-0.008439324870317745
142	0x3fc73ec09a110e08	0.1816025497702045
143	0x3fc8a54d179952c3	0.19254459049502345
144	0x3fca4f7aa31a428e	0.20555050815575665
145	0x3fa36f351c87c27f	0.037957820637420696
146	0x3fc99957fd1f10e1	0.1999921785301302
147	0x3fbe96b3015e8ba2	0.11948698790960902
148	0x3f91d1f0863ad794	0.017402418320407856
149	0x3fc8af6ed3577460	0.19285378760733618
150	0x3fc3b7bc8cb454ac	0.1540446936639105
151	0x3f8198d2e1b961e3	0.008592269433550242
152	0x3fc0c02f1220ec3e	0.13086498627839832
153	0x3fb4b8fe0f2eb266	0.08094776030220316
154	0xbf928e590dcaeb58	-0.018121139017903104
155	0x3fa563b9f4ea62f1	0.041776477000160635
156	0x3fb682ab78de2dea	0.08793136311412977
157	0x3fa33798d687f682	0.03753354662692933
158	0x3fb7f395bbc8c4b4	0.09356056055618717
159	0x3fb0723f55b743fc	0.06424327700302962
160	0xbf74b4113201fb4d	-0.005054537934596604
161	0xbfa8bd5a9c315bba	-0.04831965595865691
162	0x3fa054e6d4ebe01a	0.03189774846208611
163	0xbfb078bb7f43f57f	-0.06434223038737306
164	0x3fbc981a9857f1e6	0.11169592112850743
165	0x3f9a7c233f5bca16	0.025864172689532415
166	0xbf4b5ad756d70a42	-0.0008348037205723818
167	0xbf9e225d0167afc5	-0.029427960596805542
168	0xbfb185de7cd02f80	-0.0684489302367961
169	0xbf9780a0b6d0312d	-0.022951613576922703
170	0xbfa01eff79c56aa7	-0.031486495604174984
171	0xbfb255c88b046150	-0.07162145036671075
172	0x3fa843f4dd06fb5c	0.04739346693121746
173	0xbf66aa0b3b5ab627	-0.002766630112850849
174	0x3f8b0b9b999afb88	0.013205733895458996
175	0xbfb9d65c55788024	-0.10092713438689366
176	0xbfb72bab0179a4b4	-0.09051007066740874
177	0x3f99a5387d628cd9	0.025044329312220313
178	0x3fb8325167e9f812	0.09451779162370169
179	0x3fb148f7036ed41c	0.06751960595904943
180	0xbfb96cd9ee5ce474	-0.09931718892484459
181	0xbfb84dbda59b5002	-0.09493623059398718
182	0x3fb0a357f5980641	0.06499242540305607
183	0xbfbfa2cb03c4986a	-0.12357777444830878
184	0x3fa1a3da2dc71f0c	0.03445321854411362
185	0xbfc7be97647b651f	-0.1855038872370551
186	0x3fa056808658e053	0.0319099582670225
187	0xbfa1e4276cda735f	-0.03494380191589274
188	0xbfb3b65c599dfa31	-0.07700135410230115
189	0xbfb5097bf1149b70	-0.08217596660379711
190	0x3fa4dd20c3d56fd2	0.04074957266377023
191	0xbf978ed2658d7b2d	-0.0230057596667123
192	0xbfc9f248e162d11f	-0.20270644192863416
193	0xbfc2ac8640cc9739	-0.14589002765677053
194	0xbfc56b2d2d18edc9	-0.16733326627750802
195	0xbfd6e309a82b1ab5	-0.35760728285496707
196	0xbfc97d10f9153590	-0.19912922060249771
197	0xbfd132c670561a5c	-0.26872406931253123
198	0xbfbc4b84c4dda0f5	-0.11052732282917417
199	0xbfd2d14b28d6824f	-0.29402426708296486
200	0xbfbb4f2392725edd	-0.10667631459579803
201	0xbfcf0ba2457670de	-0.24254253761035377
202	0xbfc17cb511b96b25	-0.13661826482242492
203	0xbfc28c8aa5f45185	-0.14491398909798306
204	0xbfcf98dd44f47799	-0.24685254923764147
205	0xbfca642fe55bdf84	-0.2061824674526599
206	0xbfb9c6da01fb4d98	-0.10069048450832552
207	0xbfd3800b9babb214	-0.3046902675839942
208	0xbfce5d7d5cf3e663	-0.2372280792113087
209	0xbfb5facb79b2dc02	-0.08585807534369397
210	0xbfc632b58e9f69bf	-0.17342252220153218
211	0xbfc8bc99d737bc05	-0.19325564392735842
212	0xbfc90482690e53ec	-0.19545011644063892
213	0xbfcaae22537702c9	-0.2084391505759611
214	0xbf9cca50596d65e2	-0.0281155161459078
215	0xbfc660487fc97944	-0.17481333007430966
216	0x3fa19ae9272694e0	0.03438500025667124
217	0xbf769628f29dc4ba	-0.00551429743960446
218	0xbfbf00263fbcc571	-0.12109602981651847
219	0xbfa5c28d91422097	-0.042499946576812046
220	0xbfb9272430db405a	-0.09825349991592827
221	0x3fb47235fc99a024	0.07986771981234192
222	0xbfb03363c98b81d1	-0.0632841460278606
223	0x3fa08f6a2a0e43b4	0.03234416736007209
224	0x3f96f2693ac75b62	0.022409099781579463
225	0xbfa333691ee7ee7c	-0.037501606962874384
226	0x3f8b1cb05d3b6986	0.013238313527314426
227	0x3f8ad62f837c374b	0.013103839111433443
228	0xbfa48e29c9eee25b	-0.04014711942676704
229	0x3fc21e93df662c95	0.14155815513763473
230	0x3fbbf3d2ee9e1130	0.10918920827504475
231	0x3fa2513e81c91908	0.035776093810044485
232	0x3f45ad87c0100540	0.0006615555613508697
233	0x3fbc7f8f311cfabc	0.11132140111019856
234	0x3f9679df7dac0b8e	0.021949283643163002
235	0xbf9ec3bfdc0b36c8	-0.030043599896820067
236	0xbfb051d60196a6be	-0.06374871767789167
237	0x3fb7048089def7a3	0.08991244665136704
238	0x3fbf43ba451e718b	0.12212719142411836
239	0x3f70b48afdbfffb4	0.004078429159562736
240	0x3fa69a2726ea0fdd	0.04414484357860691
241	0xbfa64909bada6ed3	-0.043525985774264385
242	0x3fb4bff7469cd340	0.08105416749897376
243	0xbfbc45ff048c9a56	-0.11044305668893037
244	0x3fbc330400bd2265	0.1101534368327833
245	0x3fa8a75527042522	0.048151646626204206
246	0x3fb0a57a8322154a	0.06502500249378787
247	0xbfa32eabc922d6fa	-0.03746544676088877
248	0xbf8fbdbb4aa1ce65	-0.01549860307225188
249	0x3f857b6c8c8e3c66	0.010489318885247022
250	0x3f75f5e382ec7097	0.005361450878606309
251	0xbfc09f0b72d0c1ea	-0.12985365968917445
252	0xbf82763cb4409c0b	-0.009014581919542427
253	0x3fb098adff641ba2	0.06482970700390792
254	0x3fb42212bc354d72	0.07864491553237032
255	0xbfa3c1ed6a8bf372	-0.038588923698603575

BatchNorm2d1.weight f8 [8]
0	0x3ff130547651f2d7	1.0742992994193423
1	0x3ff42651c4727fa5	1.2593553231927015
2	0x3fefaaa6ce6f745e	0.9895814926091011
3	0x3ff1ac01f07ed711	1.1044940370897545
4	0x3ff282a28413305b	1.1568932685068123
5	0x3ff0513aa36f34fd	1.0198313125759448
6	0x3ff07c5d88e27ba2	1.030362639146667
7	0x3ff4733e28d8b8f9	1.2781354518479573

BatchNorm2d1.bias f8 [8]
0	0x3fcc9173d5d0d1bf	0.22318885746211767
1	0x3fa3cc6bc04a3d3c	0.03866898271837235
2	0x3fb9c23f406c16b3	0.10062022517021312
3	0x3fcbb51bcffdf22e	0.21646449714525445
4	0x3fbe01213cf3d5c3	0.11720473993394535
5	0x3fb1f0a89afa7b1b	0.07007840903905242
6	0x3fd26f078298515d	0.28802669289986743
7	0x3fd259fd319ded9c	0.28674249501610816

BatchNorm2d1.running_mean f8 [8]
0	0x3d80155d7a17f662	1.8284774335744105e-12
1	0x3d73a263c4ec39b3	1.1160827203655158e-12
2	0x3d60eab42a960598	4.808047043626406e-13
3	0xbd45593d20a30071	-1.5169084819485506e-13
4	0x3d86e41f3ad7fe38	2.602416944889698e-12
5	0xbd329f52c99a14c3	-6.61599023996172e-14
6	0x3d7ec64417836ec7	1.7493264578641086e-12
7	0x3d67f9f2b16cfcf8	6.814491215536416e-13

BatchNorm2d1.running_var f8 [8]
0	0x3f49077e8d3ff8b9	0.0007638328484061075
1	0x3f5948d45d12cc3c	0.0015432428229302927
2	0x3f4d824fd785e861	0.0009005441525424923
3	0x3f5695b0a0ce2b27	0.0013784623035657058
4	0x3f430ab8538fd71c	0.0005811119109455395
5	0x3f43a8a5726577e0	0.0005999381872177044
6	0x3f40a083c852386a	0.0005074161023388539
7	0x3f32df6ac9b96f06	0.00028797490242536727

BatchNorm2d1.num_batches_tracked f8 []
0	0x40c1940000000000	9000.0

ECANet.conv.weight f8 [1, 1, 3]
0	0x3fe8cd7bd42d61f2	0.7750834602439325
1	0x3fd5261d41162315	0.3304513106927954
2	0x3fbe8944c4907d61	0.11928205298362606

conv2.conv.weight f8 [16, 1, 6, 1]
0	0xbfd098ef80d9baa9	-0.2593344457917888
1	0xbfb16cd0da39de1b	-0.06806664779457387
2	0xbfcfacafe09109eb	-0.24745748963512368
3	0x3fce2df1cd75bc0a	0.2357771161291285
4	0x3f927df23b384c0b	0.018058571686264496
5	0x3fd34c53da831fdf	0.30153366412241484
6	0x3fd041fb95f72abe	0.2540272678858563
7	0x3f8ca07cd320cb9a	0.013977980797880641
8	0xbfdf47fc28521f35	-0.4887686151273443
9	0xbfe0489b75cb9207	-0.5088631916701737
10	0xbfb62e22ffdc5287	-0.08664149042699353
11	0x3fcfec23328b7944	0.24939384429939981
12	0x3fc253a0c9c4f92f	0.14317712642691435
13	0x3fd3e6e93d16c38b	0.3109686943599221
14	0xbfa81112030ffc9d	-0.047005236505350136
15	0x3fd225e6279d4974	0.2835631739482303
16	0xbfc858390f155ea5	-0.19019234882829497
17	0xbfc7e5d88a52a589	-0.18670183900875895
18	0x3fa832d225601835	0.04726273256532957
19	0x3fdf19138639f2fe	0.48590553386729585
20	0x3fd5ab5606ca22bf	0.3385825220398537
21	0x3fcf98ca54f92b86	0.246850291720275
22	0x3fa621d0c555b605	0.04322674187538315
23	0x3fbe6dc0413eed0b	0.11886216729083203
24	0xbfb475ee6a5ea6bb	-0.07992448899190212
25	0xbfd0b1654b4f12d4	-0.26082737306960024
26	0xbfc62b915f62ecd1	-0.1732045856241258
27	0x3fd2297e4ad4f2c0	0.2837825518397885
28	0x3fc97a1db937bc82	0.19903918784936897
29	0xbfd3346b4689b365	-0.30007440460649654
30	0xbfd8f05ffcd10e36	-0.38967132271884297
31	0xbfd427377651a78a	-0.31489359430872155
32	0x3fc369829b434d52	0.15165741521068782
33	0xbfc0680a3f005cfb	-0.12817504955521727
34	0x3fc912758fa9d9d2	0.19587583079164844
35	0x3fb8c58f4b5731fe	0.0967645224511173
36	0xbfdaf043dc4db8fb	-0.4209146167185193
37	0x3f968c199f196e24	0.022018814407017598
38	0xbfd0307604f0611c	-0.2529578254921192
39	0x3fc3f2a8f69a531f	0.1558428959002862
40	0x3f9adf4b9d12cac8	0.02624242922019951
41	0xbfd118e4172238bc	-0.2671442247309519
42	0x3fc78dd717644862	0.18401611940550128
43	0x3fc13e577b16be02	0.1347150183696471
44	0x3fd7625c11b286be	0.36537839630373614
45	0x3fde489c041acec3	0.47318172837115585
46	0x3fd0699178e0c5d6	0.25644337467664735
47	0x3fc61405c2807b23	0.17248603818094307
48	0xbfce2f8421a9bd81	-0.2358250774736739
49	0xbfdad2c04adefdc6	-0.41911322890879565
50	0xbfd1baeeb1fc2968	-0.27703444844578096
51	0x3f9e98b387260212	0.02987938415890496
52	0xbfd6dcc201c1ef36	-0.3572239892161976
53	0x3fa9885815fac78f	0.0498683478193832
54	0xbfa02a1a7db1fbd2	-0.03157122406354741
55	0xbfde81a11efe8941	-0.4766619494131597
56	0x3fd9adbe51ceacae	0.4012294577502854
57	0xbfb86f2bafe74fbb	-0.09544632954140202
58	0x3fd4d68dd2ef31a3	0.3255953369050763
59	0x3fd0b93513cd8828	0.26130415853379185
60	0xbf715ace58683346	-0.004236990009769686
61	0xbfb315564ffe7f02	-0.07454432919484691
62	0xbfe3019e9e32a4b4	-0.5939477052499087
63	0x3fb2108cd2fd83de	0.07056503440027437
64	0xbfb59094207832ef	-0.08423734467232767
65	0x3f8508a2cbc8f7c1	0.010270377964044177
66	0xbfd5c848dfac83e6	-0.3403494057002362
67	0x3fb026cad527249f	0.06309192375114712
68	0xbfcba292920a941f	-0.21589882021831472
69	0x3fbf1bcfe26e614c	0.12151812818627156
70	0xbfd31c6264e07bc3	-0.2986074433446754
71	0x3fc44be0227c1009	0.15856553729838677
72	0x3fd4e5adc0e9194d	0.3265184768573775
73	0x3fccf608bd514bde	0.22625836605092692
74	0x3fc418e879662d08	0.15701013496104843
75	0x3fb9f86e55cfc745	0.10144700617800335
76	0x3fd1893c98b775a3	0.2740012637494493
77	0xbfa4161907f8e46f	-0.03923109266583757
78	0x3fc40b598b59c1c6	0.15659636787633086
79	0xbfced92a3e451b57	-0.24100235023999048
80	0xbfd4bdb40d1e82a0	-0.3240785720936774
81	0xbf6b640d249da5df	-0.0033436066341223504
82	0xbfe0d85bcafaa35f	-0.5264109577593493
83	0x3fd6e2b09a2a6b9d	0.35758605056042275
84	0xbfd688a6c55b50e0	-0.35209054253688343
85	0x3fc729b3ee88733f	0.1809601702415424
86	0x3fda9c9486c90458	0.4158068958532275
87	0x3fdf093af491547e	0.48493837245525373
88	0x3fba23800a6a00bd	0.10210418943643425
89	0x3fcd05ac11bd1389	0.22673560014859742
90	0x3fd0fffd142ce071	0.26562430353397476
91	0x3fd4b53470009603	0.32355986535762343
92	0x3fc013d48b91adde	0.12560517134566757
93	0x3fe0cec25698efc0	0.5252391520839339
94	0xbfb82090140a9206	-0.09424686898507426
95	0x3fb835a6e1f3ff02	0.09456866280015322

conv2.conv.bias f8 [16]
0	0xbfd4eb45ff2136e9	-0.32685995020879816
1	0x3fc8eda27f377ff7	0.19475203716046938
2	0x3fd16c90beb9ca49	0.2722513067775805
3	0x3fcb16197d709769	0.21161192536345233
4	0xbfc2cd8d3f635ff4	-0.1468979415428745
5	0x3fd2396cc0e5f3e5	0.2847549327632904
6	0xbfd321fec0213f8d	-0.29894989741023253
7	0xbf51350059a2a463	-0.0010502341670337804
8	0xbfbf628603444608	-0.12259709911111127
9	0xbfd0b161bfe8607b	-0.26082652798641676
10	0xbfd26290607b763f	-0.28726586744400956
11	0xbfd213e2a016db2e	-0.28246369966238916
12	0x3fb8194afe7b4162	0.0941359397213595
13	0x3fb31fddf9f06213	0.07470500328089029
14	0xbf7c3b6fd8cc7f24	-0.006892620946729076
15	0x3fced700f87f8c65	0.24093639501288347

BatchNorm2d2.weight f8 [16]
0	0x3ff380eac4dee64d	1.2189738931905538
1	0x3ff5af10feaa5084	1.3552408168662007
2	0x3ff34becfc27c080	1.2060365533652941
3	0x3ff493db31344f41	1.2860977098507222
4	0x3ff28ed5bb705bc4	1.1598717996437111
5	0x3ff0c7f51258630a	1.0488177029239432
6	0x3ff58ecc722b4669	1.3473629436233756
7	0x3ff277cc1818e9a8	1.1542473737050418
8	0x3ff396573818cef2	1.2242042723927935
9	0x3ff16a740157dd26	1.0884895374745809
10	0x3ff39344fc92cd29	1.2234544626379125
11	0x3ff2b2c2504d2c4b	1.168642343213622
12	0x3ff2284df62ffae9	1.1348399750419793
13	0x3ff3948159f08db4	1.2237561715381675
14	0x3ff6d066d5380355	1.4258793190822037
15	0x3ff1b2770703de16	1.1060705446269643

BatchNorm2d2.bias f8 [16]
0	0xbfc597f2535f505d	-0.16869954176820814
1	0xbfd237bbc13c3f61	-0.2846516978324783
2	0xbfd0a3e793710064	-0.2600039424760381
3	0xbfc540ffb9219b03	-0.16604610957730168
4	0xbfced3648da8306d	-0.2408261958775059
5	0x3fa5ff0314457f93	0.042961212372346534
6	0xbfdaee3387184615	-0.42078865235188917
7	0xbf9b8757fa915d64	-0.0268834826168506
8	0xbfc5a6305e9d1d1e	-0.16913418407259767
9	0xbfb13a600fb1a58a	-0.06729698546555177
10	0xbfd0a6b838fb72c1	-0.2601757580248823
11	0xbfa26a2f3002aee8	-0.03596637211862036
12	0xbfb1d602031f7bc0	-0.06967175079579047
13	0xbfe2e9343950fc86	-0.5909672851047538
14	0xbfd8050106b9616f	-0.37530542046217524
15	0xbf772e5dec826342	-0.0056594532872161225

BatchNorm2d2.running_mean f8 [16]
0	0xbfd522b185115e21	-0.3302425193300867
1	0x3fc05f38eeb22aed	0.12790595679356134
2	0x3fd1aceacd15e383	0.27617902782326825
3	0x3fce30a6bc1dfe14	0.23585972009094347
4	0xbfc4b660e752de53	-0.16181575102904108
5	0x3fd116bf05fe0a62	0.26701331696691544
6	0xbfd8728625eae767	-0.38198999121561034
7	0x3fc6feef9fdf5e83	0.1796550303104035
8	0xbfc9983bfc008496	-0.19995832257066998
9	0xbfce48fd319b4870	-0.23660244867511748
10	0xbfd3c2d9755cc568	-0.30876766644640563
11	0xbfd326fddace780a	-0.29925485961746345
12	0x3fd0674ffae298f7	0.25630568981649965
13	0xbf8fdbbff7f7b08f	-0.01555585837828513
14	0x3fc587e61394d399	0.16820980030175006
15	0x3fdca32fe349650c	0.4474601478192006

BatchNorm2d2.running_var f8 [16]
0	0x3f7452fdcf313a0e	0.004961959307435494
1	0x3fa7fc76266bf718	0.04684800356879587
2	0x3f9c9aa7b5de25bc	0.02793371245892272
3	0x3fa5b6ad1eeec8e5	0.042409334207506956
4	0x3fa92d8aac60dd42	0.049175580541879885
5	0x3f9213b9d34b6cf8	0.017653373261834
6	0x3fa1232aee8e17dc	0.033471433277597135
7	0x3f8964ed9eeb38d6	0.01239953652602958
8	0x3f90d5dc68d9bec4	0.016440814876147028
9	0x3f9b6a9d7ae747ae	0.0267738920463853
10	0x3f97f638ff985905	0.023400202369964002
11	0x3f8d7b20d26eab5e	0.01439500467480109
12	0x3f80d2fa7f4fd764	0.008214909563303237
13	0x3f93fe7ffd61ec9f	0.019525527801743988
14	0x3fa3800a1ec3f109	0.03808623910478743
15	0x3f8ad118d27fb2f0	0.013094133304514227

BatchNorm2d2.num_batches_tracked f8 []
0	0x40c1940000000000	9000.0

conv3.depthwise.weight f8 [16, 1, 1, 64]
0	0xbf86eb6980d807f7	-0.011191200489523807
1	0xbfcb8c2b8b29e2f7	-0.21521515174006087
2	0xbfc237bcf863b7d9	-0.14232599380869607
3	0xbfbde9f16d24140c	-0.11685093798230656
4	0xbfb9a83026a66703	-0.10022259658435577
5	0xbfb56c732b0ee1d3	-0.08368606377815206
6	0xbfbef6108a917259	-0.1209421480466032
7	0xbf818f64eff46dd0	-0.008574284146155714
8	0xbfc5dd9585d10265	-0.17082470926290508
9	0xbfca4b7537d8a724	-0.20542779185171256
10	0xbfc792ed4a1d05d6	-0.18417135351960096
11	0xbfb44a1f999a7aa9	-0.07925603389819948
12	0xbfccb263b232133d	-0.22419401360471083
13	0xbfca57de4976560c	-0.2058065279676814
14	0xbfc30b6af6d51cae	-0.14878594448439258
15	0xbfc7f59b243d01e1	-0.18718280095528342
16	0xbfb7b6c8bda3386f	-0.09263281469176986
17	0xbfca5fbb4bd5d321	-0.20604649737256245
18	0xbfcc9eb37fb5ae30	-0.22359317527603784
19	0xbfc1a312bd2b5fbe	-0.13778909909046705
20	0xbfc0de202f179934	-0.13177873897002146
21	0xbfc990adc83e4c0d	-0.19972774770266746
22	0xbfbdcfa4e78e1448	-0.11644964841077965
23	0xbfcb97463c428ecc	-0.21555402700788873
24	0xbfc1dd255a43648c	-0.13956133754144096
25	0xbfbcaea91168f197	-0.11204010653540873
26	0xbfc411c77cd52963	-0.15679257960648404
27	0xbf75828243d4c799	-0.005251416060945057
28	0xbfc189ab5d60f82a	-0.1370138364745242
29	0xbfa5950237833a56	-0.042152470852319254
30	0xbfbc3b78ea08f508	-0.11028247560257765
31	0x3fa0635f114c1ed4	0.03200814329289661
32	0xbfa5fee1b1dceddd	-0.04296021743945364
33	0x3fad58a22df509da	0.05731684504509689
34	0xbf9ff32027ae4d5c	-0.031200888082435582
35	0x3fadaceef35446a9	0.05796000213935077
36	0x3f53ae1b8230d61a	0.0012011784208544375
37	0x3fa37fae655934a4	0.038083505508077736
38	0x3fbf65ff9fa8f2b9	0.12265012405346
39	0x3fa3cc91a227528f	0.03867011169828515
40	0x3f82c48894859874	0.009163920433547391
41	0x3fb265a322d0b057	0.07186336135845416
42	0x3fc4f7af4f89476b	0.1638087404594971
43	0x3fa10bb120e0118b	0.03329232717809124
44	0x3f98dc64be8adb84	0.024278234605584995
45	0x3fb9a4f8cf858e14	0.10017352167556509
46	0x3fb3066e161fbbd7	0.07431686439643613
47	0x3fbe8fc41c2ecb4b	0.1193811959081305
48	0x3fb3688363a37551	0.07581349546986373
49	0xbfa819fcdcbf46d9	-0.047073270746876346
50	0x3faf39396b29a1e1	0.06098346169602898
51	0x3f05544808076190	4.0682266447769557e-05
52	0xbfa4924cb232e66e	-0.04017867732313794
53	0xbfabeafc3e42203f	-0.05452717075337476
54	0xbfbbcd18bbd0745e	-0.10859827599820579
55	0xbfb4b6e9e3321009	-0.08091604038969548
56	0xbfc27d2f947be715	-0.14444536924548204
57	0xbfc59420396026b5	-0.16858294297735701
58	0xbfc12c94b3a0d39e	-0.13417300005826588
59	0xbfc59e8b9e9a133a	-0.16890092128974193
60	0xbfc11bc5f74c7e78	-0.13366007399689628
61	0xbfc85a1676da0bd1	-0.19024925998027567
62	0xbf77e5559c6a2f96	-0.005833944719267145
63	0xbfc0b6e79d7ae91d	-0.13058180989703141
64	0xbfc40f9a4deef286	-0.15672615819302765
65	0xbf963899b4efe163	-0.021700288456459115
66	0xbfc04de39ab2de1c	-0.12737698606154957
67	0xbfbd6190f6e0dc4f	-0.114769993088758
68	0xbf57faf8a8efb811	-0.0014636448211109469
69	0xbfbab3c435928e7e	-0.10430551822588005
70	0x3f7ce365b64cd861	0.007052800476961081
71	0xbfa3a2adb13824ac	-0.03835051334687853
72	0xbfb1817b7c3dcd28	-0.06838199408757772
73	0x3fb448e5ff1f5c5f	0.0792373416764902
74	0x3fb483c301c18e25	0.08013552468178682
75	0x3fb2948a81089c11	0.07257905626521245
76	0xbf7e34cc27d8e11d	-0.007374570353526869
77	0x3fb0016be71e7436	0.06252169029762986
78	0x3fc282111825723f	0.14459432295815763
79	0x3fc8793229e5efa4	0.19119860692796664
80	0x3fc48f84d3c9dbb6	0.16062984791980534
81	0x3fc704d68e480218	0.17983514735534878
82	0x3fca538d3d0be910	0.20567479592120508
83	0x3fb9d2961af04114	0.10086954267194798
84	0x3fbea45abd8e36af	0.11969534995861396
85	0x3fcbb110670c8416	0.2163410666626368
86	0x3fc5dba73893fa60	0.17076578390693253
87	0x3fd00a05d1321e96	0.2506117384841472
88	0x3fbcdf587acffe70	0.11278298376418561
89	0x3fca3badea86aaca	0.20494626952616662
90	0x3fc7dcec07d305fb	0.18642950422331225
91	0x3fba4f9370c71fd2	0.10277673247685407
92	0x3fc0fec487176630	0.13277489277133858
93	0x3fbb655048640854	0.10701467292167993
94	0xbf9d83c1f6132b3c	-0.028822928089350372
95	0x3fbf4ab4a446ba1b	0.12223366747523594
96	0x3fb355bd86ab1501	0.07552704370307951
97	0xbf6d9835eceb9544	-0.0036126187545614547
98	0x3fafd61644cf754b	0.06218022909136297
99	0x3fb5d22595f8fb8e	0.08523783599319598
100	0x3f9f1cb2ec50c505	0.030382915185502863
101	0xbfa119da58fd0a01	-0.03340036712917894
102	0xbf850bd29bbc9bf7	-0.0102764562394224
103	0xbf907d59d8e3ee21	-0.01610317598622946
104	0x3f8c7a053fa765ce	0.01390461063867834
105	0xbfabe61cc7a2c906	-0.05448999344788956
106	0xbfa56b5c5b5ac9bd	-0.041834722663583325
107	0xbfbc59487333472c	-0.11073735058314743
108	0xbfad92ac2b56adf1	-0.057759647646289276
109	0x3f95e37a662ed112	0.02137557266878882
110	0x3fa9ffbc30627729	0.050779229074789996
111	0xbfb4f7f0b5bb4bca	-0.08190826832587486
112	0xbfb078cd5c91c815	-0.06434329519268574
113	0x3fa1de9a168150bb	0.0349014427635281
114	0x3fb960182d357e31	0.09912253478750511
115	0x3faff5c68d05e986	0.06242199393723795
116	0x3fa7d3de21b52e10	0.04653829728576053
117	0x3fb59d3721ae6600	0.08443016598030084
118	0x3f94a2a7667ab10a	0.020151725416028866
119	0x3fa95921c1d6da79	0.049508147155781175
120	0x3fc62feefcaf8874	0.1733378156487252
121	0x3faea8e890baaa53	0.05988241926873585
122	0x3fb298bc36e7c1e2	0.07264305439435462
123	0x3fb583de476ec029	0.08404340023003044
124	0x3fc6508fda77c893	0.1743335549104513
125	0x3fb43df081423826	0.07907012134293775
126	0x3fc14c4a39a3e58c	0.13514068426574644
127	0x3f9480db771daa7f	0.02002280153775837
128	0x3fc0c7568af64963	0.13108331475502685
129	0x3fbbe4cc9147c0f2	0.10895994707948711
130	0x3facbe4a64af225f	0.056139302053968214
131	0xbf9521eef4a0e5d6	-0.020637258225382947
132	0x3fb487e9df13a178	0.08019887634475775
133	0xbfa1be8d5c31cb65	-0.034656922821247695
134	0x3fb7338714f3e8e2	0.09062999974767963
135	0xbf8b8c4a413aee0e	-0.013451175800006456
136	0xbfb4579f579f85e8	-0.07946201218830817
137	0x3fae7a9e5bf9ce49	0.05952925560714257
138	0xbfa801234a05bbed	-0.046883681093156195
139	0x3f9350c0800e18e3	0.01886273175798515
140	0xbfc051ef5a6f942f	-0.12750045696080423
141	0xbfc2e6fff00c2c72	-0.14767455311843808
142	0xbfa32e64238a4234	-0.03746331151808527
143	0xbf9bec3baf8254e1	-0.027268345439172562
144	0x3f89efdcf0a42390	0.012664533704553255
145	0xbfc24c814b0e904b	-0.1429597488869397
146	0xbfc1b9bee4e2b4cd	-0.13848100830128943
147	0xbfa4f7e6a0046e3c	-0.04095383361183422
148	0xbfc258c1447cf37f	-0.14333358616013567
149	0xbfc761a1044b5e00	-0.18266689977347994
150	0xbfc6da57da2629c7	-0.17853830482302
151	0xbfa5eb7291342064	-0.04281194708352201
152	0xbfbd8ad1dd2514ce	-0.11539947175068052
153	0xbfb28247c2734524	-0.07230041978188645
154	0xbfacabf31e751468	-0.055999371974885304
155	0xbfbea5396cc50f43	-0.11970862298499889
156	0xbfaf722016bffa9d	-0.06141758229931791
157	0xbfce3edf60e1123b	-0.23629371862820556
158	0xbfcd0f2a3d3d2306	-0.22702529897858187
159	0xbfc2ac24911fceca	-0.14587838255066848
160	0xbfc1d91e2108201f	-0.13943840611341415
161	0xbfc82ad49849b91d	-0.18880708156525197
162	0xbf9e6ddd8b87bb3a	-0.02971597828030357
163	0xbfc6bf4452f7c7cf	-0.17771200228850012
164	0xbfc8cecdd83ed0a0	-0.19381115969520568
165	0xbfc1cafae88f02e8	-0.13900696139719249
166	0xbfc28971342e2801	-0.14481940315118894
167	0xbfc6d0729c0cac24	-0.17823631877522061
168	0xbfc2b6c13c82e719	-0.1462022347894212
169	0xbfba03f30f05f015	-0.10162276379372799
170	0xbfa06a13c5aaac5f	-0.03205930507586951
171	0xbfbdc750ad3683cb	-0.11632255772430182
172	0xbf905674a50a9572	-0.015954802106212758
173	0xbf98e6b1675b8ee2	-0.024317523892832045
174	0xbfc2e4e31ffc7dad	-0.14761008321600624
175	0xbfc165f9b36592e3	-0.1359245420418552
176	0x3f92697e1c33d0fc	0.017980547400797228
177	0xbfa49d5e2c0e8bb4	-0.04026312148859948
178	0x3fb10aaff3cc5ef2	0.06656932546718133
179	0x3f7e84c291c85041	0.0074508285874977384
180	0xbfb49db6e4e6e348	-0.08053153122353962
181	0x3f9ad37d65ad2da3	0.026197394686546038
182	0x3fac511adfab054f	0.055306281855801324
183	0x3fad94e33b680c1d	0.05777654743362624
184	0xbfade760a6d544b5	-0.058405895581594626
185	0x3f8bbd0a321f39fa	0.013544158606149093
186	0x3f71b67c48fad2e8	0.0043244223485785285
187	0xbf9dc396256ea1d1	-0.029066415819814232
188	0xbfc003077e7907f3	-0.12509244609287826
189	0xbf8da355a2f49aa6	-0.014471692119127976
190	0xbfbc44e90dfc4ea9	-0.11042648879475316
191	0xbfa9a5f7378c8cc3	-0.05009434273804338
192	0xbf87a0590bd720ac	-0.01153630797752244
193	0xbfbb4a22f0aae2d7	-0.10659998298332184
194	0x3f7dad5e15d76db8	0.007245414276862254
195	0xbfaa0be2808bf15c	-0.050871923629503185
196	0xbfacf4e803c74f97	-0.056555986844301014
197	0xbfa0b83f2e25b2f0	-0.03265569151230874
198	0xbfb1f239022e621f	-0.07010227492572384
199	0xbfca1b157ab49411	-0.20395153514360279
200	0xbfc7e26b6415a8da	-0.1865972746557592
201	0xbfc8853de39e4cb6	-0.1915662156503452
202	0xbfccd98b0a4e0293	-0.2253888893428849
203	0xbfc2bd05a99a65b2	-0.14639349728967727
204	0xbfcf2aad5958f04e	-0.2434899030939754
205	0xbfc345f415c2ffcc	-0.15057231009086391
206	0xbfbb976d6bfbd47a	-0.10777934919663493
207	0xbfc7b271c1d16da1	-0.18513318980954543
208	0xbfb7adfcb044daf2	-0.09249858191911267
209	0xbfbb0fde089e8e47	-0.10571086607392842
210	0xbfcebf066d895322	-0.24020462368448486
211	0xbfc7cffb682c1957	-0.1860346087125417
212	0xbfcd546a5f6355c8	-0.22913865716570414
213	0xbfba3d9193ef4ca4	-0.10250196325005106
214	0xbfb3084558a1a45e	-0.07434495366909874
215	0xbfca81b28ce1ea39	-0.20708305243518213
216	0xbfc93783cf5e4885	-0.1970066797771929
217	0xbfa9f212bbdc1dea	-0.050674996788128215
218	0xbfc46c9c2712e319	-0.15956451328181556
219	0xbfc5e5a9aebbb104	-0.17107125312703186
220	0xbfc2b015703c8f23	-0.14599864940930116
221	0x3f8363185c565a7c	0.009466352765952417
222	0xbf9d64322dc4a2d6	-0.0287025299486768
223	0xbfc25f687b2e143d	-0.14353662504814393
224	0xbfc005093d005a1e	-0.1251536891802098
225	0xbfaad1299845ba15	-0.05237703307908618
226	0xbfb1be9ac4eb2742	-0.06931464488584729
227	0x3f91c42689f61f0f	0.01734981743859892
228	0xbfb6313a6177e73a	-0.08668866042708326
229	0xbf983ce20fc4d355	-0.023669750416235164
230	0x3f7d61993f93c0fe	0.007173155428276566
231	0x3f875dcd2e83b94a	0.011409380895625394
232	0xbfad7376aefb47f6	-0.05752154241567091
233	0x3fa077b6b9aeb983	0.03216334358818342
234	0xbfaf3dc15e1054cd	-0.06101803086509392
235	0x3fb79373a7770e37	0.09209368551733453
236	0xbf9a9377db54bfa7	-0.025953171502976293
237	0xbf9b6138aaafca0f	-0.026738057535064693
238	0xbf85cd836fb2d7e3	-0.01064589199664207
239	0xbf65c916e8758380	-0.002659363500854217
240	0x3fbae65666e312e0	0.10507717143907369
241	0xbf89deb7cc6bcdc2	-0.012631832052170892
242	0x3fadbb55f4e8dd6a	0.058069883485979926
243	0xbfa16e34b3096aca	-0.03404392896182669
244	0x3fb4b427c5a3fbac	0.0808739526291748
245	0x3fad795b0047ea73	0.05756649378232206
246	0x3fc19198dce97ece	0.13725577151034546
247	0x3fb1e13ffd40837c	0.06984329159651098
248	0x3fba7c6a099d7678	0.10346091017478354
249	0x3faa36326812ee75	0.05119473953660939
250	0xbf6c8552414388aa	-0.0034815413037999248
251	0xbfb25150b52a4da0	-0.07155327246646559
252	0x3fa99cb9c46fe9e4	0.05002384684481223
253	0xbf9071f627596ac0	-0.016059728767099157
254	0xbfa5daf51fdfbd86	-0.04268613828741778
255	0xbfc08612c29518cf	-0.12909159184545735

conv3.depthwise.bias f8 [16]
0	0x3fa6e07d8094f937	0.04468147463420496
1	0xbfa9cb88ffe4451f	-0.05038097499540072
2	0xbfa7f2ff001a90df	-0.046775788080852136
3	0x3fab09857fe0c8aa	0.05280701814662454
4	0xbfad946d0094075f	-0.05777302391108096
5	0xbfa1d5237f77679f	-0.034829243955484694
6	0x3f9f866cff1cd260	0.030786231108509532
7	0xbf9ef63effd3c235	-0.030236229290439638
8	0xbfbb6acefffc1bef	-0.10709851979855477
9	0x3fa76cbd806d60f1	0.04575149719920713
10	0xbfb7a34f7feccafe	-0.09233567116897842
11	0x3fbade52fff4d40a	0.10495489834723074
12	0x3f0f13ff8e658219	5.927680631390517e-05
13	0x3fa67e2280132ad9	0.04393108189977619
14	0x3f9b504200b7e8bf	0.026673346799704897
15	0xbfa2103e7fd69b8a	-0.035280182938826135

conv3.pointwise.weight f8 [16, 16, 1, 1]
0	0x3fd0298e8a14bcf2	0.25253642544244237
1	0x3fb176ba25303c49	0.06821788223190696
2	0xbf43760525fdc978	-0.0005939030779543017
3	0xbfc0e68c0b74ba05	-0.1320357376038858
4	0x3fc9efb0adeab5f7	0.2026272629931751
5	0x3fbc8bc4aae063e5	0.11150769397535461
6	0x3fc629f8cd26fe9d	0.17315588013842823
7	0x3fc3f3c880d194e6	0.1558771733281567
8	0x3fbacad2ce122bfe	0.10465734034566762
9	0x3fb8da78a28137f6	0.09708360640908595
10	0xbfb6477e11ecb145	-0.08702838838207068
11	0xbfcdb35ced0b6644	-0.2320362241214743
12	0x3fc56b47a83e3d72	0.1673364230632433
13	0x3fd35a7c7d209247	0.30239784450012447
14	0x3fd35a72ea5711ed	0.30239556202675894
15	0x3fc44327a1f9b888	0.15829940232237427
16	0xbfb1c776124e6606	-0.06944978663377563
17	0x3fbec084fa4c954a	0.12012511359042324
18	0x3fc30e6be427042e	0.14887760772947572
19	0xbfcdd1d26c870fb9	-0.23296575831602498
20	0x3fc24211c0c79148	0.1426412764841507
21	0x3fb971505fd74500	0.09938528385034218
22	0x3f97a0ff4e30b4fb	0.023075093409876662
23	0xbfd0b5a8d920c74e	-0.26108761981878537
24	0xbf9435c18f1904c0	-0.01973631320857261
25	0xbfc102d864d595d2	-0.13289933131743098
26	0xbfc94bfa47755c29	-0.1976311539571907
27	0x3fc6f5248278c57a	0.17935615893069806
28	0xbfc039491966041b	-0.12674821605836048
29	0x3fc5efcec6cf6d43	0.1713808508637645
30	0x3f9d2f0768f314e7	0.028499713688479835
31	0xbfd7c8097dc2f5a6	-0.3715842941417925
32	0xbfa73ada307d0989	-0.04537088243388882
33	0x3fb2b85d35c5223a	0.07312567293878028
34	0x3fc208ea3e25c428	0.14089706453845108
35	0x3fc7c9fadf0ce7f9	0.1858514393914559
36	0xbf988903dc191a4e	-0.023960171040267313
37	0x3fd169929d241c7f	0.27206864686781523
38	0xbfc7bb8c84af0348	-0.1854110381955485
39	0xbfc7c46b98d02915	-0.1856817718656393
40	0xbfc9a871c86bd1d4	-0.20045301710309948
41	0x3fa6c54f4d79e043	0.04447410412552746
42	0x3fb09a00afa0dda2	0.06484989440729419
43	0xbfc8a72901a45d04	-0.19260132389238305
44	0x3fbd514d6719a005	0.11452182547657237
45	0x3fadb44d0cd6e1c6	0.0580162122891497
46	0xbfb35233d45c107f	-0.07547305998383712
47	0x3fc61d83b31e55f7	0.17277570959110708
48	0x3fc5ccce3625385b	0.17031266826456
49	0x3fc320b6acf8b09c	0.14943583913680392
50	0x3fcd33e1349aa317	0.22814574307019406
51	0xbfabc4df2748de79	-0.05423638681935201
52	0x3fb3c3e80208f434	0.07720804261858022
53	0x3fcc2f69a8d8e9c0	0.2201969217729367
54	0xbfd1f045743ad33e	-0.28028999662938137
55	0xbfbf65a85171938f	-0.12264492023821404
56	0x3f91c61871439a23	0.017357236779299023
57	0x3fb78a3d8b60d725	0.0919531312254916
58	0xbfc49a5af2f5f300	-0.16096054900472012
59	0x3fd7a45b82163f2a	0.3694065828685661
60	0xbfd083df87335e86	-0.2580488987273174
61	0xbfc1122e9b1ea6a5	-0.13336737226682263
62	0xbfb7b7e2368ff2b6	-0.09264959175193152
63	0xbfb12a0d1b7be72d	-0.06704790040012361
64	0x3fbb1389fdd166da	0.10576689192512437
65	0xbfb9cc6299416296	-0.10077491990649387
66	0xbfc4d41c5bee1983	-0.16272310723088532
67	0xbfc85cd76897e97d	-0.19033329588985373
68	0xbfcf6c8caa495d24	-0.24550016703390398
69	0xbf9d4f3afbcc689d	-0.028622552507933652
70	0xbfca70f47a8f7b09	-0.20657211288831714
71	0x3fc283054e28ebb5	0.14462343517683754
72	0x3fd853ae5b6d2c73	0.3801074879490393
73	0x3fc09abbaaaf7cd5	0.12972207865002497
74	0x3fcaf57d4a2b4b23	0.21061674233950453
75	0x3f98ec39a21670d1	0.02433862735561904
76	0xbfa35edc3005f4e3	-0.037833100187506984
77	0xbfb3dd756979840f	-0.07759794068398683
78	0x3fcb72a7d02905c3	0.21443650878977225
79	0xbfd3f603b3b71584	-0.31189053106603404
80	0xbfd271ae0cf705c0	-0.28818846956354705
81	0x3fa0f477926fead8	0.033115135789520245
82	0x3f2b58d5ec26d3eb	0.00020864116056676317
83	0xbfb39a9c04e4bb49	-0.0765779029795627
84	0xbfb90a5f720b9908	-0.09781452688512016
85	0x3fd7693f08d0b879	0.3657987199866351
86	0xbfab4bf704cae085	-0.05331394132139259
87	0x3fd8d4ef7950e89a	0.3879965481497806
88	0xbfda662e9c5a70b6	-0.4124866988074801
89	0x3fa33c6fc67592f5	0.037570469833360244
90	0xbf97c0258af5e39b	-0.023193918806530083
91	0xbf890fac0144cbe3	-0.012236923016279938
92	0x3fc9a275b9633a4a	0.2002703814709597
93	0x3fb29b573a16da54	0.07268281143374483
94	0x3fae2aaa6dde5f21	0.05891926375551138
95	0xbfb9057dfbc3d7ff	-0.09774005314451982
96	0xbfd881e85bf51a70	-0.38292893390863636
97	0xbfa79e41ed00b592	-0.04612928407764651
98	0xbfbd0bd18e6e8ad0	-0.11346158721293453
99	0x3fad15925cf10ae5	0.056805204244047926
100	0x3f7074131b295f88	0.004016947396472299
101	0x3fd0e6c324f1225e	0.26408461196527877
102	0x3fb03c3e3ae2449b	0.06341923654169294
103	0x3f91c1ec06d782a5	0.017341316144554714
104	0x3fc5abc3299f9653	0.16930427105323761
105	0xbfc91a8966b1b9dd	-0.19612233652465152
106	0x3f6930412ea1db8b	0.0030747674073227696
107	0x3fb2f44117465893	0.07403952425224451
108	0x3fc4bc358d1c6b8f	0.16199368848978365
109	0xbfa116b637df39bc	-0.03337640220671598
110	0x3fd2b471151d9727	0.29226328908986193
111	0xbfd0be6662f61045	-0.26162109054735466
112	0x3fbed23694eda375	0.12039509902900909
113	0xbfc6f7d4081aa281	-0.17943811793999845
114	0xbf98035308ecbaca	-0.02345018140766334
115	0xbfa37a8beaa7cda1	-0.038044330973117775
116	0xbfb6988771776dc0	-0.08826490898302719
117	0x3fb111dbaf32ac93	0.06667874362271879
118	0xbfc59268b3285e28	-0.1685305475991623
119	0x3fc27dba7b98e42c	0.14446192774792743
120	0x3f96842c8b0f01bf	0.021988578784432052
121	0x3fb2767c1c309e6a	0.07212043464880372
122	0x3fd4330634ae53b2	0.3156142725431962
123	0xbfab47e75995dfb7	-0.0532829567773087
124	0x3fc4d5f1f2bea4bf	0.16277908661621684
125	0xbfcf9724f689ca82	-0.24680006063461596
126	0x3fcb01f1302e19c9	0.21099676945250526
127	0x3fc2600a9e3294d9	0.143555953259386
128	0x3fd855f03a7186c9	0.3802452631699507
129	0x3fce7be2e8437847	0.23815571156495904
130	0x3fb4cd0a899f8007	0.08125367984712294
131	0xbfb84778fae0e252	-0.09484058499300232
132	0xbfa78c8374a93a13	-0.04599390791974058
133	0xbfc73554afafaab1	-0.18131502703120853
134	0x3fbfe068bfe7795b	0.124517962314234
135	0x3fc8209373024db5	0.18849413982080213
136	0x3f81a370914e1c57	0.008612517771110868
137	0x3fd5a90d3904f982	0.3384430939512627
138	0x3f914d54680d809e	0.016896551943660236
139	0x3fab0ab6c8646b42	0.05281611629671669
140	0x3fc25c7b32675de3	0.14344730340120213
141	0xbfab5b3fc7a026c8	-0.053430550688131684
142	0xbfb8dbc8bd4a96d5	-0.0971036398064727
143	0xbfc5c7aa97fd7cc8	-0.17015583440204396
144	0x3fd3e1dea8cac388	0.31066099628065347
145	0x3fca31a5f22bcca7	0.2046401436306031
146	0xbfc0aad772993f2e	-0.13021367164264447
147	0x3fd397a4b9189177	0.30613058162477763
148	0x3fa6f00bcca60776	0.04480015633727323
149	0x3fc50dee66af6dbf	0.16448764814309233
150	0xbfd01cc894cb9231	-0.25175680666714856
151	0xbfbdbd94e7997f1f	-0.11617403654372226
152	0xbfb78487a19a7a0e	-0.09186599440952412
153	0xbfc2c36539efa841	-0.146587994851247
154	0x3fb81041b0e4609f	0.09399805611281174
155	0x3f9330ec9a29327f	0.0187413186161387
156	0xbfc38e1c3f5a4c25	-0.1527743634547686
157	0x3fd1cd25d3d36a8c	0.27814622579686765
158	0x3fb8968fde539cd6	0.09604739358802603
159	0xbf754618a2eb4362	-0.005193802104899033
160	0x3f36db3cb57b0f01	0.0003487609114751628
161	0x3fa92ae275086361	0.049155308519579284
162	0x3fdd9ed1d74492fa	0.462818584654357
163	0xbfbb292670796838	-0.10609665151551517
164	0x3fa3e9b0d3db16b0	0.03889229379778436
165	0x3fa1bf2d7808c9f9	0.03466169443381157
166	0x3fc36dcec01767e8	0.15178856257881468
167	0x3fbacb20d6b2b6bb	0.1046619915166173
168	0xbfcd9e0ce0b1f07b	-0.2313858124870228
169	0xbfc3ee47332b1eb4	-0.15570917128046846
170	0x3fa61dfad9ba9ffb	0.0431974783689952
171	0xbfd015f35cd5a81a	-0.2513397604549269
172	0xbfd07882f0727772	-0.2573554370991281
173	0x3fd0cff68616c773	0.26269305319430386
174	0xbfc78bb185f5750a	-0.18395060578306072
175	0x3fca3545909f7811	0.20475072442690181
176	0x3fbb175879a7d87b	0.10582497568234032
177	0x3fb20486ede495c5	0.07038157756740933
178	0xbfca496634a1d74a	-0.20536496705943313
179	0x3fd23fbb91f6aeab	0.2851399350572403
180	0xbfc5a4d830e93d91	-0.16909315479504675
181	0x3fcc45aa9845b5ce	0.22087604937716637
182	0x3fb8161b1faf65a5	0.09408731006205658
183	0x3fd49171805bdf0c	0.3213771584992038
184	0x3fbe6811a97fa173	0.11877546680591937
185	0x3fab890305ba2993	0.05377969212448188
186	0x3f9495cde20fbd82	0.020102707789133152
187	0xbf8b107ae6ffd587	-0.013215027021923799
188	0xbfccb846fe401c86	-0.22437369741985352
189	0xbfb6d3a637ffbd09	-0.08916701190149835
190	0x3fa3a35c446cdce0	0.03835571608800037
191	0xbfc0554b8693ee25	-0.12760299750503737
192	0xbfcb80733c363d66	-0.21485748710663727
193	0x3fc8dd531bf5aacc	0.19425429215637846
194	0xbf6ac66b0de9175f	-0.0032684412865674885
195	0x3fc125f2593a5634	0.13397054058866475
196	0x3fa73c3d023f4f7c	0.04538145687516157
197	0x3f8103ae2207727f	0.008307800687299192
198	0xbfcc5c8c729b5f54	-0.22157435985604457
199	0xbfa5fbfc898a6839	-0.04293812922442481
200	0x3f9f8c456a425f7c	0.030808529482413402
201	0x3fc994a6b21a341d	0.19984897323993858
202	0x3fbba647ea18e5d5	0.10800599541916907
203	0xbfd3f9780551178f	-0.31210136908736613
204	0xbfc9163a3e272775	-0.1959908297997647
205	0xbfa9be4ac7234c2b	-0.05027993851549469
206	0xbfbb33091604d509	-0.10624748981065947
207	0x3f81e8ab38528a23	0.008744561821292745
208	0xbfb5c3a32b2dac2e	-0.08501643947754253
209	0xbfbc7828bc4f3ab5	-0.11120848271751067
210	0xbfb2d05ed8ab87b6	-0.07349198140903365
211	0x3f818bfd397e0f71	0.008567789380101694
212	0xbfcafba07fbd0688	-0.21080404507852202
213	0x3fb43403ba7266c3	0.07891867925573152
214	0x3fb83d339e3931e2	0.09468386280895616
215	0x3fa3d1afcb25d674	0.038709157512966025
216	0xbfc20d98fd19955d	-0.14103996618647843
217	0x3fdbe43feb25b1ff	0.4358062549934231
218	0x3f8a6a753ebb6254	0.012898364998748559
219	0xbfc2b0aa59374f8c	-0.14601640087368783
220	0xbfbcca1147dda81b	-0.11245830540215744
221	0x3fc7b24b8a412a94	0.1851286339827608
222	0x3faddb68549a5921	0.05831457169294852
223	0x3fc89286bab2b7f8	0.19197162738913653
224	0xbfb4c100e3846b88	-0.08106999926205394
225	0xbfd7262162353269	-0.3617022952137519
226	0x3fca189e85bffb57	0.2038763192249131
227	0x3fcd6ac4e9166606	0.22982083684182458
228	0x3fd0a098491b288d	0.2598019327093731
229	0x3fc8193d405a7b9f	0.1882702411866974
230	0xbfb97324099c2d92	-0.09941315874691828
231	0x3fc1c23ac539de43	0.1387399161355792
232	0x3fd5f5b681f8cc66	0.34312212650838203
233	0x3fccfc458411eb5e	0.22644871662836413
234	0x3f8bb02fdede7976	0.013519643773005834
235	0x3fcf6a4a8de7cb81	0.2454312508485508
236	0x3fc1fa473142fae6	0.14045038133004722
237	0x3f79e4c24ace8388	0.006321677164039204
238	0xbfbeb43cce6de360	-0.11993770637299184
239	0x3fa15c37ed7fe586	0.033906696073198225
240	0x3fd2687749aab56e	0.2876260966684957
241	0xbfd48ff257faf807	-0.32128580657797595
242	0x3fc502c02b6ae112	0.1641464435576912
243	0x3fcc4f5a0941d34f	0.2211716218186219
244	0x3fd498302b3cd6df	0.3217888281099998
245	0x3fc1e2797d3d0373	0.13972395529892942
246	0x3f94d53b48fd36a6	0.020344663934614225
247	0xbfa63c324d8d03d5	-0.04342801281610035
248	0xbf4c68824313944f	-0.0008669506115920408
249	0x3fcda5aba3e97914	0.23161836150661286
250	0x3fcc721b52732832	0.22223226095076282
251	0xbf96c5fdbd66c95d	-0.022239651379729043
252	0xbfbd1d7e89616ba6	-0.11373129705445581
253	0x3fc9bb2d53e9c8c5	0.20102469060254272
254	0x3fbf28c5c6d05b28	0.12171588996748695
255	0xbfb85798b390d58e	-0.09508661636285451

conv3.pointwise.bias f8 [16]
0	0xbf7fb157fb258357	-0.0077374874839229646
1	0x3fb6046a002c2c7a	0.08600485328877197
2	0x3f66d5effdd5df47	0.002787560208783821
3	0xbfb62f5eff8de848	-0.0866603254234245
4	0x3fa2060700cb25ce	0.03520223507582508
5	0xbfb23befffd71da9	-0.07122707363224969
6	0xbfc023e0400622df	-0.12609484792871847
7	0x3f9b3f0c00b88508	0.026607692283623613
8	0xbfc2fb018001cf16	-0.14828509092659975
9	0x3f909a3401118a12	0.016213238301483975
10	0xbfb50655800ca51e	-0.08212789894300385
11	0x3fbff7c480047564	0.1248743832151909
12	0xbfb7ac4cfffbb280	-0.09247285127248439
13	0xbfc01dfbfff12be4	-0.12591505047961882
14	0x3f9d68b200e96e4c	0.028719693475393535
15	0x3fcae0c6bffcea3b	0.20998463034068657

conv3.bn.weight f8 [16]
0	0x3ff9508bc9242a4d	1.582164560039604
1	0x3ff789899a8b8276	1.4710784947311857
2	0x3ff848e5c16de87f	1.5177972369988593
3	0x3ff433b2fd807d10	1.26262187027152
4	0x3ffa16cb8c16de3d	1.6305652115096472
5	0x3ff5870d12c50972	1.3454714520636029
6	0x3ff911f2f695fe5a	1.5668820984136773
7	0x3ff7785819f83320	1.4668808950838823
8	0x3ff28e43d5e2c1ac	1.1597326617157746
9	0x3ff47a7e92505cd6	1.279905864275681
10	0x3ff56fc8600e1686	1.339790702071157
11	0x3ff58ac51b09912f	1.34637938081239
12	0x3ff6737a100fd314	1.4031925799765235
13	0x3ff3fd3e29f03d57	1.2493268621654658
14	0x3ff53c9d7775d9d1	1.3272986093921768
15	0x3ff4f56d4ccf5c06	1.3099186897650283

conv3.bn.bias f8 [16]
0	0x3dd67165e1ad5d7f	8.164701590105368e-11
1	0x3dd07b2e41e91237	5.995816384844108e-11
2	0xbdd8e7749f6de32c	-9.060067267366292e-11
3	0xbd9ee6a5b6c9c67c	-7.026066235816902e-12
4	0x3dcdcf7b1f6ffe69	5.422493351011192e-11
5	0x3dd441ddee9edf97	7.369560140533891e-11
6	0x3dc47bb02b27e635	3.725864529617773e-11
7	0x3dd4e83c82a6c980	7.605985343536566e-11
8	0x3dd5d8f5df893358	7.948074827109155e-11
9	0x3dd21aab8a4e497c	6.58626231473983e-11
10	0x3ddd822f7720816e	1.0735143137428881e-10
11	0x3dd1a794f2ccb20d	6.422712075714907e-11
12	0xbd75519c6bec29d6	-1.2118330831627203e-12
13	0x3dd6758f41e89d23	8.17061561439822e-11
14	0x3dd7169d69331ed5	8.399488942913347e-11
15	0x3df50d05de1dfab4	3.063304871197987e-10

conv3.bn.running_mean f8 [16]
0	0xbfc955ebf3d65437	-0.19793462186922436
1	0xbfb4c04d0381b183	-0.0810592778740951
2	0xbfc64d67944755d6	-0.1742372011200774
3	0xbfa952a391c6f0c1	-0.049458610100801
4	0xbfa9e2cf157158e7	-0.050558539741062884
5	0xbfd626b7163b1f75	-0.34611298724166
6	0xbfd2c7ca2f9d980e	-0.293444200992213
7	0x3fcc519b9457a8a2	0.22124047034532618
8	0xbfd504aa3ff8113f	-0.3284097313592333
9	0xbfb8492062ac035a	-0.09486582192404339
10	0xbfca15ac99b58915	-0.2037864447148158
11	0xbfd1bb2b1bdd520d	-0.2770488521685202
12	0xbfd6c0e1fcf480db	-0.35552262976308463
13	0xbfd4b6837cc73b4e	-0.3236397474801621
14	0xbfa798be3e001071	-0.04608721262778282
15	0xbfb6a47bfb5c428a	-0.08844733130195884

conv3.bn.running_var f8 [16]
0	0x400757adaec8a360	2.91781174230384
1	0x4004bb94cd003c17	2.59159240872351
2	0x4002f015ea73e2cf	2.3672293011298744
3	0x4009cd3ece0acf51	3.225217446999445
4	0x40140ec06620f22b	5.0144058187111495
5	0x4017db6e2dcbe089	5.964287486618681
6	0x400ade4475b75012	3.358529014260065
7	0x40049cfef54d5bb2	2.5766581691964
8	0x40072bb2d40527ba	2.8963371814797627
9	0x40078d389374747a	2.9439555663980714
10	0x4012bdc301f9018b	4.6853142078620165
11	0x400dd3b99a4db81a	3.728381352898407
12	0x3ffc0d7b6cf2d8c3	1.7532915359311552
13	0x3ffd82c3b023411f	1.8444249039058105
14	0x400e3892fd448b6f	3.777624109892194
15	0x4007230bfd586790	2.8921127121547627

conv3.bn.num_batches_tracked f8 []
0	0x40c1940000000000	9000.0

BatchNorm2d3.weight f8 [16]
0	0x3ffa0e2a2b199d37	1.6284581836315064
1	0x3ff808085fb1989a	1.501961110881473
2	0x3ff8d66110e04ba2	1.5523386630272644
3	0x3ff44d2e21c17d8f	1.2688428228937914
4	0x3ffacc32d4087dd3	1.6748531611009312
5	0x3ff5cd63a98fd7a0	1.3626438735495654
6	0x3ff9aa5557e7b253	1.6040852960387795
7	0x3ff809cc6b63cf9e	1.50239221524405
8	0x3ff2a1fd5576dfae	1.1645482386065669
9	0x3ff4a2da221d8bbd	1.2897588093407955
10	0x3ff5be4201f56c08	1.3589496685515332
11	0x3ff5da61452e37e8	1.365815420376288
12	0x3ff6efc2b57afabf	1.4335352982595138
13	0x3ff411b48e236632	1.2543225815083017
14	0x3ff5871ce8e5492d	1.3454865548597568
15	0x3ff542ed57102862	1.3288396263983704

BatchNorm2d3.bias f8 [16]
0	0xbfdbe962aacb81bb	-0.4361197154921929
1	0xbfe2de17a0bc03c0	-0.5896108760208492
2	0xbfd9318730b26da1	-0.39364795451703044
3	0xbfd57a1c654dbfe2	-0.33557805912914607
4	0xbfe6a89a89de03a2	-0.7080815022201146
5	0xbfe0ca4b137084f2	-0.5246940021208089
6	0xbfe2bc1c579641de	-0.5854627333338234
7	0xbfddee6034669961	-0.4676743041731211
8	0xbfd7b7fd654f9ec0	-0.37060484784749903
9	0xbfd5e129c510747d	-0.3418678688484034
10	0xbfdd720ce4bbbd42	-0.4600860818599878
11	0xbfe1f5a2bc894a94	-0.5612348253583428
12	0xbfe007654794d1b2	-0.5009027860710857
13	0xbfd3effc2afb3777	-0.3115225238551526
14	0xbfe000c3f15a6eea	-0.5000934328013191
15	0xbfd845f2502fe1a4	-0.3792691977573901

BatchNorm2d3.running_mean f8 [16]
0	0x3dd82b20e23abd3a	8.79243835354864e-11
1	0x3dd03563cc16fab4	5.896637607225788e-11
2	0xbdd7df19b3c18a40	-8.684395992175279e-11
3	0xbd94119df4f13201	-4.5631205647564005e-12
4	0x3dceefed2ebd3b26	5.62744623837357e-11
5	0x3dd32d7f00c90eae	6.97681358834352e-11
6	0x3dc87db55be8cbfa	4.454895782882015e-11
7	0x3dd4cccebaf9014b	7.56700663441254e-11
8	0x3dd603bfabe8e32f	8.008880622702609e-11
9	0x3dd2f3a07026c4c2	6.894576232660885e-11
10	0x3ddc378915d5a915	1.0265261337024934e-10
11	0x3dd11290e15a9976	6.210947757704854e-11
12	0xbd8b50af231412cc	-3.105375569580498e-12
13	0x3dd5a202c1f6057b	7.869986649368326e-11
14	0x3dd674a048166c8b	8.169289031868327e-11
15	0x3df487c8e4796cb7	2.9875677320441016e-10

BatchNorm2d3.running_var f8 [16]
0	0x400408981deaa1eb	2.504196389887729
1	0x4001288a028a8f34	2.1447944830450982
2	0x40023694bac3d8a1	2.276650866605522
3	0x3ff9426f4ed658d3	1.5787194327909233
4	0x40051b8a4a598ee2	2.638447361810777
5	0x3ffcd1bd76c100b5	1.8012060774636158
6	0x40039334ae2574da	2.4468778233700563
7	0x40012144ebaa3815	2.1412447367974985
8	0x3ff58b0bcc710bc6	1.346446798896737
9	0x3ffa81ef1cf2c2c5	1.6567221766273843
10	0x3ffc5ea36c62bcce	1.7731050714317464
11	0x3ffccfcc31ad7bb1	1.8007318439992839
12	0x3fff8d975a8fcfad	1.972068170315633
13	0x3ff91a74e6b252e6	1.568959141882425
14	0x3ffbe6423df87edb	1.743715517113677
15	0x3ffb5a3bfbcc4bc4	1.7095298610554304

BatchNorm2d3.num_batches_tracked f8 []
0	0x40c1940000000000	9000.0
